a_local_ma0.pth (torch_old, 92773 bytes, 8 tensors)

layer1.weight f4 [100, 24]
0	0x3ede5239	0.43422106
1	0x3aa5aaaf	0.0012639369
2	0xbd501efd	-0.050810803
3	0xbf76067e	-0.96103656
4	0xbc0f97d5	-0.008764227
5	0xbeeb6932	-0.45978695
6	0xbeb29c3c	-0.34884822
7	0xbf67942c	-0.9046047
8	0x3ec50e95	0.38487688
9	0x3e0c36e9	0.13692822
10	0xbda46f44	-0.08029035
11	0xbf1d0180	-0.61330414
12	0xbea62b9b	-0.32455143
13	0xbf02b91a	-0.5106369
14	0xbe3a2616	-0.18178591
15	0xbf24d000	-0.6437988
16	0x3eab1573	0.33414802
17	0xbf2be296	-0.6714262
18	0xbd0fd196	-0.035111986
19	0xbec7ee43	-0.39048967
20	0xbdc819d2	-0.0977055
21	0xbe3ba1f4	-0.18323499
22	0xbc5fd5f7	-0.013661853
23	0xbeb9fe39	-0.3632677
24	0xbeaef8e1	-0.34174255
25	0xbf2a1c71	-0.6644965
26	0x3d5b409f	0.053528424
27	0xbecd9832	-0.40155178
28	0xbfbd2d4e	-1.4779451
29	0xbe0b03d2	-0.13575676
30	0x3dcb66eb	0.099317394
31	0xbf0a2a65	-0.5397094
32	0xbef51894	-0.47870314
33	0xbf490369	-0.7852083
34	0x3e432349	0.19056429
35	0x3b7fbe5c	0.0039023375
36	0xbf5126d8	-0.81699896
37	0xbe676ab3	-0.22599296
38	0xbd6cb198	-0.057786554
39	0x3e74bb62	0.23899606
40	0xbedf4647	-0.43608305
41	0xbf027b14	-0.5096905
42	0x3d2e8f1e	0.042616956
43	0xbe9074b6	-0.28214043
44	0xbe19d0e9	-0.15021099
45	0x3d3450d1	0.044022385
46	0x3d965963	0.07341268
47	0xbd2b5510	-0.04182917
48	0x3e02c45a	0.12770215
49	0x3fb0afbc	1.380363
50	0xbdc18d8f	-0.09450828
51	0xbe254c2e	-0.16142341
52	0xbd87c240	-0.06628847
53	0x3d2f5652	0.04280693
54	0xbe32e224	-0.17469078
55	0xbe425ea2	-0.18981412
56	0x3ed42813	0.41436824
57	0x3fa3f74c	1.2809844
58	0xbd8f52e5	-0.06998233
59	0xbecb4116	-0.39698094
60	0xbda1213a	-0.078676656
61	0x3e8a4439	0.27005175
62	0xbd8aec1d	-0.06783316
63	0xbf17287b	-0.59046143
64	0x3e924e22	0.28575236
65	0x3f8f7a70	1.120924
66	0xbd99d997	-0.07512205
67	0xbd3b903b	-0.045791846
68	0x3e3f5a29	0.18686737
69	0x3ecd8eb7	0.40147945
70	0xbc649a1b	-0.013952757
71	0x3e75e83b	0.2401437
72	0xbc10325b	-0.008801068
73	0x3f03a387	0.514214
74	0x3d297b7a	0.041377522
75	0x3e996ece	0.2996735
76	0xbe3db1ee	-0.18524906
77	0xbea0cc6d	-0.31405964
78	0x3db06d58	0.08614606
79	0x3ddf05ce	0.10889779
80	0x3e4157de	0.18881175
81	0x3efbb66b	0.4916261
82	0xbce9464b	-0.028475901
83	0xbea9b127	-0.3314297
84	0x3ebfb863	0.37445363
85	0xbe739e32	-0.23790815
86	0xbdd3b111	-0.10336507
87	0xbd4a79f7	-0.04943272
88	0x3ea94f07	0.33068106
89	0x3f39f9cb	0.7264678
90	0x3def0351	0.116705544
91	0x3d31692f	0.0433132
92	0x3f4411fd	0.7658995
93	0xbd988c9a	-0.074486926
94	0xbe53f560	-0.20699072
95	0xbbbd9f3e	-0.0057868054
96	0x3edd6e33	0.43248138
97	0x3f0fb83c	0.56140494
98	0xbd0636d2	-0.032767124
99	0x3b7e6639	0.0038818254
100	0xbf41e191	-0.7573481
101	0xbc0c5ff9	-0.008567804
102	0x3e22a9fd	0.15885158
103	0x3dab9354	0.0837771
104	0x3e84d46a	0.2594331
105	0x3e564933	0.20926361
106	0x3e011d96	0.12608942
107	0xbe8068ac	-0.25079858
108	0x3c61f840	0.013792098
109	0x3b676933	0.0035310506
110	0xbe24b382	-0.16084102
111	0xbea0b295	-0.31386247
112	0x3ea9f8ad	0.33197537
113	0x3e211040	0.15728855
114	0x3cbff21c	0.023430876
115	0xbe2dd9e4	-0.1697765
116	0x3ed36526	0.41288108
117	0x3efe231a	0.49636155
118	0xbcbe75d8	-0.023249552
119	0x3dcf63cc	0.101264566
120	0xbe402c75	-0.18766959
121	0x3fc7b3ec	1.5601783
122	0xbd605df1	-0.05477709
123	0x3f0dd080	0.5539627
124	0x3e254714	0.16140395
125	0xbe1a7341	-0.15083028
126	0x3d1f127b	0.038835984
127	0x3f0e1b8c	0.55510783
128	0xbe950495	-0.29105058
129	0x3fd3a92a	1.6536
130	0x3df5bdb6	0.11999075
131	0x3deed0e6	0.11660938
132	0x3ed83969	0.422313
133	0xbe88f25d	-0.26747409
134	0x3cdb1c97	0.026747031
135	0xbe32af40	-0.17449665
136	0xbeda323f	-0.4261646
137	0x3f9c4fce	1.2211854
138	0x3d7d553a	0.061848857
139	0xbe94404c	-0.28955305
140	0x3ea8257d	0.328411
141	0xbd8e6d94	-0.06954494
142	0xbdfb364c	-0.12266216
143	0xbe6db7d7	-0.2321466
144	0x3e9069e8	0.282058
145	0xbe77ac65	-0.24186857
146	0xbc9ce551	-0.019152315
147	0x3d1d9494	0.038471773
148	0x3eb3c674	0.35112345
149	0xbf1fc72f	-0.62413305
150	0xbd82c92f	-0.06386029
151	0x3da55e86	0.080746695
152	0x3dd378b8	0.1032576
153	0xbe585317	-0.21125446
154	0xbccef5a0	-0.025263608
155	0x3de4e13f	0.11175775
156	0x3f01864c	0.50595546
157	0xbeb7494a	-0.35798103
158	0xbd24c988	-0.040231258
159	0xbd0c5024	-0.034256116
160	0x3e657609	0.22408308
161	0x3d97e57e	0.07416819
162	0xbd42df7b	-0.04757641
163	0xbea1e23f	-0.31617925
164	0x3ee14242	0.43995863
165	0xbe6f6a77	-0.23380457
166	0x3e0b4e56	0.13604102
167	0xbb6fd0d7	-0.0036592984
168	0x3dee13dd	0.11624882
169	0xbe17b4b6	-0.1481503
170	0xbbb69088	-0.0055714287
171	0x3e7b5bd0	0.24546742
172	0xbe4b99f9	-0.19882955
173	0x3f037f82	0.51366436
174	0xbd18e729	-0.037329827
175	0x3dd20b26	0.10256033
176	0x3e4d322a	0.20038667
177	0xbe5ffe26	-0.21874294
178	0xbdbdf6cd	-0.09275589
179	0xbe155c35	-0.14585955
180	0xbe8c5910	-0.274117
181	0x3e5bebfc	0.2147674
182	0x3db5698f	0.08858024
183	0xbe129e3f	-0.14318179
184	0x3e28fbb7	0.16502272
185	0xbe11e4c2	-0.1424742
186	0xbdf3c854	-0.11903444
187	0xbf4c0dd1	-0.7970858
188	0xbf8eedd1	-1.1166326
189	0x3f1553a8	0.58330774
190	0xbd4134b0	-0.047169387
191	0xbf101e07	-0.5629582
192	0x3e8aa9ab	0.2708257
193	0x3de30155	0.110842384
194	0xbd959857	-0.07304447
195	0xbf1ab263	-0.60428447
196	0xbe3f2480	-0.18666267
197	0xbc9a6b81	-0.01885009
198	0xbe31c126	-0.17358837
199	0xbf12e423	-0.5737936
200	0x3ecd7c9f	0.4013414
201	0x3ed94b1c	0.42440116
202	0x3e841cb1	0.2580314
203	0xbde5a04d	-0.112122156
204	0xbd1b0749	-0.037848745
205	0xbecb3803	-0.3969117
206	0x3ce655f7	0.028117163
207	0x3db7a89d	0.08967707
208	0x3f1000bf	0.5625114
209	0x3eda758d	0.4266781
210	0x3e080eec	0.13286942
211	0xbcea9c43	-0.028638965
212	0xbee7d72a	-0.45281345
213	0x3da95009	0.082672186
214	0xbe395180	-0.18097496
215	0x3dab4238	0.083622396
216	0xbb0432c6	-0.0020171865
217	0xbe886dd0	-0.2664628
218	0x3e2d6fe7	0.16937219
219	0x3d512840	0.051063776
220	0xbe9bcc48	-0.30429292
221	0x3ec49753	0.383967
222	0xbde77826	-0.11302213
223	0xbe8aaa82	-0.27083212
224	0x3e8d5899	0.27606657
225	0x3e3cf346	0.18452176
226	0x3e084f1d	0.1331143
227	0xbd78db12	-0.060755797
228	0xbe8c6830	-0.2742324
229	0xbea63ba2	-0.3246737
230	0x3dfdf9fd	0.12401197
231	0x3e0d3311	0.13789012
232	0x3e8e4ad8	0.27791476
233	0x3e200164	0.1562553
234	0xbd436032	-0.04769916
235	0x3e9fd2d9	0.31215551
236	0x3ea57106	0.32312793
237	0xbf496127	-0.7866387
238	0xbc5f0d43	-0.013614002
239	0x3ef17ab5	0.4716393
240	0x3eed9ec0	0.4641018
241	0xbed1d03e	-0.4097919
242	0xbe5c32be	-0.21503732
243	0x3e4e159d	0.20125432
244	0x3d9d68ce	0.076860055
245	0xbe6d2568	-0.231588
246	0x3cad18c2	0.02112997
247	0x3ec37188	0.38172555
248	0x3efd8c3c	0.49521053
249	0xbef80492	-0.48440987
250	0xbc04c43e	-0.008103428
251	0x3eac9089	0.33704022
252	0x3dc5f0b5	0.09665052
253	0x3d47fb18	0.048823446
254	0x3e2396aa	0.15975443
255	0x3f04841c	0.5176408

layer1.bias f4 [100]
0	0x3cadf9f8	0.021237358
1	0x3e9fd48a	0.31216842
2	0xbf0cf3fc	-0.5505979
3	0xbec5cbcb	-0.38632044
4	0xbec18d74	-0.37803233
5	0x3edc70cc	0.43054807
6	0xbeb7abb0	-0.35873175
7	0x3e88904d	0.26672593
8	0xbdee6e66	-0.116421506
9	0x3e1b4171	0.15161683
10	0xbefc855a	-0.4932049
11	0xbf050c0d	-0.51971513
12	0x3e95a899	0.29230192
13	0xbe914ff9	-0.28381327
14	0xbd3506bd	-0.04419588
15	0x3ed4fb31	0.41597894
16	0xbe9b2686	-0.3030283
17	0xbe883359	-0.26601675
18	0xbe94d5c5	-0.29069343
19	0xbf065a08	-0.52481127
20	0xbd178d0b	-0.036999743
21	0x3e4fe1a0	0.20300913
22	0xbe6d2ce8	-0.23161662
23	0x3d68306e	0.05668681
24	0xbee77fbd	-0.45214644
25	0xbe3a96ae	-0.18221542
26	0xbeb6b6b9	-0.3568628
27	0xbcc3df34	-0.023910142
28	0xbdc99d67	-0.09844475
29	0xbd836ab2	-0.06416835
30	0xbe1a41e5	-0.150642
31	0xbd8c18d6	-0.068406746
32	0xbe37ae9e	-0.17937705
33	0x3e33ddd7	0.17565094
34	0xbe69d0af	-0.22833513
35	0x3da50254	0.08057085
36	0xbf1edd1f	-0.62056154
37	0xbeaffefa	-0.3437422
38	0xbda1d780	-0.079024315
39	0xbe1bbca4	-0.1520868
40	0xbdd54e41	-0.104153164
41	0x3e8d72d2	0.27626663
42	0x3d253dfa	0.04034231
43	0xbe1f1f8d	-0.1553938
44	0x3c225999	0.009909057
45	0xbe5a1f78	-0.21301067
46	0xbea8080c	-0.3281864
47	0x3e11e3f6	0.14247116
48	0xbf08ba55	-0.5340932
49	0xbea10ef0	-0.3145671
50	0x3e45c483	0.19313245
51	0x3e8026c8	0.25029588
52	0x3e853df2	0.26023823
53	0x3eb932a8	0.3617146
54	0x3e8abe75	0.27098432
55	0xbea10e0a	-0.31456023
56	0x3e203c06	0.15647897
57	0xbf1be420	-0.60894966
58	0x3db775e3	0.08958032
59	0xbd829611	-0.06376279
60	0x3e35872a	0.17727342
61	0xbdf2f337	-0.11862796
62	0x3dbf6ea3	0.09347274
63	0xbcca7a14	-0.024716415
64	0xbdeb8a00	-0.11500931
65	0xbec6eaba	-0.38850957
66	0xbb8c2005	-0.004276278
67	0x3cfab425	0.030603478
68	0xbf01183b	-0.504276
69	0x3de3828c	0.11108884
70	0xbc946eb2	-0.01811919
71	0xbee38cd8	-0.44443393
72	0x3f2f55b0	0.68490124
73	0xbf407e90	-0.7519312
74	0x3e068fc3	0.13140778
75	0xbdb03145	-0.086031474
76	0x3f48e91b	0.7848069
77	0x3f1d5733	0.6146118
78	0x3e67201e	0.22570845
79	0x3ef3f93c	0.47651088
80	0x3ea237e3	0.31683263
81	0x3dad0b48	0.08449417
82	0x3e871d9b	0.26389775
83	0xbe810381	-0.25197986
84	0xbe933f1f	-0.28759095
85	0x3ebf2ee8	0.37340474
86	0x3e51b5fc	0.20479578
87	0xbe034caf	-0.12822221
88	0xbc1bbf5b	-0.009506072
89	0xbef9ce7e	-0.48790354
90	0xbe295125	-0.1653486
91	0x3f045f95	0.51708347
92	0x3e0400b8	0.12890899
93	0xbe6ea707	-0.23305903
94	0xbea73ca4	-0.32663453
95	0x3e2236e5	0.15841253
96	0xbe0aa011	-0.13537623
97	0xbf16fcc9	-0.5897947
98	0xbdb4c659	-0.08826894
99	0xbe39defc	-0.18151468

layer2.weight f4 [100, 100]
0	0xbda97c3d	-0.0827565
1	0x3dc9f4e1	0.0986116
2	0x3d6fa99a	0.058511354
3	0x3d82b351	0.06381858
4	0x3d5622f2	0.05227942
5	0xbc67dc98	-0.014151715
6	0x3d912ab3	0.07088222
7	0xbc459190	-0.012058631
8	0x3d155762	0.036460288
9	0x3db17e61	0.08666683
10	0x3d85cb39	0.06532902
11	0x3d04e01a	0.032440282
12	0x3cdac8cc	0.026707076
13	0xbc65ea68	-0.014032938
14	0xbc509900	-0.012731791
15	0xbd6432ad	-0.05571239
16	0x3c924b68	0.017858222
17	0xbda5c206	-0.08093648
18	0xbd9f52a2	-0.07779433
19	0xbd263ec7	-0.040587213
20	0xbc93d1b4	-0.01804433
21	0x3d58afde	0.052902095
22	0xbcb8ede0	-0.022574365
23	0x3c577a50	0.01315172
24	0x3d1005a2	0.035161622
25	0xbcb81e6c	-0.022475444
26	0x3c89f414	0.016840018
27	0x3dc22545	0.09479765
28	0x3cfc89dc	0.030827455
29	0x3d33d402	0.04390336
30	0x3c1ad968	0.009451248
31	0x3b209360	0.0024501905
32	0xbc8a1c48	-0.016859189
33	0xbdb8c88f	-0.090226285
34	0x3dcbb219	0.09946079
35	0xbd2133a0	-0.039355874
36	0xbd8bc65e	-0.06824945
37	0x3d83892f	0.0642265
38	0xbca34ba8	-0.019933537
39	0x3cdca0cc	0.026932143
40	0x3d744102	0.05963231
41	0x3d834a01	0.064105995
42	0x3d9dab01	0.07698632
43	0xbdb06d2d	-0.08614574
44	0xbd5f1b03	-0.05446912
45	0xbd1f5593	-0.03889997
46	0xbd34c1fa	-0.044130303
47	0x3d2b946e	0.0418896
48	0xbdb11828	-0.086471856
49	0xbdc61ee5	-0.096738614
50	0xbbaffd30	-0.0053707585
51	0xbcfdaa60	-0.03096503
52	0x3d566646	0.05234363
53	0x3da213c7	0.079139285
54	0xbd16071c	-0.036627874
55	0x3daebb51	0.085318215
56	0x3d72fe52	0.05932457
57	0xbd8f2345	-0.06989149
58	0x3d0efa86	0.034906887
59	0x3b93b5e0	0.004507765
60	0x3d0652ba	0.032793738
61	0x3d50ea92	0.051004954
62	0x3d40b82a	0.047050633
63	0xbdba5780	-0.090987206
64	0xbd8d2ca5	-0.06893281
65	0xbdc9f275	-0.09860698
66	0x3da3940b	0.07987221
67	0xbd272d9a	-0.040814973
68	0x3d54481e	0.05182659
69	0x3db287b5	0.0871729
70	0xbd3f31d3	-0.046678375
71	0x3dabb079	0.08383269
72	0xbd3a5b57	-0.045497265
73	0x3d5b20e2	0.053498156
74	0xbd9a8f80	-0.07546902
75	0xbd47e4d7	-0.048802223
76	0xbd6a91f0	-0.057268083
77	0x3b9f1db0	0.004855834
78	0x3d33b682	0.043875225
79	0xbc26e8e8	-0.010187365
80	0x3d53f7fa	0.05175016
81	0x3d639d3a	0.055569865
82	0xbdb4b6ea	-0.088239506
83	0xbc71a5e8	-0.014749028
84	0x3cee4204	0.029084213
85	0x3db90727	0.09034567
86	0xbdab4876	-0.0836343
87	0x3cba44c0	0.02273786
88	0x3d943c03	0.07238009
89	0xbc53d4d8	-0.012929164
90	0x3d945115	0.07242028
91	0x3c948e54	0.018134274
92	0x3d72fd76	0.05932375
93	0xbd69e3d7	-0.05710205
94	0x3dc36cd9	0.095422454
95	0x3da636cb	0.0811592
96	0xbcd15d14	-0.025557078
97	0x3d36b77e	0.044608586
98	0x3d829a09	0.06377036
99	0x3da798a5	0.081834115
100	0x3d174d26	0.03693881
101	0xbd970842	-0.07374622
102	0xbdbf18f0	-0.09330928
103	0x3db3691d	0.08760283
104	0xbdcc3f65	-0.09973029
105	0x3cd7d044	0.026344426
106	0x3dc8f37f	0.09812068
107	0xbdac82f5	-0.084234156
108	0x3c8f32c8	0.01748027
109	0x3d47d672	0.048788495
110	0xbd96c693	-0.07362094
111	0xbb88fd50	-0.004180588
112	0xbd8cd34e	-0.06876241
113	0x3d12c5f2	0.035833307
114	0x3da29af9	0.07939715
115	0x3dbe4da7	0.09292155
116	0xbc9dae14	-0.019248046
117	0x3dbd120b	0.09231957
118	0x3da0e167	0.07855492
119	0x3d093586	0.03349831
120	0x3da5fc35	0.08104745
121	0x3d60e54e	0.054906182
122	0xbd958320	-0.07300401
123	0xbd859b46	-0.06523757
124	0xbd50566d	-0.050863672
125	0xbb181560	-0.00232061
126	0x3c9cab54	0.019124664
127	0xbd996feb	-0.0749205
128	0x3d5cfc4e	0.053951554
129	0x3d5a7802	0.053337105
130	0x3dacb6f1	0.08433331
131	0x3dc85a0d	0.09782801
132	0xbd59f743	-0.053214323
133	0x3d4401ea	0.047853388
134	0xbd5a58f0	-0.053307474
135	0x3d5828fe	0.05277347
136	0x3cf53204	0.029931076
137	0x3c170298	0.009216927
138	0x3dc491e7	0.09598141
139	0x3bb4be60	0.0055158585
140	0xbc182e80	-0.00928843
141	0x3cf54e6c	0.029944621
142	0xbd41b4e0	-0.047291636
143	0xbdc5a93f	-0.09651422
144	0xbdac5b4a	-0.084158495
145	0x3d1a9472	0.037739225
146	0xbd862342	-0.06549694
147	0x3d98bf7d	0.074583985
148	0x3da20fdf	0.079131834
149	0xbce35ff8	-0.027755722
150	0x3d5c067e	0.05371713
151	0xbd41edbd	-0.047345866
152	0x3d670b82	0.05640746
153	0xbdc84b10	-0.09779942
154	0x3c5d1190	0.013492957
155	0xba1b8180	-0.0005932078
156	0x3d9ce9d9	0.076617904
157	0x3cd27ec4	0.025695212
158	0xbc0b9fa8	-0.008521952
159	0xb9e4ae00	-0.0004361719
160	0xbd51c9cd	-0.051217843
161	0xbdc01b22	-0.09380175
162	0xbc612210	-0.013741031
163	0xbdb37daa	-0.08764203
164	0x3d2e41ba	0.04254315
165	0xbc3e43e8	-0.01161287
166	0x3dcabd51	0.098993905
167	0x3d355742	0.04427267
168	0xbd4ab6b0	-0.04949063
169	0xbc76e1c0	-0.015068471
170	0xbda26985	-0.079302825
171	0x3b647760	0.0034861192
172	0xbd129b5c	-0.035792693
173	0x3d16069e	0.036627404
174	0xbceae254	-0.028672375
175	0x3d4d1ac2	0.050074346
176	0x3d007322	0.0313598
177	0x3c91fea8	0.017821625
178	0x3c450e68	0.0120273605
179	0x3d6913b2	0.05690355
180	0x3d949729	0.07255394
181	0x3ca83d40	0.020537019
182	0x3d4b984a	0.04970578
183	0x3c32aa68	0.010904886
184	0x3d3a1946	0.04543426
185	0xbd4dab0a	-0.050211944
186	0x3dbfdbc5	0.093680896
187	0x3b81b030	0.0039577708
188	0xbdb7b5ef	-0.08970248
189	0xbcac7368	-0.021051124
190	0xbdc0bf75	-0.094115175
191	0x3dc06e53	0.09396043
192	0x3d4bcce2	0.04975594
193	0x3d5cf736	0.053946696
194	0x3d843549	0.06455476
195	0x3cb47fc0	0.022033572
196	0x3d10f682	0.03539134
197	0x3da7b661	0.08189083
198	0xbcd7148c	-0.026254915
199	0xbdb88c33	-0.09011116
200	0xbc91c620	-0.017794669
201	0xbd91da88	-0.0712176
202	0x3d0e9782	0.034812458
203	0xbce1c7b4	-0.027561046
204	0x3d85966f	0.065228336
205	0x3c9077d4	0.017635264
206	0x3b39e5c0	0.0028365701
207	0xbd53dc0d	-0.05172353
208	0x3d97f2f3	0.07419386
209	0x3d9514ed	0.07279382
210	0xbdc41a37	-0.095753126
211	0xbd0cf980	-0.03441763
212	0x3d93f1f9	0.07223887
213	0xbd3e0f5a	-0.04640136
214	0xbd9c807e	-0.076416954
215	0xbd82202d	-0.06353793
216	0xbce3ac60	-0.027792156
217	0xbce197cc	-0.027538203
218	0x3da5d84d	0.08097897
219	0xbdb8d1cf	-0.09024393
220	0xbd148b66	-0.036265753
221	0x3d4e3fb6	0.05035373
222	0x3d9022a1	0.07037855
223	0x3c059e28	0.008155383
224	0x3d81a98f	0.06331169
225	0xbd708cf3	-0.05872817
226	0xbcc45f48	-0.023971215
227	0x3d16a456	0.036777817
228	0xbd63ac9a	-0.055584528
229	0x3d7dbc36	0.06194707
230	0x3db703eb	0.08936294
231	0xbd4bed3a	-0.049786784
232	0x3c5ab168	0.013347961
233	0x3d61899e	0.055062883
234	0x3dc0870d	0.09400759
235	0x3c335a70	0.010946855
236	0xbd459b10	-0.048243582
237	0x3bd5d380	0.006525457
238	0x3cbc69e8	0.022999719
239	0x3dc80e79	0.097683854
240	0x3d1b1a06	0.037866615
241	0xbd172a76	-0.03690573
242	0xbdbbb07d	-0.09164522
243	0xbd21da60	-0.0395149
244	0xbc796e00	-0.01522398
245	0xbcc80400	-0.02441597
246	0x3c90d84c	0.017681263
247	0x3d9eba5b	0.07750388
248	0x3d512832	0.051063724
249	0x3b381140	0.0028086454
250	0xbdc056d0	-0.09391558
251	0x3d7c8712	0.06165225
252	0x3db60b01	0.088888176
253	0xbb97f380	-0.0046371818
254	0x3c8c7588	0.017145887
255	0xbbb60f50	-0.0055560246

layer2.bias f4 [100]
0	0xbda844fd	-0.082162835
1	0x3d6bf1fe	0.05760383
2	0xbdb06eaf	-0.08614861
3	0xbd2536e0	-0.040335536
4	0xbd72c533	-0.059270095
5	0xbcb8bdb8	-0.022551402
6	0x3dc7b41d	0.09751151
7	0xbdb403af	-0.08789765
8	0xbd4193ea	-0.047260202
9	0xbb083300	-0.0020782351
10	0xbd4f1907	-0.050560977
11	0x3d47425a	0.048647262
12	0xbc8e8ed8	-0.017402098
13	0x3cb2706c	0.021782123
14	0x3c0305e8	0.007997014
15	0xbd51ba50	-0.051203072
16	0x3d464fba	0.048415877
17	0x3da5fd0d	0.08104906
18	0xbd4508c7	-0.048104074
19	0x3d65879a	0.056037523
20	0xbdbd465b	-0.09241935
21	0x3cfeb7d4	0.031093515
22	0x3da21291	0.079136975
23	0x3da88a03	0.08229449
24	0xbd9841ca	-0.07434423
25	0xbdb64f8b	-0.0890189
26	0x3d20ade2	0.039228328
27	0xbdb15ced	-0.08660302
28	0xbad22340	-0.0016032234
29	0x3dc91abd	0.09819553
30	0x3d501c52	0.05080826
31	0x3d505bc2	0.050868757
32	0xbdbf614b	-0.09344729
33	0x3c9ba14c	0.01899781
34	0xbdbd91d7	-0.09256332
35	0xbd8c7256	-0.06857745
36	0xbd92d17e	-0.07168864
37	0xbd94b836	-0.07261698
38	0x3c2f0158	0.010681473
39	0x3c9071e0	0.017632425
40	0x3d8c74a9	0.06858189
41	0x3bebefd0	0.0072002187
42	0xbdacd5f2	-0.08439244
43	0xbd30562d	-0.043050934
44	0xbca8b188	-0.020592466
45	0xbd9dff6e	-0.07714735
46	0x3d98f8d9	0.07469339
47	0x3db9385b	0.09043952
48	0x3d4fe516	0.050755583
49	0x3d2f4bca	0.042796887
50	0xbce890e8	-0.02838941
51	0xbdaab9dd	-0.08336232
52	0xbd328100	-0.043580055
53	0x3dac6ff9	0.084197946
54	0xbda2a103	-0.07940867
55	0xbd49d42a	-0.0492746
56	0x3cf2224c	0.02955737
57	0xbc032a50	-0.008005694
58	0x3d727e22	0.05920232
59	0x3c85fc28	0.016355589
60	0xbccb4b58	-0.0248162
61	0xbbfa3ad0	-0.0076364055
62	0x3dad7941	0.08470393
63	0x3dbd4efd	0.092435814
64	0x3beefa30	0.0072930083
65	0x3cc47d80	0.023985624
66	0xbd80ae2a	-0.06283219
67	0xbd08893a	-0.033333994
68	0x3d2a8066	0.041626357
69	0xbc7d36c0	-0.015454948
70	0x3db085e3	0.08619287
71	0xbdafb568	-0.08579522
72	0x3d893dd1	0.06701244
73	0x3d69e87e	0.057106487
74	0xbd99e87e	-0.075150475
75	0xbd17f5ac	-0.037099525
76	0x3db28377	0.08716481
77	0x3d04e132	0.032441325
78	0x3db03ce3	0.08605363
79	0xbbce8780	-0.006302774
80	0x3b505a60	0.003179215
81	0xbd5f1d67	-0.0544714
82	0x3dbfd83d	0.09367416
83	0x3cb29888	0.021801248
84	0x3da61d73	0.08111086
85	0xbd34bf7a	-0.04412792
86	0x3c8c8de0	0.017157495
87	0x3cadecac	0.021231018
88	0xbd51dffa	-0.05123899
89	0xbd15a45c	-0.0365337
90	0x396ccc00	0.0002258271
91	0xbd31235a	-0.043246605
92	0xbd65db27	-0.056117203
93	0xbd4aa177	-0.04947039
94	0xbc380480	-0.011231542
95	0xbcf0ef2c	-0.029410921
96	0x3d83a5c3	0.06428101
97	0x3d93bb55	0.07213465
98	0x3d01fd6e	0.03173583
99	0xbce406ac	-0.027835213

layer3.weight f4 [100, 100]
0	0x3e8c8a7c	0.27449405
1	0xbcd1c867	-0.025608255
2	0x3ecb5b21	0.39717963
3	0x3e06e424	0.13172966
4	0x3e46fc6b	0.19432227
5	0x3c34622b	0.011009733
6	0x3d9684bc	0.07349536
7	0xbe8d5648	-0.2760489
8	0x3dbe8abb	0.093038045
9	0x3cddea41	0.02708924
10	0x3d73d749	0.059531484
11	0xbd8832a0	-0.06650281
12	0xbe119150	-0.14215589
13	0x3d63e689	0.055639777
14	0x3e54ede9	0.2079388
15	0x3e8b36a6	0.2719013
16	0x3ceb33c1	0.028711202
17	0xbe8f0c38	-0.2793901
18	0x3da8b31a	0.08237286
19	0x3cc98aef	0.024602382
20	0xbe827063	-0.2547637
21	0xbec5dfbd	-0.3864726
22	0xbc1ad89d	-0.009451059
23	0xbd00fd1e	-0.03149139
24	0x3e85a9b6	0.26106042
25	0x3e954d95	0.29160753
26	0x3e866698	0.26250148
27	0xbea24997	-0.3169677
28	0x3e656f08	0.22405636
29	0x3deb5014	0.11489883
30	0xbd471b94	-0.048610285
31	0xbd739929	-0.059472237
32	0xbe33f049	-0.1757213
33	0xbd8de6b5	-0.069287695
34	0xbe078771	-0.1323526
35	0x3d9ce39f	0.07660603
36	0xbe349775	-0.17635901
37	0xbca64e0d	-0.02030089
38	0xbdc62c3d	-0.096764065
39	0xbe9dc025	-0.30810657
40	0x3e9a1655	0.30095163
41	0x3e685bca	0.22691265
42	0xbdbfc327	-0.09363394
43	0x3e5b0a82	0.21390727
44	0x3c216d17	0.009852669
45	0xbdb68553	-0.08912148
46	0xbed4692a	-0.41486484
47	0x3e89e610	0.26933336
48	0xbc4181e5	-0.011810754
49	0xbefda4c7	-0.49539778
50	0xbea5d1e8	-0.32386708
51	0xbf21b573	-0.63167495
52	0xbd63e766	-0.0556406
53	0x3e5e74f3	0.217243
54	0x3e7ba5eb	0.24575011
55	0xbed97fbb	-0.42480263
56	0x3e039e0c	0.12853259
57	0x3d8c8252	0.06860794
58	0xbe834aa8	-0.25642896
59	0xbe9ade7f	-0.30247876
60	0x3d89505b	0.0670478
61	0x3da39dab	0.07989057
62	0x3e671e87	0.22570239
63	0xbe2f49cc	-0.17117995
64	0x3ebc03be	0.36721605
65	0x3d566b0e	0.05234819
66	0x3dbe5beb	0.09294876
67	0x3e0f01e3	0.13965563
68	0x3c988e5b	0.018622568
69	0xbe236b22	-0.15958837
70	0xbd0e1862	-0.034691222
71	0xbf349490	-0.7053919
72	0xbc2025ae	-0.009774609
73	0xbe57a121	-0.2105756
74	0xbedb456a	-0.42826396
75	0xbe2d4052	-0.16919068
76	0xbe17fe10	-0.14843011
77	0x3e860e72	0.26182896
78	0x3da8bbf2	0.08238973
79	0xbdc68cd7	-0.09694832
80	0xbe716eb0	-0.2357738
81	0xbeda456a	-0.42631084
82	0xbddf9a63	-0.10918119
83	0xbcf9a93f	-0.03047621
84	0x3e12a000	0.14318848
85	0xbdfbfd5a	-0.12304182
86	0xbe2324a2	-0.15931943
87	0x3e8e7db7	0.27830288
88	0xbdedc891	-0.11610521
89	0xbd311001	-0.043228153
90	0x3d56b2b1	0.052416507
91	0xbd5b44b3	-0.053532314
92	0x3d8beec6	0.06832652
93	0xbf164b7f	-0.5870895
94	0xbb623e16	-0.003452187
95	0x3dfb74ec	0.122781605
96	0xbf1665c4	-0.5874903
97	0xbe3d98b3	-0.18515281
98	0x3f041b9e	0.5160464
99	0x3c5cd13e	0.013477622
100	0xbcc99603	-0.024607664
101	0xbd898a65	-0.0671585
102	0xbe9b16e5	-0.30290905
103	0xbdb38412	-0.08765425
104	0xbe217575	-0.15767463
105	0xbe711322	-0.23542455
106	0x3dcd2aa0	0.10017896
107	0x3cdcc2cb	0.026948353
108	0xbe46a965	-0.19400556
109	0xbe41cca7	-0.18925725
110	0xbe36fb7f	-0.17869376
111	0x3e2fbb0f	0.17161201
112	0xbe700f07	-0.23443232
113	0x3e0eeca0	0.13957453
114	0x3e59aa4e	0.21256372
115	0x3d88ca90	0.06679261
116	0x3d9d32c5	0.07675699
117	0xbd985a80	-0.074391365
118	0x3e26ac84	0.16276747
119	0x3d4daec6	0.050215505
120	0xbce616b6	-0.028087001
121	0xbe635b45	-0.22202785
122	0x3d6f44e7	0.05841532
123	0xbe8dd6b9	-0.27702883
124	0x3e817437	0.25283977
125	0xbe361ea5	-0.17785127
126	0xbcc58de4	-0.02411551
127	0xbdc960b8	-0.09832901
128	0xbe2e8d66	-0.17046127
129	0xbe45d6ee	-0.1932027
130	0x3e55eab3	0.20890312
131	0x3ec81897	0.3908126
132	0xbe073768	-0.1320473
133	0xbd8311bd	-0.06399868
134	0x3e24a783	0.16079526
135	0xbe86bb89	-0.26314953
136	0x3e97002a	0.29492313
137	0x3eb89629	0.36052063
138	0x3ea61dd3	0.3244463
139	0xbe6c72df	-0.23090695
140	0x3d9b3a46	0.07579474
141	0xbe1a327c	-0.15058321
142	0x3e1bc02e	0.1521003
143	0xbd71fc42	-0.059078462
144	0xbe779f46	-0.24181852
145	0xbeeb0c29	-0.45907715
146	0x3e769b92	0.24082783
147	0x3df436fd	0.11924551
148	0xbce52be5	-0.027975032
149	0xbe5135ed	-0.20430727
150	0xbee0f71c	-0.4393853
151	0xbdd3f03a	-0.10348554
152	0x3cb402c6	0.021973979
153	0xbe08046f	-0.13282941
154	0x3e8778d1	0.26459363
155	0xbf1510f2	-0.5822898
156	0xbec08e45	-0.37608543
157	0x3e965d18	0.293679
158	0xbd993fb2	-0.07482852
159	0xbe71a7e9	-0.23599209
160	0xbeb53968	-0.3539536
161	0xbf9741f7	-1.1817006
162	0xbead1db1	-0.33811715
163	0xbd9e7218	-0.077366054
164	0xbe709c4f	-0.23497127
165	0x3dd44dd3	0.10366406
166	0xbc36fe3a	-0.011169011
167	0xbe6ed2cd	-0.23322602
168	0xbe0ded74	-0.13860112
169	0xbd21283d	-0.039345015
170	0xbe0896c0	-0.13338757
171	0x3e40e4fa	0.18837348
172	0xbf0a9623	-0.5413534
173	0xbd65e441	-0.056125883
174	0xbeb7fadc	-0.35933578
175	0x3cb0aa0c	0.02156546
176	0xbdbf0bba	-0.093284085
177	0xbecdd588	-0.40201974
178	0xbea9a24a	-0.3313163
179	0xbe8819ca	-0.26582175
180	0x3e38b27c	0.18036836
181	0xbf293c7c	-0.66107917
182	0xbe09712b	-0.13422076
183	0x3f13a91a	0.57679904
184	0x3c2eafeb	0.010662059
185	0xbdc9e902	-0.09858896
186	0xbf23b2a4	-0.6394446
187	0xbbb8319f	-0.0056211497
188	0xbf2b139f	-0.66826814
189	0x3d7c7b42	0.061640985
190	0xbef425a3	-0.47684965
191	0xbe62397a	-0.22092238
192	0x3d5f2b81	0.054484848
193	0xbe002c3d	-0.12516876
194	0xbe60b797	-0.21945034
195	0x3e8a6e66	0.27037352
196	0xbef778dd	-0.483344
197	0x3da6b8d0	0.08140719
198	0x3d0da797	0.034583654
199	0xbdba133e	-0.090857014
200	0x3e56ca02	0.20975497
201	0xbe9787fa	-0.2959593
202	0xbcbdf514	-0.023188151
203	0xbcdeabc0	-0.027181506
204	0xbda8211a	-0.082094386
205	0xbe514c93	-0.20439367
206	0xbd3c1821	-0.04592145
207	0xbe7ba1a5	-0.24573381
208	0x3d0e5c73	0.034756135
209	0x3e25bb4b	0.16184728
210	0xbdc5570c	-0.096357435
211	0x3d8c5fa5	0.0685418
212	0xbd4a272f	-0.049353775
213	0xbe001ac2	-0.12510207
214	0xbdc77bfe	-0.097404465
215	0x3ebeb501	0.3724747
216	0x3e108327	0.1411253
217	0xbdc3c914	-0.09559837
218	0xbe2665b1	-0.1624973
219	0xbde6af4a	-0.112639025
220	0x3cd80c64	0.026373096
221	0xbe460ef8	-0.19341648
222	0xbdf2d817	-0.11857622
223	0x3dabbd0b	0.083856665
224	0xbd0c20da	-0.034211017
225	0x3c38f4a3	0.011288795
226	0x3d1b52b1	0.037920658
227	0xbdaf5755	-0.08561579
228	0x3db12db5	0.08651296
229	0x3e45d82d	0.19320746
230	0x3e330d0d	0.17485447
231	0xbdc0a8b4	-0.094071776
232	0xbe1d2683	-0.15346722
233	0x3e53e0c1	0.20691206
234	0xbed62010	-0.41821337
235	0xbe194da5	-0.14971025
236	0x3cd16226	0.025559496
237	0x3e213ce9	0.15745892
238	0xbe4a4b3a	-0.19755259
239	0xbe8e2443	-0.2776204
240	0xbe7b1c06	-0.24522409
241	0xbe4ab25e	-0.19794604
242	0xbed8cad3	-0.42342243
243	0x3e93a5f0	0.28837538
244	0x3da279f2	0.079334155
245	0x3db92634	0.0904049
246	0xbeffc90e	-0.4995808
247	0x3e6a6004	0.2288819
248	0xbe074b33	-0.1321228
249	0xbd34f4ce	-0.044178776
250	0xbe98c3c0	-0.29836845
251	0xbdc6dbd5	-0.097098984
252	0x3cb0dc99	0.021589564
253	0x3d8fda3e	0.07024048
254	0xbe3d32b8	-0.18476379
255	0xbd342042	-0.043976076

layer3.bias f4 [100]
0	0xbe84ca4f	-0.259356
1	0xbedbbac2	-0.42915922
2	0xba460a05	-0.00075545936
3	0x3cfd4ded	0.030920947
4	0xbd23a996	-0.03995665
5	0x3dc71498	0.09720725
6	0x3e282f57	0.16424309
7	0xbe9c099b	-0.30476078
8	0xbe0a7586	-0.13521394
9	0xbd445624	-0.047933713
10	0xbd8c54f0	-0.06852138
11	0xbe932886	-0.28741854
12	0xbe0074eb	-0.125446
13	0xbd12994c	-0.035790727
14	0x3c993bd5	0.018705288
15	0xbe845513	-0.25846156
16	0x3e22bfb4	0.15893441
17	0x3c721f34	0.014777947
18	0xbcad53dc	-0.021158151
19	0xbe047e74	-0.12938863
20	0x3e07e5a1	0.1327119
21	0xbe84fdbf	-0.25974843
22	0x3e094de2	0.13408616
23	0x3c2dc7b9	0.0106067
24	0x3d0ccde6	0.034376048
25	0xbe98dadb	-0.29854473
26	0xbd76fd80	-0.06030035
27	0xbbadbc0c	-0.005301958
28	0xbe6cbed8	-0.23119676
29	0xbdb162f6	-0.086614534
30	0xbeb38c23	-0.35067853
31	0xbf24b4e2	-0.64338505
32	0xbdc72f23	-0.097257875
33	0x3d651793	0.055930685
34	0xbd951e2a	-0.07281144
35	0xbe830700	-0.25591278
36	0xbec106e3	-0.37700567
37	0xbbab9b8c	-0.0052370485
38	0xbde18930	-0.110124946
39	0xbd427338	-0.047473162
40	0x3d86f6e6	0.06590061
41	0xbe46d6b0	-0.19417834
42	0xbe410b9a	-0.18852082
43	0x3d044f07	0.03230193
44	0xbdab8bfa	-0.08376308
45	0xbdc46964	-0.09590414
46	0x3e23c296	0.15992197
47	0x3da1ea2b	0.07905992
48	0xbe95dad4	-0.29268515
49	0x3d25f436	0.0405161
50	0xbe00a8c3	-0.12564377
51	0xbe59fa7a	-0.21286955
52	0xbdf5ad0e	-0.11995898
53	0xbeab3b28	-0.3344357
54	0x3e50cefa	0.20391455
55	0xbe5f3407	-0.2179719
56	0xbea7ad9c	-0.3274964
57	0x3b5bf465	0.0033562419
58	0x3ee8e470	0.45486784
59	0x3e0092ef	0.1255605
60	0xbc4cc401	-0.012497903
61	0xbdc055b3	-0.09391346
62	0xbe1f9ebf	-0.155879
63	0x3d9b8a8a	0.075947836
64	0x3c56ccb0	0.013110325
65	0xbe553684	-0.20821577
66	0x3ba81e84	0.005130591
67	0x3c37b164	0.011211727
68	0xbe350fca	-0.17681804
69	0xbe57402b	-0.21020572
70	0x3e7d1758	0.24715936
71	0xbde4c0a5	-0.111695565
72	0x3deb1866	0.11479263
73	0xbe83c71a	-0.2573784
74	0x3da656ce	0.081220254
75	0x3d9e13c8	0.07718617
76	0xbde02d0a	-0.109460905
77	0x3d072b41	0.033000235
78	0xbe2ff2db	-0.17182486
79	0x3c1c83ab	0.009552876
80	0x3dca1fdb	0.09869357
81	0x3c34af18	0.011028074
82	0xbe55f426	-0.20893916
83	0x3af03d16	0.0018328752
84	0x3e305d99	0.17223205
85	0xbea5c9fb	-0.3238066
86	0x3d67f221	0.056627396
87	0xbe209615	-0.15682252
88	0xbeada86a	-0.33917552
89	0x3d256b80	0.040385723
90	0xbd421f0e	-0.047392897
91	0xbd12f029	-0.035873566
92	0x3d7d1473	0.06178708
93	0xbd82d4c2	-0.063882366
94	0xbd985981	-0.074389465
95	0x3de22959	0.11043043
96	0xbd207e56	-0.039182983
97	0xbd7356f3	-0.059409093
98	0x3e9192fd	0.28432456
99	0x3bf13991	0.007361599

action.weight f4 [2, 100]
0	0x3f5886b9	0.8458057
1	0x3d86faeb	0.065908276
2	0x3ec67046	0.38757533
3	0xbee1fe0d	-0.44139138
4	0xbc8e0d84	-0.01734043
5	0xbdb776d4	-0.089582115
6	0x3da0c99d	0.07850955
7	0xbed7fc81	-0.42184833
8	0xbee50d4f	-0.44736716
9	0xbf51ff50	-0.820302
10	0x3e58ac55	0.2115949
11	0x3f1eb7dc	0.619993
12	0x3ebc2c88	0.36752725
13	0x3e34adb7	0.17644392
14	0x3f87c72c	1.0607657
15	0x3f680a6a	0.9064089
16	0x3c0a7b87	0.008452303
17	0x3e4106d0	0.18850255
18	0xbd9a5307	-0.075353675
19	0xbf9140e0	-1.1347923
20	0x3ef822df	0.48464105
21	0x3f3de510	0.74177647
22	0x3e5365ba	0.20644274
23	0xbdb307ca	-0.0874172
24	0xbf041b89	-0.51604515
25	0xbf8dd47a	-1.1080468
26	0xbf3b630f	-0.73198026
27	0x3e2deed2	0.16985634
28	0xbf186a69	-0.5953737
29	0xbf1fcf08	-0.6242528
30	0xbedf6043	-0.4362813
31	0x3f71148b	0.9417197
32	0x3e70b3ec	0.23506135
33	0xbf14a78b	-0.5806815
34	0xbf0fc9e7	-0.56167454
35	0xbf09e56b	-0.5386569
36	0xbcdcfdd2	-0.0269765
37	0xbe96635a	-0.29372674
38	0x3e74c849	0.23904528
39	0x3e4bf338	0.19917
40	0x3e4c477e	0.19949147
41	0x3de050f6	0.10952942
42	0xbf345a89	-0.70450646
43	0x3eee4a1e	0.46540922
44	0x3eef3229	0.46717957
45	0x3ddc5888	0.107590735
46	0xbbf51ef1	-0.007480495
47	0xbe50e70c	-0.20400637
48	0x3f5969db	0.8492715
49	0x3e6c1709	0.23055662
50	0xbe12b471	-0.14326645
51	0x3f4ae1ee	0.7925099
52	0x3de6d6df	0.11271452
53	0xbe99e2b9	-0.30055788
54	0x3f23f18e	0.6404046
55	0x3df5e1aa	0.12005933
56	0x3ef2d32b	0.47426733
57	0xbf88cac1	-1.0686876
58	0x3f05aa66	0.5221313
59	0xbe9b0b79	-0.3028219
60	0x3e16e65f	0.14736317
61	0xbfa5d4c5	-1.2955557
62	0x3eeb5027	0.4595959
63	0xbdce9ba2	-0.10088278
64	0x3e2acc24	0.16679436
65	0x3d42534f	0.04744273
66	0xbf76ab56	-0.9635519
67	0xbf98093c	-1.1877818
68	0xbe8bbb60	-0.27291393
69	0x3fefa5b4	1.8722444
70	0x3e39f725	0.18160684
71	0x3f1f1dab	0.62154645
72	0xbeb33d86	-0.35007876
73	0xbf187302	-0.5955049
74	0xbe3d3f87	-0.18481265
75	0xbe201305	-0.15632255
76	0xbf0bab7d	-0.54558545
77	0x3ecfda2f	0.40596148
78	0xbf3316c0	-0.6995659
79	0x3f5975a7	0.8494515
80	0x3f09e4cc	0.5386474
81	0xbe28073c	-0.1640901
82	0xbecf32ba	-0.4046839
83	0x3d85ee16	0.06539552
84	0x3e95af01	0.2923508
85	0x3fa57618	1.2926664
86	0xbdf42ec2	-0.11922981
87	0x3fa86c04	1.3157964
88	0xbfbf589b	-1.4948915
89	0x3db6ada4	0.08919838
90	0xbf1c0f09	-0.6096044
91	0x3e994a70	0.29939604
92	0xbf45d484	-0.772774
93	0xbe9fbdae	-0.31199402
94	0xbf04066d	-0.51572305
95	0xbd393d86	-0.04522469
96	0x3ec32a90	0.3811841
97	0x3ee6943c	0.4503497
98	0x3f1404c8	0.57819796
99	0x3ea94ce0	0.33066463
100	0xbee127a2	-0.4397555
101	0x3f6a4d2f	0.9152402
102	0x3ddb50c4	0.10708764
103	0xbe2377a9	-0.15963615
104	0xbd21c334	-0.0394928
105	0xbf048326	-0.51762617
106	0x3d44062d	0.047857452
107	0xbfac931b	-1.3482393
108	0x3f85e84f	1.046152
109	0xbfacb30c	-1.3492141
110	0xbe35458e	-0.17702314
111	0xbeb6ab4d	-0.35677567
112	0xbe968b22	-0.29403025
113	0xbf0be5e3	-0.54647654
114	0xbf01d44c	-0.50714564
115	0xbf76f392	-0.9646541
116	0x3d95fe48	0.07323891
117	0xbf590165	-0.8476775
118	0x3fc7106d	1.5551888
119	0x3eae55db	0.34049878
120	0xbeb41210	-0.3517003
121	0xbe612b3f	-0.21989153
122	0xbff8115a	-1.9380295
123	0x3e2d61cc	0.16931838
124	0x3e831da2	0.25608546
125	0xbf149e1a	-0.58053744
126	0xbc1ed3f8	-0.009694092
127	0xbf376ad1	-0.71647364
128	0xbecd0173	-0.40040168
129	0xbf42a668	-0.76035166
130	0x3cc40ca4	0.023931809
131	0xbdeefb70	-0.11669052
132	0xbc574c07	-0.013140685
133	0xbf9892b2	-1.1919768
134	0xbe94460b	-0.2895969
135	0x3ef39b44	0.47579396
136	0xbf166be1	-0.5875836
137	0x3f0f418d	0.559594
138	0xbe5cbedf	-0.21557187
139	0x3e38faa8	0.18064368
140	0x3f277cd7	0.65424865
141	0x3eaf4813	0.34234676
142	0xbe82795b	-0.25483212
143	0xbe97c6ff	-0.2964401
144	0xbd4a2dae	-0.04935997
145	0x3f10d667	0.5657715
146	0xbf956347	-1.1670922
147	0x3e8f72d9	0.2801731
148	0xbea9fb3a	-0.33199483
149	0xbef45545	-0.47721305
150	0x3fa69dc3	1.3016895
151	0xbea700b6	-0.3261773
152	0xbc3643e4	-0.011124585
153	0xbf664ecc	-0.89963984
154	0xbcf4a5ca	-0.02986421
155	0x3ddce102	0.10785104
156	0xbe10a9ba	-0.14127246
157	0x3f08f449	0.5349775
158	0x3d0c5b06	0.034266494
159	0xbf1b4c29	-0.60663086
160	0xbf271661	-0.6526852
161	0x3ebae04a	0.36499244
162	0xbd8fce9c	-0.070218295
163	0xbfd857e5	-1.6901823
164	0x3f7cf1c1	0.9880639
165	0xbf84f6ab	-1.0387777
166	0x3e773e03	0.2414475
167	0xbdd25252	-0.102696076
168	0xbf120a68	-0.5704713
169	0xbf4adfac	-0.79247546
170	0x3edd7894	0.43256056
171	0xbe9385a3	-0.28812894
172	0xbfe694a6	-1.8014114
173	0xbf1e403f	-0.6181678
174	0x3ee7b35b	0.45254025
175	0x3e93aeda	0.2884434
176	0xbf7bdf8a	-0.9838797
177	0xbe92e3e8	-0.28689504
178	0x3f328c60	0.69745445
179	0x3e01c612	0.12673214
180	0x3ef930d8	0.48670077
181	0x3eec9413	0.46206722
182	0x3efd4b0c	0.4947132
183	0x3d866724	0.06562641
184	0x3d9048de	0.07045148
185	0xbf1db9bc	-0.61611533
186	0xbf305c26	-0.6889061
187	0xbf7aba0c	-0.97940135
188	0xbea48a0b	-0.32136568
189	0x3f7c0dbf	0.98458475
190	0xbc828260	-0.015931308
191	0x3e95a4f2	0.29227406
192	0x3ec82c71	0.39096406
193	0x3ef84737	0.48491833
194	0xbca2559e	-0.019816216
195	0xbecc9f3e	-0.39965242
196	0xbf04cd4a	-0.51875746
197	0x3d150d75	0.036389787
198	0xbce3f865	-0.027828405
199	0xbeb02bec	-0.3440851

action.bias f4 [2]
0	0xbdd33743	-0.10313275
1	0x3f34b778	0.7059245
