a_local_ma1.pth (torch_old, 92773 bytes, 8 tensors)

layer1.weight f4 [100, 24]
0	0x3e6b1086	0.22955522
1	0xbefc9a14	-0.49336302
2	0xbdc6b30a	-0.09702118
3	0x3e69bdbb	0.22826283
4	0x3ebf41e6	0.37354964
5	0xbeefb1e0	-0.46815395
6	0x3dfba7b5	0.12287847
7	0x3e8a1e76	0.26976365
8	0x3e1a484b	0.1506664
9	0xbec978b4	-0.39349902
10	0xbdd542b8	-0.10413116
11	0x3e60858e	0.21925947
12	0x3e1a63c0	0.15077114
13	0xbebc551f	-0.36783692
14	0xbdfbf339	-0.123022504
15	0xbe093574	-0.13399297
16	0x3ef4a033	0.47778472
17	0xbe1f881a	-0.15579262
18	0xbe014886	-0.12625322
19	0x3d4e2c2f	0.050335106
20	0xbe0b20ae	-0.13586685
21	0x3e935f76	0.28783768
22	0x3e148744	0.14504725
23	0x3be101ee	0.006866685
24	0x3de8d95c	0.11369583
25	0xbd64fbbe	-0.055904143
26	0xbc9553b7	-0.018228395
27	0x3da6dd3f	0.08147668
28	0x3fb09645	1.3795859
29	0xbee8765a	-0.45402795
30	0xbc372566	-0.01117835
31	0x3d835c09	0.06414039
32	0x3d1f83f5	0.038944203
33	0xbd52a4b3	-0.0514266
34	0x3db2311a	0.08700772
35	0xbc482c3a	-0.012217576
36	0x3e8e5039	0.2779558
37	0x3db41ed1	0.0879494
38	0xbdbee7fa	-0.0932159
39	0x3e4306c8	0.19045556
40	0xbeb0f38b	-0.3456081
41	0xbef16e00	-0.47154236
42	0x3d8c79fd	0.06859205
43	0xbe149ff7	-0.14514147
44	0xbf2e6848	-0.6812787
45	0x3f26ca09	0.6515203
46	0xbdbe3553	-0.092875145
47	0x3e58c234	0.21167833
48	0x3e8e08bc	0.2774104
49	0xbf1b57e1	-0.6068097
50	0xbdd9a14a	-0.106264666
51	0xbdf091d8	-0.117465675
52	0x3c98ee50	0.018668324
53	0x3e49831d	0.19678922
54	0x3e18789d	0.1488976
55	0xbd4251f9	-0.047441456
56	0x3ec9c5c5	0.394087
57	0xbebe7828	-0.37201047
58	0xbd8870de	-0.06662153
59	0x3e073dc4	0.13207155
60	0xbeaba2ad	-0.3352255
61	0xbd6bca05	-0.057565708
62	0x3d3ba628	0.045812756
63	0x3d88ae3a	0.06673856
64	0x3eeef18e	0.46668667
65	0xbf13ee42	-0.5778543
66	0x3dc28049	0.09497125
67	0x3d3df1d8	0.04637322
68	0xbf807e34	-1.0038514
69	0x3ef88908	0.48542047
70	0xbdd235bd	-0.10264156
71	0x3e782ed3	0.24236612
72	0xbc667e45	-0.014068191
73	0x3e29fa77	0.16599451
74	0x3e1ded40	0.15422535
75	0x3d93848a	0.07203014
76	0x3f312bdf	0.69207567
77	0x3f04d1bc	0.5188253
78	0xbddbef15	-0.10738961
79	0xbdf842d3	-0.12122121
80	0x3dcaa44c	0.098946184
81	0x3ec0888d	0.3760418
82	0x3dcf9e2c	0.10137591
83	0x3e3d1ee4	0.18468815
84	0x3dc56718	0.09638804
85	0x3e0a13ac	0.13484067
86	0xbdc872d6	-0.09787528
87	0x3cfa2b68	0.030538276
88	0xbdc85e32	-0.09783591
89	0x3f0e65b0	0.5562391
90	0x3e0ba244	0.13636118
91	0xbe698e00	-0.22808075
92	0xbf3eec2b	-0.74579114
93	0x3f1bc0f4	0.608413
94	0xbe1bbdb6	-0.15209088
95	0xbe7d380d	-0.24728413
96	0xbe45918c	-0.19293803
97	0x3eab6b67	0.3348038
98	0x3e20f174	0.15717107
99	0xbe5c44f5	-0.2151068
100	0x3f802cbc	1.0013652
101	0xbe0f2a4e	-0.13980982
102	0xbe0b3727	-0.13595258
103	0xbdedbe46	-0.116085574
104	0xbdf5b0b0	-0.11996591
105	0x3e8f6a72	0.280109
106	0x3b63d783	0.0034765906
107	0x3d95be01	0.07311631
108	0xbd36be40	-0.04461503
109	0xbe49f622	-0.19722798
110	0xbe103d32	-0.14085844
111	0xbc7d0dbe	-0.015445171
112	0xbdeb6faa	-0.114959076
113	0xbe201408	-0.15632641
114	0x3d06a683	0.03287364
115	0xbe515acc	-0.20444793
116	0xbf44e5f5	-0.76913387
117	0x3eb2202c	0.3479017
118	0xbdd26a20	-0.10274148
119	0xbd9666d3	-0.07343831
120	0xbe10f54b	-0.14156072
121	0x3f32eff9	0.6989742
122	0xbd0a2908	-0.033730537
123	0x3ee5f154	0.4491068
124	0xbf192512	-0.5982219
125	0x3dd118ac	0.10209784
126	0x3d034e83	0.032057296
127	0x3ef94b6a	0.4869035
128	0xbe1cb8ad	-0.15304823
129	0x3f3131a5	0.69216377
130	0xbd8c6480	-0.06855106
131	0xbd6423d5	-0.055698235
132	0x3e9f2a42	0.31086928
133	0x3f1d9951	0.6156207
134	0x3d82b729	0.06382591
135	0x3de57340	0.11203623
136	0xbd793e53	-0.060850453
137	0x3f36f15c	0.71462035
138	0xba9ce9c2	-0.0011971521
139	0xbe65fd44	-0.22459894
140	0x3f2c61e8	0.67336893
141	0x3f295739	0.66148716
142	0x3d8264e2	0.06366898
143	0xbecd070e	-0.40044445
144	0x3e38ca93	0.18046026
145	0xbf8a34e6	-1.0797393
146	0xbdb6ee2e	-0.08932148
147	0xbf0a8c14	-0.5411999
148	0xbe675143	-0.22589593
149	0x3d066995	0.032815535
150	0x3c8b61f8	0.017014489
151	0xbeb59182	-0.35462576
152	0x3e08c190	0.13355088
153	0xbf98111a	-1.1880219
154	0x3d2a4ac0	0.041575193
155	0xbd206ec5	-0.039168138
156	0xbe1c2ee2	-0.1525226
157	0x3eded645	0.4352285
158	0xbddc90f5	-0.10769836
159	0x3ddf78d7	0.1091172
160	0x3ea7024c	0.3261894
161	0xbf876484	-1.057755
162	0xbd8d7800	-0.06907654
163	0xbe51592e	-0.20444176
164	0xbe58e3d7	-0.21180664
165	0x3f4dc5b9	0.80379826
166	0xbdb4c714	-0.08827034
167	0x3e246c72	0.16056994
168	0xbe9a780b	-0.3016971
169	0x3e954b93	0.2915922
170	0xbd983c48	-0.07433373
171	0xbdabb054	-0.08383241
172	0x3fa1fa03	1.2654423
173	0xbe60e07d	-0.21960635
174	0x3e2d69b0	0.16934848
175	0xbd1fdd92	-0.039029665
176	0xbdcdde01	-0.100521095
177	0x3e1356c7	0.14388572
178	0xbe13a687	-0.14418994
179	0x3d5389cd	0.05164509
180	0x3da5ecbc	0.08101794
181	0xbd2a1ba2	-0.04153026
182	0x3e1282f3	0.14307766
183	0xbd644e3b	-0.05573867
184	0xbec29cd3	-0.38010272
185	0xbb7e09fa	-0.003876327
186	0x3d2f2160	0.04275644
187	0xbde83939	-0.11339039
188	0xbf4433a6	-0.7664131
189	0x3d3ba829	0.045814667
190	0xbc9461bf	-0.018113015
191	0xbd949ffa	-0.072570756
192	0xbd329350	-0.04359752
193	0x3f094cb9	0.53632694
194	0x3d136725	0.03598704
195	0x3e7793ec	0.24177521
196	0x3e86b9a4	0.26313508
197	0xbf656b46	-0.8961681
198	0xbdb51c6f	-0.08843314
199	0xbd9123f4	-0.07086936
200	0xbe01b081	-0.12664987
201	0x3db690aa	0.08914311
202	0xbe09f382	-0.13471797
203	0xbd610d81	-0.05494452
204	0xbe91b5aa	-0.2845891
205	0xbf2b5834	-0.6693146
206	0xbe065214	-0.13117248
207	0x3e5b78e6	0.21432838
208	0xbe6ab6c1	-0.22921278
209	0xbe894966	-0.2681381
210	0xbd47e6ec	-0.04880421
211	0x3dad6ef4	0.08468428
212	0x3db6e8e5	0.0893114
213	0xbf8ce635	-1.1007754
214	0x3e1c981e	0.15292403
215	0x3df99149	0.12185914
216	0x3d2a0a66	0.041513823
217	0xbe053439	-0.13008203
218	0x3d9a3df3	0.07531347
219	0x3e678502	0.22609332
220	0x3dc7dcd1	0.09758914
221	0xbef0f442	-0.47061354
222	0xbd06865b	-0.032842975
223	0xbdbb73e5	-0.091529645
224	0x3eec039c	0.46096504
225	0xbe9190f6	-0.2843091
226	0x3e5bf5fb	0.21480553
227	0xbe96fcb4	-0.29489672
228	0xbdeaf927	-0.11473303
229	0xbf62fc76	-0.88666475
230	0xbdf01352	-0.11722435
231	0xbe8adec6	-0.27123088
232	0x3e72dbd6	0.23716673
233	0xbf2cd309	-0.67509514
234	0x3df6bc34	0.12047616
235	0xbe00aaea	-0.12565199
236	0x3f1991f2	0.5998832
237	0xbf51adaf	-0.81905645
238	0x3e022e84	0.12713057
239	0x3df666d2	0.1203133
240	0xbe20219a	-0.15637818
241	0x3e28fbcc	0.16502303
242	0xbe34270f	-0.17593025
243	0xbc6fbcc7	-0.01463241
244	0xbe746ece	-0.23870394
245	0xbea884ca	-0.3291381
246	0x3dd05baf	0.10173737
247	0xbd8115e7	-0.06303006
248	0xbd1e03df	-0.03857791
249	0x3e2d4676	0.1692141
250	0xbe277795	-0.1635421
251	0xbdbd7193	-0.09250178
252	0x3b5692a0	0.0032741204
253	0xbd8b4f70	-0.06802261
254	0xbbc0b063	-0.005880402
255	0x3e5f3231	0.2179649

layer1.bias f4 [100]
0	0xbefeae21	-0.49742225
1	0xbd8d0904	-0.06886485
2	0xbe9a7a0e	-0.30171245
3	0xbd68b1b7	-0.056810107
4	0xbdffb7aa	-0.12486203
5	0x3edf9180	0.43665695
6	0xbe66c216	-0.22534975
7	0x3ee9a69f	0.45634934
8	0x3de85e5b	0.11346122
9	0x3db45b50	0.08806479
10	0x3d227f16	0.03967198
11	0x3e2aee9b	0.16692583
12	0xbef0ea14	-0.47053587
13	0xbcf6d8a2	-0.030132595
14	0xbdaea3d3	-0.08527341
15	0x3d02960b	0.031881373
16	0xbd8c67f1	-0.06855763
17	0xbec7d713	-0.39031276
18	0xbcfad584	-0.03061939
19	0x3ee631e1	0.4495993
20	0xbcc12a65	-0.023579786
21	0xbd966d97	-0.07345121
22	0xbe5e0cfa	-0.21684638
23	0xbe44d115	-0.19220383
24	0xbe50baba	-0.2038373
25	0xbe4f40c6	-0.20239553
26	0xbe60d5fe	-0.21956632
27	0xbeb17706	-0.3466112
28	0xbd23c2f7	-0.039980855
29	0xbea35cab	-0.31906638
30	0xbe659b3c	-0.22422498
31	0xbe67184a	-0.2256786
32	0xbeb1ad3c	-0.3470248
33	0xbee0c7fe	-0.43902582
34	0x3b2c4349	0.0026285222
35	0xbe522957	-0.20523582
36	0xbebd80de	-0.3701238
37	0x3eb745f8	0.3579557
38	0xbcdffa79	-0.027341114
39	0xbed4481b	-0.41461262
40	0xbe8ad7aa	-0.27117664
41	0xbe086826	-0.1332098
42	0xbe4e34cf	-0.20137332
43	0xbe57a6e2	-0.21059754
44	0x3e389b9c	0.1802811
45	0xbeb37216	-0.35047978
46	0x3e093097	0.13397442
47	0x3de521c6	0.111880824
48	0x3f0e3c31	0.55560595
49	0xbe3e75a8	-0.1859957
50	0x3d4b1250	0.04957801
51	0xbf0a0251	-0.53909785
52	0xbcf04b48	-0.029332772
53	0x3e9386bb	0.2881373
54	0x3d5c98cc	0.053856656
55	0x3e960e09	0.29307583
56	0xbe1b48fc	-0.1516456
57	0x3e1d5f85	0.15368469
58	0xbe462dca	-0.19353405
59	0xbc856320	-0.016282618
60	0x3e98816d	0.29786244
61	0x3e37cf4c	0.17950171
62	0xbe97be33	-0.29637298
63	0xbe0509e5	-0.12992056
64	0xbf1f739e	-0.6228579
65	0xbdc6bb6b	-0.09703716
66	0x3d465859	0.0484241
67	0x3d891776	0.06693928
68	0xbdd9662f	-0.10615193
69	0xbe17df95	-0.14831384
70	0xbe42e964	-0.19034344
71	0x3e33c3d9	0.17555179
72	0xbeb59ce1	-0.35471252
73	0xbea6bcb9	-0.3256586
74	0xbcd43321	-0.025903286
75	0x3e53ffbd	0.20703025
76	0x3ef31cc7	0.47482893
77	0x3def9868	0.11698991
78	0xbe8e0d8a	-0.27744704
79	0xbea8f3c4	-0.32998478
80	0x3e92a872	0.2864414
81	0xbedd93f9	-0.43276957
82	0x3ed6a64b	0.41923746
83	0x3f206cee	0.62666214
84	0xbe7099db	-0.23496191
85	0xbeb148fc	-0.34625995
86	0x3f035816	0.51306283
87	0xbe3c94d4	-0.18416148
88	0x3e184eb2	0.1487377
89	0x3ec28a61	0.379962
90	0xbd9bd334	-0.07608643
91	0x3dc77606	0.09739308
92	0xbe69b213	-0.22821836
93	0xbd1fb8e8	-0.0389947
94	0xbe5172f9	-0.20454015
95	0x3d86e5e2	0.065868154
96	0x3eb7cbe6	0.3589775
97	0x3d82fd6b	0.06395992
98	0xbe2fd8ef	-0.17172597
99	0x3e402102	0.18762591

layer2.weight f4 [100, 100]
0	0x3a8148c0	0.00098636
1	0xbd4a1bb7	-0.049342837
2	0x3dc975b1	0.09836901
3	0x3d1814fe	0.037129395
4	0x3c222d50	0.009898499
5	0x3d2b107e	0.041763775
6	0xbc4dd4f0	-0.012562975
7	0xbce962b4	-0.028489448
8	0xbdb1da72	-0.08684243
9	0x3d57aa6a	0.052652754
10	0x3ca624a8	0.020281151
11	0x3c546bf0	0.012965187
12	0x3d0b2a7e	0.03397607
13	0x3d5393be	0.05165457
14	0xb9d37300	-0.00040330738
15	0xbcbf1274	-0.023324229
16	0x3d67a0e2	0.056549914
17	0x3cec2b44	0.028829224
18	0x3cb0f1e0	0.02159971
19	0x3cc545c0	0.024081111
20	0xbc785a40	-0.015158236
21	0xbda52f08	-0.08065611
22	0xbdba73fb	-0.09104153
23	0x3d9c4501	0.07630349
24	0xbd4375b3	-0.04771967
25	0x3d533a2e	0.051569156
26	0xbd2f80da	-0.04284749
27	0xbd184310	-0.03717333
28	0x3c8001cc	0.015625857
29	0xbd88c61c	-0.06678411
30	0xbcfd82d4	-0.030946173
31	0xbc69bdd0	-0.014266446
32	0x3d7d3c92	0.061825342
33	0xbdc29aaf	-0.0950216
34	0xbd56c5e7	-0.052434828
35	0x3cd96cc4	0.026541121
36	0xbdbea625	-0.09309033
37	0xbd63236d	-0.055453707
38	0x3d1cccea	0.03828136
39	0xbd37d153	-0.04487736
40	0x3db43edb	0.08801051
41	0xbcfddbf4	-0.03098867
42	0xbd31d21a	-0.04341326
43	0x3dc1b329	0.09458
44	0xbcad6b80	-0.021169424
45	0xbd6a933d	-0.057269324
46	0xbdb34c2a	-0.087547615
47	0xbd50999a	-0.050927736
48	0x3d045d96	0.032315813
49	0xbd044940	-0.03229642
50	0x3d6452ae	0.055742912
51	0x3d78d0ba	0.060745932
52	0x3da1aaa1	0.07893873
53	0xbd3ba4e7	-0.04581156
54	0xbd174eba	-0.036940314
55	0xbbb80e80	-0.005616963
56	0x3d02ec72	0.031963773
57	0xbd362380	-0.04446745
58	0x3da57529	0.08078987
59	0xbc4919d0	-0.012274221
60	0xbb977930	-0.004622601
61	0x3dc5c159	0.09656019
62	0xbdb4c288	-0.088261664
63	0xbb4e96a0	-0.0031522885
64	0xbbd18520	-0.0063940436
65	0x3d62c82e	0.055366687
66	0xbdac73ce	-0.084205255
67	0x3c326ff0	0.010890946
68	0x3c8e5d38	0.017378435
69	0xbcf8e948	-0.030384675
70	0x3d2e219e	0.04251253
71	0x3dbc463f	0.09193086
72	0xbd45f39a	-0.04832802
73	0xbdc7675a	-0.097365096
74	0xbd392897	-0.045204725
75	0x3cd1c5e4	0.025607057
76	0xbd37f5a0	-0.04491198
77	0x3db23891	0.087021954
78	0xbdb93783	-0.09043791
79	0xbc120140	-0.008911431
80	0xbcfe9bf8	-0.031080231
81	0xbcf84da0	-0.030310452
82	0xbd2de243	-0.042452108
83	0x3c644400	0.013932228
84	0xbda4ea48	-0.08052498
85	0x3db901af	0.09033524
86	0xbd707090	-0.058701098
87	0x3cd61ae4	0.02613587
88	0x3c878328	0.016542032
89	0xbd073316	-0.033007704
90	0xbcd99f54	-0.026565231
91	0x3cdc9e54	0.026930965
92	0x3ce8ecdc	0.028433256
93	0xbdc7afdd	-0.0975034
94	0x3c734a50	0.01484926
95	0x3bde2d00	0.0067802668
96	0xbd1dbd8a	-0.038510837
97	0xbccb74ec	-0.024836026
98	0xbd9f7fbe	-0.07788037
99	0x3b5ff900	0.0034175515
100	0x3ca02760	0.019550025
101	0xbd83aa2a	-0.064289406
102	0x3dbb0549	0.091318674
103	0xbcc58f4c	-0.02411618
104	0xbd7f4ded	-0.062330175
105	0x3d8a479f	0.06751942
106	0x3d456e12	0.048200674
107	0x3d0ba472	0.034092374
108	0x3dba6761	0.09101749
109	0xbd95fee0	-0.07324004
110	0xbdb89220	-0.09012246
111	0x3d917dcb	0.07104071
112	0xbd8995ee	-0.0671805
113	0x3d4ef61a	0.05052767
114	0x3dc90fa1	0.09817434
115	0xbd337f60	-0.043822646
116	0x3d014ab6	0.03156539
117	0x3b8bbbb0	0.0042643175
118	0x3dc1f355	0.0947024
119	0xbcb34f20	-0.021888316
120	0xbd3a52ed	-0.04548924
121	0xbcb33720	-0.021876872
122	0xbd0bd054	-0.034134224
123	0xba234800	-0.00062286854
124	0xbd86bbb2	-0.06578769
125	0xbd94a49d	-0.0725796
126	0xbda74af0	-0.0816859
127	0xbd3575cd	-0.044301797
128	0x3d22c1aa	0.039735474
129	0xbd860d96	-0.0654556
130	0x3c7db510	0.015485063
131	0x3d3189ae	0.043344192
132	0x3d0b2a66	0.03397598
133	0xbd2c064a	-0.041998185
134	0x3b1a5360	0.002354823
135	0xbd8fad08	-0.07015425
136	0x3c8ebe4c	0.017424725
137	0xbcd8a928	-0.026447847
138	0xbdc87f8d	-0.097899534
139	0xbd1bfcfd	-0.038083065
140	0x3d66339a	0.056201555
141	0x3d6b91a6	0.057511948
142	0xbdbf7eff	-0.093503945
143	0xbda0672d	-0.07832179
144	0x3c9eb62c	0.019373976
145	0x3d5a6a5e	0.053324096
146	0x3b59af40	0.003321603
147	0xbdc39260	-0.09549403
148	0xbd9ec2ca	-0.07751997
149	0xbc378698	-0.011201523
150	0x3d2e5eca	0.042570867
151	0x3cd211a4	0.025643177
152	0xbd809285	-0.062779464
153	0x3d4bc2f2	0.04974646
154	0x3da7612b	0.0817283
155	0x3d2a438e	0.04156833
156	0x3da3c581	0.07996655
157	0x3db5b179	0.08871741
158	0xbdc9381a	-0.09825154
159	0xbc49d798	-0.012319468
160	0xbda95f82	-0.0827017
161	0x3cb6db18	0.022321269
162	0xbd841270	-0.06448829
163	0x3d9d0929	0.07667763
164	0x3bda29d0	0.0066578165
165	0xbc155118	-0.009113573
166	0x3d9b7499	0.075905986
167	0xbcb96d2c	-0.022635065
168	0x3d26e1de	0.040742747
169	0xbd03f6c4	-0.032217756
170	0x3dc25dbd	0.094905354
171	0xbd9bbee5	-0.076047696
172	0xbd787ec0	-0.060667753
173	0xbd0c58d4	-0.0342644
174	0xbdb77ddf	-0.08959555
175	0xbdae6cbf	-0.085168354
176	0xbadf4a80	-0.0017035753
177	0x3d961891	0.073289044
178	0xbcb4fb2c	-0.022092424
179	0xbbc9ae60	-0.0061548203
180	0xbdae4cc2	-0.08510734
181	0xbdbb764a	-0.09153421
182	0x3d3a9012	0.045547552
183	0xbd0e0050	-0.034668267
184	0x3d9d11af	0.076693885
185	0x3d58aa5a	0.052896835
186	0xbd81779e	-0.06321643
187	0xbd87e25c	-0.066349715
188	0x3da74b51	0.08168662
189	0x3cb813a0	0.022470295
190	0xbd702aca	-0.058634557
191	0x3d8d2e3d	0.06893585
192	0x3bd86120	0.006603375
193	0xbcb35894	-0.021892823
194	0x3b0f0fc0	0.0021829456
195	0xbd178b40	-0.036998034
196	0xbd56ff5d	-0.052489627
197	0x3cb5a448	0.022173062
198	0x3d3d37c2	0.046195753
199	0xbd48c81a	-0.049018957
200	0xbd37f250	-0.04490882
201	0xbdc2dbe5	-0.09514598
202	0x3d18c6a2	0.037298806
203	0x3d74c962	0.059762366
204	0xbd91641a	-0.07099171
205	0x3d2860da	0.04110799
206	0x3d1bfc72	0.038082547
207	0x3daea525	0.085275926
208	0xbd7fcd6a	-0.062451757
209	0x3d042912	0.03226573
210	0xbd3f53b7	-0.046710696
211	0x3dc1addd	0.0945699
212	0x3dc4e7f5	0.09614555
213	0x3d58f852	0.05297119
214	0xbdca040b	-0.098640524
215	0x3c548580	0.012971282
216	0xbd3f1ea3	-0.046660077
217	0x3d8e3fb3	0.069457434
218	0x3d82e335	0.063909926
219	0xbd6034a3	-0.0547377
220	0x3dc13e2b	0.09435686
221	0x3c968d68	0.018377975
222	0xbd126fba	-0.035751082
223	0x3dc0040b	0.09375771
224	0x3dac46bf	0.08411931
225	0xbd76f46a	-0.060291685
226	0xbdc0c437	-0.09412425
227	0xbd9bafdd	-0.07601903
228	0xbc491e80	-0.012275338
229	0x3d9c561f	0.07633614
230	0xbd91e633	-0.07123985
231	0xbdcc6158	-0.09979504
232	0xbdb9e51b	-0.090769015
233	0xbd9c3682	-0.07627584
234	0xbd1c18ad	-0.03810947
235	0xbd21944a	-0.03944806
236	0x3d7f98ce	0.062401585
237	0xbd36577a	-0.044517018
238	0xbc5e3ad8	-0.013563834
239	0x3d2e04b2	0.042484947
240	0x3d9522b5	0.072820105
241	0x3dab7437	0.083717756
242	0x3cdbbba4	0.026822872
243	0xbdabc785	-0.08387665
244	0x3c990f60	0.01868409
245	0xbdca39ff	-0.09874343
246	0x3d8e3eb1	0.06945551
247	0x3db2e7eb	0.08735641
248	0x3d4e889a	0.050423242
249	0xbd87ba36	-0.06627314
250	0xb92b4000	-0.00016331673
251	0xbdc520b0	-0.09625375
252	0x3dc8d7a9	0.09806759
253	0xbd87c81d	-0.066299655
254	0xbd8d0b70	-0.06886947
255	0xbd9ca03e	-0.07647751

layer2.bias f4 [100]
0	0xbd05f53c	-0.032704577
1	0x3dbc8075	0.09204189
2	0xbcc58160	-0.024109542
3	0xbd878300	-0.06616783
4	0x3c6d13a8	0.014470018
5	0x3dc9d221	0.09854532
6	0x3cd4d484	0.025980242
7	0x3c2f9500	0.010716677
8	0xbd72a04a	-0.059234895
9	0x3c56d480	0.013112187
10	0xbd9163e0	-0.07099128
11	0xbd2a4660	-0.04157102
12	0xbd597690	-0.053091586
13	0xbc620f30	-0.013797566
14	0x3d6171c6	0.055040143
15	0xbd0b0d76	-0.033948384
16	0xbdaac935	-0.083391584
17	0xbd9f9ae5	-0.07793216
18	0xbd82a41a	-0.06378956
19	0x3cbd6ae8	0.023122266
20	0xbdaddb2d	-0.0848907
21	0x3d96192d	0.07329021
22	0xbda28d72	-0.07937135
23	0x3c284528	0.010270394
24	0x3d62a0a6	0.055328988
25	0x3d9ca0d9	0.07647867
26	0xbd8bb248	-0.06821114
27	0x3d1fa1ae	0.03897255
28	0xbd7c2f97	-0.061568823
29	0xbd80a258	-0.062809646
30	0xbdba5340	-0.0909791
31	0xbd36895d	-0.044564594
32	0x3dbb20e1	0.091371305
33	0x3dbaa65b	0.09113761
34	0x3cb407d4	0.021976389
35	0x3d71718a	0.05894617
36	0x3d9573bb	0.072974645
37	0xbd17ccf6	-0.0370607
38	0xbb1c8a00	-0.0023885965
39	0xbd36b160	-0.04460275
40	0xbd8927de	-0.06697057
41	0xbcdb98b8	-0.02680622
42	0x3dca5d21	0.09881044
43	0xbd8ff6bb	-0.07029482
44	0x3d8bc349	0.06824357
45	0x3d93ff05	0.072263755
46	0x3c922f0c	0.0178447
47	0x3d7176aa	0.058951057
48	0x3dcb0067	0.09912186
49	0x3cded57c	0.027201407
50	0xbd86cf0d	-0.065824606
51	0x3b351f40	0.0027637035
52	0x3d55f336	0.052233897
53	0x3b203c40	0.0024449974
54	0xbdbaf910	-0.09129536
55	0x3dbf8807	0.09352117
56	0x3c861154	0.016365685
57	0xbc945cc0	-0.018110633
58	0xbd17824c	-0.036989495
59	0x3da8f187	0.08249193
60	0x3b2405c0	0.0025027841
61	0xbd9697ba	-0.07353158
62	0xbcfc1838	-0.030773267
63	0x3dbd4411	0.09241498
64	0xbdc81ef5	-0.097715296
65	0x3d6bb762	0.057547934
66	0x3d8c9d51	0.06865943
67	0x3dbb64cf	0.09150087
68	0x3d9a174d	0.075239755
69	0x3d5e73a2	0.054309495
70	0x3cc8ee98	0.024527833
71	0xbd4ecb6a	-0.05048696
72	0xbdc71ed2	-0.097226754
73	0xbda23402	-0.07920076
74	0xbdc374d5	-0.09543768
75	0xbdc24d5b	-0.09487411
76	0x3d21aa06	0.039468788
77	0xbb8652d0	-0.0040992275
78	0x3d57906a	0.05262796
79	0xbd342ded	-0.04398911
80	0xbd460e4a	-0.04835347
81	0x3d88b481	0.066750534
82	0x3d672aa6	0.056437157
83	0x3d9d8f1f	0.07693314
84	0xbda82cfb	-0.08211704
85	0x3d8afaad	0.06786094
86	0x3c79eaa8	0.0152537
87	0xbdb77593	-0.089579724
88	0xbdc99ff3	-0.09844961
89	0x3d1bd722	0.038046964
90	0xbd9cda9a	-0.076588824
91	0x3d8859c9	0.0665775
92	0xbd08938c	-0.033343837
93	0xbd7ab167	-0.06120434
94	0x3cbb26f4	0.022845723
95	0x3cea2abc	0.02858483
96	0x3ce91484	0.028452165
97	0x3c8989ec	0.0167894
98	0xbd466d80	-0.04844427
99	0xbdc2adff	-0.09505843

layer3.weight f4 [100, 100]
0	0x3ecc5b42	0.39913374
1	0xbf71899c	-0.943506
2	0xbe3fd164	-0.1873222
3	0xbf333e1b	-0.7001664
4	0xbededde0	-0.43528652
5	0xbe1525c1	-0.14565183
6	0xbdb6f848	-0.08934075
7	0xbe1b08d6	-0.1514009
8	0xbdaf13e7	-0.08548718
9	0xbdc31098	-0.095246494
10	0xbf038936	-0.5138124
11	0xbe07d3d8	-0.13264406
12	0xbe88f6cb	-0.26750788
13	0xbb80ee8a	-0.003934686
14	0x3e5aed77	0.21379648
15	0x3f1c35b4	0.61019444
16	0x3c185dcf	0.009299709
17	0x3e756e63	0.2396789
18	0xbccd9d97	-0.025099559
19	0x3e4a7402	0.19770816
20	0xbeb3bc31	-0.35104516
21	0xbded0bc2	-0.11574508
22	0xbe7e6884	-0.24844557
23	0xbe4eb058	-0.20184457
24	0x3b2554c3	0.0025227524
25	0x3e5f2d47	0.21794616
26	0xbe47a95c	-0.19498199
27	0xbe20eff3	-0.15716533
28	0xbe89a0ba	-0.26880437
29	0x3bc3b6e5	0.0059727305
30	0x3eb063e5	0.34451213
31	0xbe52532e	-0.20539543
32	0xbe943a64	-0.289508
33	0xbeb7c51a	-0.35892564
34	0x3e084cf2	0.13310602
35	0xbf00b6b0	-0.5027876
36	0x3e152e8d	0.14568539
37	0xbddf59a3	-0.10905769
38	0xbe2b8e9f	-0.16753624
39	0x3cea81bd	0.028626317
40	0xbd9445f4	-0.07239905
41	0x3e7e2e2b	0.24822299
42	0xbf0e6603	-0.5562441
43	0x3e8b316a	0.27186137
44	0xbdab1418	-0.08353442
45	0x3e7e64d5	0.24843152
46	0xbe92aa86	-0.28645724
47	0x3de19d03	0.11016276
48	0xbe8a0792	-0.269589
49	0xbe9c38b3	-0.30512008
50	0xbec04975	-0.37556043
51	0xbeba4e58	-0.36387897
52	0x3d2cec8b	0.042217772
53	0xbd806f69	-0.0627125
54	0xbe51cd3f	-0.20488451
55	0xbec85e81	-0.391346
56	0xbee4c65c	-0.44682586
57	0x3d754a58	0.059885353
58	0xbd407652	-0.04698784
59	0x3e987289	0.29774883
60	0x3e5eede0	0.2177043
61	0x3e08311f	0.13299988
62	0x3e12becd	0.14330597
63	0x3e0bc19f	0.1364808
64	0xbdd336f4	-0.10313216
65	0xbe647780	-0.2231121
66	0xbea17f1c	-0.3154229
67	0xbf06db49	-0.5267835
68	0x3e02671e	0.12734649
69	0x3e7cb46d	0.24678202
70	0x3eae1f3d	0.34008208
71	0x3d32feb1	0.043699924
72	0x3ea7e7b8	0.32793975
73	0x3e4c89c9	0.19974436
74	0x3f1ec2b4	0.62015843
75	0xbe20951b	-0.15681879
76	0xbd86134f	-0.065466516
77	0x3c52ba24	0.012861762
78	0xbeac2486	-0.33621615
79	0x3d90dadc	0.07072994
80	0xbc199401	-0.009373666
81	0xbf0b0c71	-0.5431586
82	0xbddb13b3	-0.10697117
83	0xbe89ffc0	-0.26952934
84	0xbe482ad8	-0.19547594
85	0x3e0a487a	0.1350421
86	0x3c958177	0.01825021
87	0x3e0282cb	0.12745206
88	0xbee625d8	-0.44950747
89	0xbe14bf79	-0.14526166
90	0xbc770acb	-0.015078257
91	0x3f238d77	0.63887733
92	0x3e41536f	0.18879484
93	0xbeaa5e10	-0.3327489
94	0x3ed2673e	0.41094393
95	0x3c63a7bb	0.0138949705
96	0xbe434db1	-0.19072606
97	0xbde45686	-0.111493155
98	0x3e28a209	0.16468062
99	0xbd5c0d03	-0.053723346
100	0xbd8d53eb	-0.06900772
101	0xbe1e222f	-0.15442728
102	0x3ddd54da	0.108072
103	0xbb89acda	-0.0042015137
104	0xbd99a626	-0.075023934
105	0xbddfa43a	-0.109199956
106	0xbe6aa3d4	-0.22914058
107	0xbe36388b	-0.17795007
108	0xbda1ca2f	-0.078998916
109	0x3ec4fa1e	0.38472074
110	0xbdad4193	-0.08459773
111	0xbddc31d7	-0.10751694
112	0x3d24ab7f	0.040202614
113	0xbde8fe00	-0.11376572
114	0x3dbeda5a	0.09318991
115	0xbea70460	-0.32620525
116	0x3e867861	0.26263717
117	0x3c8d26d9	0.017230438
118	0xbe2becc1	-0.16789533
119	0x3cae2f62	0.021262828
120	0xbd81ccc8	-0.06337887
121	0xbdd0f3a1	-0.102027185
122	0xbd464afc	-0.048411354
123	0xbe80dc45	-0.25168052
124	0xbddba46b	-0.107247196
125	0xbe57c4ac	-0.21071118
126	0xbd325ce1	-0.043545607
127	0xbd1c5351	-0.038165394
128	0xbd56e037	-0.05245992
129	0x3dc65d64	0.096857816
130	0x3df9deff	0.12200736
131	0xbdd71424	-0.105018884
132	0xbdd3e46c	-0.103463024
133	0xbd282b1d	-0.04105674
134	0x3cb7ea2b	0.022450527
135	0x3cc8d9ff	0.024518011
136	0xbd696f40	-0.056990862
137	0xbe088985	-0.1333371
138	0xbdfff994	-0.12498775
139	0x3bec3d55	0.00720946
140	0xbc8b35e3	-0.016993469
141	0x3d9c1872	0.0762185
142	0xbd26ab1f	-0.040690538
143	0xbe4242f3	-0.18970852
144	0xbe24f0f0	-0.16107535
145	0x3d0e7aa3	0.034784924
146	0xbe893641	-0.26799205
147	0xbe0599cc	-0.1304695
148	0x3c1dd490	0.009633198
149	0xbda4b43b	-0.08042189
150	0x3bbb9de3	0.0057256087
151	0xbc22eb35	-0.009943773
152	0xbe2174b4	-0.15767175
153	0x3b438520	0.0029833987
154	0xbdd1dba2	-0.1024697
155	0xbe4f4633	-0.20241623
156	0xbe139b38	-0.1441468
157	0x3d24b749	0.040213857
158	0xbe3adc7a	-0.18248168
159	0x3ded3c84	0.11583808
160	0x3e9e13bc	0.3087443
161	0xbeac6145	-0.3366796
162	0xbded8c18	-0.115989864
163	0xbcbb28a5	-0.02284653
164	0x3d582e89	0.052778754
165	0xbe9758f9	-0.29560068
166	0x3d45a91f	0.04825699
167	0xbdc094b6	-0.09403364
168	0xbd448804	-0.047981277
169	0xbdfd2b82	-0.12361814
170	0xbdd640b6	-0.104615614
171	0x3c8437fd	0.016139979
172	0x3c94bb49	0.01815571
173	0xbc1e892f	-0.009676262
174	0x3e3f7cbc	0.18699926
175	0xbe997f70	-0.2998004
176	0xbe2c491e	-0.16824767
177	0xbd9fe90a	-0.078081205
178	0xbd841b9c	-0.064505786
179	0xbcb552f7	-0.022134287
180	0x3dd02d61	0.10164905
181	0x3d67490f	0.05646616
182	0xbe82dd67	-0.25559542
183	0xbe4624d8	-0.19349992
184	0x3dc310c4	0.09524682
185	0x3e053624	0.13008934
186	0x3cfebbb7	0.031095369
187	0xbe519696	-0.204676
188	0xbe108438	-0.14112937
189	0xbe1746c2	-0.14773086
190	0xbdaed134	-0.08535996
191	0x3d5c82d2	0.053835697
192	0xbc204490	-0.009781972
193	0xbe4f53d8	-0.20246828
194	0xbc87e8fc	-0.016590588
195	0xbe804975	-0.25056043
196	0xbdb11700	-0.08646965
197	0x3e0ae2e7	0.13563119
198	0xbcfdf3c4	-0.031000026
199	0xbdcd3051	-0.10018981
200	0x3ca61060	0.02027148
201	0xbf0e9b75	-0.5570596
202	0xbea9fab4	-0.33199084
203	0xbe740546	-0.23830137
204	0xbea97f4a	-0.33104926
205	0x3c8f2045	0.017471442
206	0x3ea66194	0.3249632
207	0xbe8b3fb2	-0.27197033
208	0x3e9f3640	0.31096077
209	0x3e6f3c91	0.23362948
210	0x3dcb3441	0.09922076
211	0xbe289fa9	-0.16467156
212	0x3ea3b9fb	0.3197783
213	0xbd880843	-0.06642201
214	0x3d2a9f8c	0.041656062
215	0x3ef627c2	0.48077208
216	0x3e08a473	0.13343982
217	0x3e6ed49b	0.2332329
218	0xbd1c9130	-0.0382244
219	0xbe42fcc3	-0.19041733
220	0xbe393d16	-0.18089709
221	0xbe8eb185	-0.27869812
222	0xbc2a100c	-0.010379802
223	0x3e3b638c	0.18299693
224	0xbd9391c2	-0.072055355
225	0xbd142e1c	-0.036176786
226	0x3e859d5d	0.2609662
227	0xbf8532a0	-1.0406075
228	0xbe981505	-0.29703537
229	0x3cb19509	0.02167751
230	0xbe8b688c	-0.272282
231	0x3e802ac6	0.25032634
232	0xbe3fd11b	-0.18732111
233	0x3e8e0459	0.27737692
234	0xbc8d1bfd	-0.01722526
235	0xbf0a502d	-0.5402859
236	0xbd7f6a73	-0.062357377
237	0xbe260e40	-0.16216373
238	0xbccb58bc	-0.024822585
239	0x3e845563	0.25846395
240	0xbb8860db	-0.0041619367
241	0x3d1bcff4	0.038040116
242	0x3ec7330b	0.3890613
243	0xbdc81403	-0.09769442
244	0xbdf8e19d	-0.12152407
245	0x3ec04ac0	0.3755703
246	0xbe16b6f5	-0.1471823
247	0xbe19fe8a	-0.15038505
248	0x3d955098	0.07290763
249	0xbf5bc516	-0.85847604
250	0x3d8d92fe	0.06912802
251	0x3dc2d518	0.09513301
252	0x3d3493b6	0.04408618
253	0x3e36256d	0.17787714
254	0xbbd490e6	-0.006487
255	0x3d306042	0.04306055

layer3.bias f4 [100]
0	0x3eb73e9d	0.35789958
1	0xbdad0367	-0.084479146
2	0xbe6a31e4	-0.22870594
3	0xbd988925	-0.07448033
4	0xbde3d9ef	-0.11125552
5	0xbe8a7bc5	-0.27047554
6	0xbdfee8b5	-0.12446729
7	0xbedb1bbe	-0.42794603
8	0x3e15ba8c	0.14621943
9	0xbdfbecba	-0.123010114
10	0xbe4ec878	-0.2019366
11	0xbdd206b1	-0.102551825
12	0xbdec775a	-0.11546202
13	0x3dd03dc9	0.101680346
14	0xbe3ca214	-0.18421203
15	0xbe5a791c	-0.21335262
16	0xbcc6a430	-0.024248213
17	0xbd4147b2	-0.047187515
18	0xbc5d7235	-0.013515999
19	0xbee81e63	-0.45335683
20	0x3d42e9ca	0.04758624
21	0x3ce1677b	0.027515164
22	0x3ccbb76b	0.024867734
23	0x3e2d63f2	0.16932657
24	0xbda1f33d	-0.07907722
25	0xbdbb6969	-0.09150965
26	0xbcda9394	-0.026681699
27	0x3d305418	0.043048948
28	0xbd74f5b0	-0.05980462
29	0x3daa8919	0.083269306
30	0xbdad0759	-0.08448667
31	0xbdc89203	-0.097934745
32	0x3e88e42b	0.26736578
33	0x3dca338b	0.09873112
34	0xbe809666	-0.25114745
35	0xbe8ae0b8	-0.27124572
36	0xbe38c777	-0.1804484
37	0x3d85f0e2	0.065400854
38	0xbef7a07c	-0.48364627
39	0xbe4a1959	-0.19736232
40	0xbea0cc92	-0.31406075
41	0xbef8c691	-0.48588994
42	0xbe34a307	-0.17640315
43	0xbde91dbd	-0.11382625
44	0xbe13d727	-0.14437543
45	0xbe8d1d25	-0.27561298
46	0xbecfc0c3	-0.40576753
47	0xbeb1deed	-0.3474039
48	0xbebaf3f8	-0.36514258
49	0xbd744fd5	-0.059646446
50	0xbe1c68b3	-0.15274315
51	0xbd391261	-0.045183543
52	0xbe5b07cf	-0.21389697
53	0xbe3d3fcb	-0.18481366
54	0xbc9c837d	-0.019105667
55	0xbe30877c	-0.17239183
56	0xbdc3d932	-0.09562911
57	0x3c4bd25c	0.01244029
58	0xbe72f723	-0.23727088
59	0x3ea5b3a3	0.32363614
60	0xbe523a83	-0.20530133
61	0x3e5cfad1	0.21580054
62	0x3ea7a857	0.3274562
63	0xbd4817a3	-0.048850667
64	0xbcc3714e	-0.023857739
65	0xbeceb0ff	-0.40369412
66	0xbe43b945	-0.19113643
67	0xbed7105f	-0.42004678
68	0xbe229c9d	-0.15880056
69	0x3c8494f5	0.01618431
70	0x3eaefba7	0.3417637
71	0x3e2c4ce0	0.168262
72	0x3da991a1	0.0827973
73	0xbe6c4bec	-0.23075837
74	0xbe69b366	-0.22822341
75	0xbcd9a1fc	-0.026566498
76	0xbe064a24	-0.1311422
77	0xbe40d320	-0.18830538
78	0xbe1006cc	-0.14065093
79	0xbd26f6e5	-0.0407628
80	0xbcac3ee2	-0.021026079
81	0xbdc31d49	-0.0952707
82	0xbe6d4a37	-0.23172842
83	0xbce7d6e1	-0.028300704
84	0xbedef829	-0.43548706
85	0xbda20dac	-0.07912764
86	0xbdbe341c	-0.09287283
87	0x3e142967	0.14468919
88	0xbe6bc354	-0.2302373
89	0xbe11a754	-0.14223987
90	0xbec315e9	-0.38102654
91	0xbd1469fc	-0.036233887
92	0xbdcd8c2a	-0.100365
93	0xbe24e885	-0.16104324
94	0x3e76b0da	0.24090901
95	0xbdeaf441	-0.11472369
96	0xbea2bb71	-0.3178363
97	0xbe5be85a	-0.21475354
98	0xbd890d65	-0.06692008
99	0x3d7f76ac	0.062369034

action.weight f4 [2, 100]
0	0xbd0724bb	-0.032994013
1	0x3d0549ee	0.032541208
2	0xbea8fec2	-0.33006865
3	0x3c53c09f	0.012924342
4	0x3da99227	0.082798295
5	0x3f51a59a	0.8189331
6	0x3c3d108e	0.0115395915
7	0xbf1821d2	-0.59426606
8	0x3d799b3f	0.06093907
9	0xbe0838d6	-0.13302931
10	0xbf38ee4e	-0.72238624
11	0xbe7cf63d	-0.24703307
12	0x3d8affa2	0.06787039
13	0x3f514143	0.81740206
14	0x3f0b2372	0.5435096
15	0x3fa5d943	1.2956928
16	0xbe53ec3e	-0.20695588
17	0xbf852c1d	-1.0404087
18	0x3dae4530	0.0850929
19	0x3fb63ed8	1.4237928
20	0xbc524055	-0.012832721
21	0xbd2977bf	-0.041373964
22	0xbd92632c	-0.07147822
23	0xbfa3ddc9	-1.2802058
24	0xbd84c537	-0.06482928
25	0xbdeb2320	-0.11481309
26	0x3dddab07	0.108236365
27	0xbf0a3220	-0.53982735
28	0x3f504047	0.8134808
29	0x3e64acde	0.22331569
30	0x3c14b1e0	0.009075612
31	0xbe15a6c7	-0.14614402
32	0x3f00b498	0.50275564
33	0x3da061c5	0.07831148
34	0x3e9b8e45	0.3038198
35	0x3ed609f3	0.41804466
36	0xbe619f90	-0.22033525
37	0xbd8387bf	-0.06422376
38	0xbfbef687	-1.4918984
39	0xbd8b05a3	-0.067881845
40	0xbf38921e	-0.7209796
41	0xbd8b813c	-0.06811759
42	0xbd1c312c	-0.03813283
43	0x3dbb45f8	0.09144205
44	0x3f189764	0.59606004
45	0xbfc61006	-1.547364
46	0x3f43ff64	0.7656157
47	0x3de6b027	0.11264067
48	0xc008aea6	-2.1356597
49	0x3e64cc5d	0.22343583
50	0xbeed2d43	-0.46323594
51	0xbff29f97	-1.8954953
52	0xbf9d6b83	-1.2298435
53	0xbb17422a	-0.0023080208
54	0xbe746cef	-0.2386968
55	0x3e95cb32	0.29256588
56	0x3de3fd42	0.111322895
57	0x3e6134a0	0.21992731
58	0xbf1f2577	-0.6216654
59	0xbc243fdd	-0.010024992
60	0x3f42610d	0.7592934
61	0x3e6951b8	0.2278508
62	0x3e3cb418	0.18428075
63	0xbdea314d	-0.11435185
64	0xbe0eaed3	-0.13933878
65	0xbf59400c	-0.8486335
66	0x3e0c1e83	0.13683514
67	0x3f87051c	1.0548434
68	0x3e9d9fd6	0.30786008
69	0xbecd9b8c	-0.40157735
70	0xbeb29c7c	-0.34885013
71	0xbee769bf	-0.45197865
72	0xbf905e6a	-1.1278813
73	0xc0012097	-2.0176141
74	0x3e2d2d84	0.16911894
75	0xbf535b3f	-0.82561105
76	0x3d4ce678	0.05002448
77	0x3fd30498	1.6485777
78	0xbe972a51	-0.29524472
79	0xbf0e0ae2	-0.55485356
80	0xbdbe5798	-0.09294051
81	0xbda2a351	-0.079413064
82	0xbf861265	-1.0474364
83	0xbdfbb969	-0.122912236
84	0xbe381ead	-0.17980452
85	0xbe938be3	-0.28817663
86	0xbd9d47bf	-0.076797
87	0x3da011f9	0.07815928
88	0x3dae0b96	0.084983036
89	0x3e80df07	0.25170156
90	0x3fe9250a	1.8214428
91	0xbca832fd	-0.020532126
92	0x3e7168f7	0.23575197
93	0xbe8312f4	-0.25600398
94	0x3e265f3c	0.16247267
95	0x3faeff9c	1.3671756
96	0xbf61de72	-0.8823005
97	0xbd4c02ba	-0.049807288
98	0xbd37960c	-0.04482083
99	0xbd8df7b7	-0.069320135
100	0x3ec5fe3e	0.38670534
101	0x3e1c2b8a	0.15250984
102	0xbf84e756	-1.0383098
103	0xbf88a025	-1.0673872
104	0xbf5ed91e	-0.87050045
105	0x3f9834fe	1.1891172
106	0xbdddc7ee	-0.10829149
107	0xbcc8ac99	-0.024496363
108	0x3e1b6964	0.15176922
109	0x3f13a49f	0.57673067
110	0x3d61f229	0.055162583
111	0x3db54a66	0.08852081
112	0xbe63d1ea	-0.22248045
113	0x3d37a5e9	0.04483596
114	0xbdd738a5	-0.10508851
115	0xbf0104de	-0.5039805
116	0x3eb8263f	0.3596668
117	0x3e19d366	0.15022048
118	0x3e8c3864	0.27386773
119	0x3df01bea	0.11724074
120	0xbc2f92f3	-0.010716188
121	0xbf089b18	-0.53361654
122	0x3ee1d913	0.44110927
123	0xbc442b90	-0.011973277
124	0xbfa18763	-1.2619442
125	0xbe27a413	-0.16371183
126	0xbd627597	-0.055287924
127	0xbda3a053	-0.07989564
128	0xbda8b4bd	-0.08237598
129	0xbe681d9d	-0.22667547
130	0xbbf061bb	-0.007335869
131	0xbf0bcf59	-0.5461326
132	0xbee9d7a0	-0.4567232
133	0x3f8deccf	1.1087893
134	0x3fb25646	1.3932579
135	0x3edb1d09	0.4279559
136	0xbda16816	-0.07881181
137	0xbd83eaa8	-0.064412415
138	0xbe32dd1f	-0.17467164
139	0x3f6cadb1	0.9245253
140	0x3db047d8	0.08607453
141	0x3d8464f4	0.06464568
142	0xbeaad910	-0.3336873
143	0xbdbd40dd	-0.09240887
144	0xbcb6ad23	-0.022299355
145	0xbda57a5d	-0.080799796
146	0x3e9cd422	0.30630594
147	0x3f16b096	0.588632
148	0xc050b2ac	-3.2609053
149	0x3d5ff3f8	0.054676026
150	0xbf423457	-0.75861114
151	0xbc824927	-0.015904022
152	0x37748ecd	1.4576782e-05
153	0x3d8829f5	0.06648628
154	0x3df79b5b	0.120901786
155	0xbcba31e0	-0.02272886
156	0x3eea7d8f	0.4579892
157	0x3d753508	0.059865028
158	0x3be4c8c3	0.0069819405
159	0x3e8b41b4	0.27198565
160	0x3f639c78	0.8891063
161	0xbf991c48	-1.1961756
162	0xbd05e819	-0.03269205
163	0xbc5b49d2	-0.013384299
164	0xbe3fd110	-0.18732095
165	0xbf434e6d	-0.76291543
166	0xbedb7f8d	-0.4287075
167	0x3f05fd53	0.5233967
168	0x3e1f11d9	0.15534152
169	0x3cfa055b	0.030520132
170	0x3cd51e26	0.026015352
171	0x3f2c6ae0	0.6735058
172	0x3de183fd	0.11011503
173	0xbd010e74	-0.031507924
174	0x3f8e41ab	1.111379
175	0x3d1a5d79	0.0376868
176	0xbd8d07b0	-0.06886232
177	0xbe1c6417	-0.15272556
178	0x3e5315ca	0.2061378
179	0xbeda3e6c	-0.4262575
180	0x3da9222a	0.082584694
181	0x3eb1781a	0.34661943
182	0xbc10bc0a	-0.0088338945
183	0xbdb2b5b7	-0.087260656
184	0x3e911210	0.28334093
185	0x3edfd587	0.43717596
186	0x3fc09d49	1.5048
187	0x3e2da63c	0.16957945
188	0x3f6f7053	0.9353077
189	0x3f047a33	0.5174896
190	0xbe81c1b6	-0.25343102
191	0x3d77728c	0.060411975
192	0xbdeb5b4c	-0.11492023
193	0x3caa83ad	0.020814741
194	0xbe81d58b	-0.25358233
195	0xbf103949	-0.5633741
196	0xbf133486	-0.5750202
197	0xbfc452ef	-1.5337809
198	0xbf814257	-1.009837
199	0x3ddcde8a	0.107846335

action.bias f4 [2]
0	0xba94deff	-0.0011357962
1	0x3e6b0d52	0.229543
