a_target_ma1.pth (torch_old, 92773 bytes, 8 tensors)

layer1.weight f4 [100, 24]
00000000: d9e0 693e 1814 febe 0c5c c9bd 7f52 693e
00000010: 512f c03e b23c eebe b2fe f83d d4e8 893e
00000020: 8407 193e 4a16 cbbe fbb3 d7bd 14f2 5f3e
00000030: dbe1 1b3e 38e2 babe 7f64 febd eec8 09be
00000040: 01fb f33e c37f 22be 84d3 00be 3111 553d
00000050: 6401 0abe 08ce 943e 45fc 143e fe14 0c3c
00000060: 8d9a e63d f716 54bd 0812 a4bc a858 b03d
00000070: 296e af3f 4571 e7be 09a2 54bc 72d7 8c3d
00000080: 2e23 1c3d d487 33bd 1efa b33d fc7f cfbb
00000090: 104b 8a3e aaec b53d f61e bdbd 910d 493e
000000a0: da54 b1be bce4 ebbe 57d7 893d 974f 0ebe
000000b0: ae1d 30bf 02b8 263f f9d7 c0bd 9512 5f3e
000000c0: 0fb1 8f3e a3f3 1bbf 4f64 cdbd f7c7 f8bd
000000d0: 1efd b73c bb59 453e 1897 1e3e 2bbe 52bd
000000e0: a0bd cb3e bd7a c0be 0f78 81bd 65d9 023e
000000f0: 609b a9be 76ef 7bbd c697 493d edca 7f3d
00000100: f4db f03e ea62 15bf 29ab c03d 1ec3 263d
00000110: 6fe8 7fbf 6cbd f63e dd0a d4bd 2663 723e
00000120: 1890 81bc 9275 293e 5b1f 213e ea97 923d
00000130: 03a3 313f cc39 053f e28a d5bd 722f f9bd
00000140: 1385 c73d 57bb bf3e 375b d53d ac2b 3b3e
00000150: 7f4a c93d 5e3b 0c3e cbb5 c2bd ab91 ea3c
00000160: 243b cbbd 66b0 0d3f 735d 0e3e 94e8 6bbe
00000170: 466c 3ebf 346c 1c3f 8702 19be a692 7fbe
00000180: 98c6 44be dbdc ab3e 6005 223e db6e 5bbe
00000190: 798e 803f f36e 0fbe 3c23 0abe 1212 ecbd
000001a0: d2f8 f3bd 7c28 903e ac87 4f3b 2c03 973d
000001b0: 4b37 2abd 7be9 49be 748e 10be 41e4 72bc
000001c0: 5bf7 e9bd 7efb 1ebe f9ca ff3c 9a9e 53be
000001d0: 311f 44bf 9a45 b23e a4ca d5bd 69ee 9abd
000001e0: 24f4 12be 8ee9 323f 881e f7bc ff03 e73e
000001f0: a721 1abf 7e59 d23d 49e8 113d 155e fa3e
00000200: f284 1ebe 717a 313f a0a5 84bd bd20 5dbd
00000210: bf43 9d3e 277a 1d3f 0976 8a3d d1f4 e83d
00000220: 3184 7fbd 665d 373f 7a5d 733b b2ba 65be
00000230: 1d7a 2b3f cde8 283f 7773 8c3d c2e5 ccbe
00000240: 69b2 323e 9daa 8abf f99d b0bd 4b77 0abf
00000250: e3fb 5fbe 5c5a 263d d9a2 a43c f867 b5be
00000260: 2864 023e 2795 98bf 6440 383d 2b9a 31bd
00000270: 1bfc 15be d9df e33e 2796 d5bd 22e3 d63d
00000280: 31b1 a33e 63fa 87bf 8da5 83bd 5157 55be
00000290: f727 54be 11a5 503f a0f4 aabd 4f6e 203e
000002a0: 59a2 99be eea2 943e b388 8fbd 3e96 aebd
000002b0: 1ea2 a23f ebfb 61be 7bc3 313e 6ba9 25bd
000002c0: f371 cabd d735 113e 6272 14be 5419 4d3d
000002d0: 5fff af3d cde5 29bd 18b7 113e b4be 6abd
000002e0: 9db2 c1be c7a9 e8bb 44b0 2f3d 86e1 f0bd
000002f0: ce00 43bf 28ac 413d ff43 93bc 4748 9dbd
00000300: 9cc2 2fbd dc68 0a3f 0362 143d f9e5 733e
00000310: 1a15 873e 928d 65bf 009f b4bd e17f 98bd
00000320: e940 01be bed4 be3d 2544 0cbe 4570 69bd
00000330: 6c5a 91be 1347 2bbf b7a2 08be 3860 593e
00000340: 2f39 69be e11d 87be fbbc 31bd 2624 ac3d
00000350: 688e b83d 1aaa 8cbf 9c22 223e 7c46 f83d
00000360: 3198 213d c04e 07be 09a2 9b3d c75c 673e
00000370: 9310 bb3d c037 f3be 22be 03bd 5fc4 bbbd
00000380: b2ca ea3e 119e 92be 4ffd 5b3e e400 97be
00000390: b9fb f6bd c699 64bf a804 f0bd f6e2 8abe
000003a0: 6171 703e dc56 2dbf 84e1 f53d 392d ffbd
000003b0: 7119 183f 85bd 53bf 30c1 013e 708f f83d
000003c0: dc65 20be 529a 293e fad5 35be 1820 87bc
000003d0: ce55 74be c649 a9be e1fd cc3d 50e6 84bd
000003e0: 4e13 1ebd 9831 2d3e d97a 24be 7fc1 c0bd
000003f0: 8f53 613b ad50 8ebd 8c31 42bb 408a 5d3e
0.22839679 -0.49624705 -0.0983201 0.22785376 0.375361 -0.46530682 0.12157954 0.26935446
0.14944273 -0.39665443 -0.105323754 0.21869689 0.15222876 -0.36500716 -0.12421512 -0.13455555
0.47652438 -0.1586905 -0.12580687 0.052018348 -0.13477093 0.2906344 0.14549358 0.008549927
0.11259947 -0.051779713 -0.02002813 0.0861066 1.3705493 -0.45203605 -0.012978085 0.068770304
0.038119487 -0.043830708 0.087879404 -0.0063323956 0.27010393 0.08883031 -0.09234421 0.19634081
-0.3463505 -0.46072948 0.06730526 -0.13897549 -0.6879529 0.65124524 -0.094161935 0.21784432
0.28064772 -0.60918635 -0.10028898 -0.12147515 0.022459563 0.1927251 0.15487325 -0.05145089
0.3979311 -0.37593642 -0.063217275 0.12778242 -0.33126354 -0.061507665 0.049217008 0.062449384
0.4704281 -0.58354056 0.09407646 0.040713422 -0.9996404 0.48191392 -0.103536345 0.23670635
-0.01581578 0.16548756 0.15734617 0.071578816 0.6938936 0.52041316 -0.104268804 -0.121672526
0.09742179 0.37447616 0.104177885 0.18278378 0.09828662 0.13694522 -0.095073305 0.028633913
-0.099233896 0.5534729 0.13902836 -0.2303794 -0.7438396 0.61102605 -0.1494237 -0.24958286
-0.19216383 0.33566937 0.15822363 -0.21429007 1.0043479 -0.14007168 -0.13490003 -0.11526884
-0.11912693 0.28155887 0.003166656 0.07373652 -0.041556638 -0.19717972 -0.14116842 -0.014824928
-0.114241324 -0.15525624 0.031224715 -0.2066597 -0.76610094 0.34818727 -0.10439041 -0.075650044
-0.14350945 0.69887626 -0.030165926 0.45120236 -0.602076 0.102709755 0.035621915 0.48899904
-0.15480402 0.69327456 -0.06476903 -0.0539863 0.3071575 0.61514515 0.06760795 0.1137482
-0.062381927 0.7162689 0.0037134574 -0.224345 0.66983205 0.65980226 0.06857961 -0.4001904
0.1745087 -1.0833317 -0.08623881 -0.54088277 -0.21873431 0.040613517 0.020097183 -0.35430884
0.12733519 -1.1920518 0.044983283 -0.043359917 -0.14646952 0.4450672 -0.1042903 0.10492541
0.31971124 -1.0623287 -0.06428061 -0.2083409 -0.2071837 0.8150187 -0.0834744 0.1566708
-0.30006674 0.29030555 -0.07008495 -0.0852475 1.2705724 -0.22068755 0.17359726 -0.040444773
-0.09885015 0.14180695 -0.14496759 0.050072983 0.0859363 -0.04147892 0.14230001 -0.057310775
-0.37831584 -0.007100317 0.04289271 -0.11761765 -0.761731 0.04728332 -0.017976759 -0.076798014
-0.042910203 0.5406625 0.036226284 0.23818196 0.26383287 -0.89669144 -0.08819389 -0.07446266
-0.12622418 0.09317921 -0.1369787 -0.056991834 -0.283893 -0.66905326 -0.13343321 0.21228111
-0.2277572 -0.26389983 -0.043393116 0.08405332 0.09011537 -1.0989411 0.15833515 0.12122819
0.03945178 -0.13213634 0.07599265 0.22593985 0.09134021 -0.4750347 -0.032163747 -0.09168314
0.4585777 -0.2863622 0.21483348 -0.29492867 -0.12059731 -0.8929714 -0.11719638 -0.27126282
0.2348075 -0.6771066 0.12005904 -0.124597974 0.5941382 -0.8271106 0.12671351 0.121367335
-0.15663856 0.16562775 -0.17757407 -0.016494796 -0.23860857 -0.33064097 0.10009361 -0.06489241
-0.03859263 0.1691345 -0.16062488 -0.094119065 0.003438208 -0.069489814 -0.0029631583 0.2163477

layer1.bias f4 [100]
00000000: 1e00 febe 4964 8abd a62b 9bbe b985 5fbd
00000010: 75c0 00be 3115 e13e f34b 62be b522 e93e
00000020: 18a2 e73d ab40 b83d d8be 213d 6db6 2b3e
00000030: 7c63 f1be bc97 05bd a5b2 b6bd 074f 003d
00000040: a3d6 8bbd da36 c6be 906e 01bd 921b e53e
00000050: b5d5 cabc f960 93bd 5ab3 63be d1f2 43be
00000060: 3510 51be 3163 4ebe 81e1 61be 601d b0be
00000070: 9999 1ebd d13e a2be 6e84 62be 51e3 66be
00000080: 32ef acbe 4b33 e2be c964 523b 8d9c 56be
00000090: f891 bcbe a292 b73e b109 dcbc 3478 d6be
000000a0: 9a65 8cbe 5cfc 0abe f57e 4abe 3a6c 5abe
000000b0: c404 393e 352a b3be ccbe 093e 19bd e83d
000000c0: 096c 0e3f 0ada 3cbe 0617 543d d767 0abf
000000d0: 7fca fcbc 232f 933e 1072 663d 012b 963e
000000e0: bc0a 20be 789c 1a3e 8333 46be 4083 8fbc
000000f0: f8c1 983e dc7b 393e 6948 97be 8093 03be
00000100: b5cb 1fbf 47e2 c5bd d724 483d 1fa2 783d
00000110: 6f95 cebd 26a2 14be 1608 45be c435 2a3e
00000120: 2f51 b6be cb2d a8be 3109 d9bc b73f 553e
00000130: ce53 f33e 1cf1 f43d 15fa 8cbe a814 b4be
00000140: 2910 8b3e 10ce e0be dd1c d83e 88ab 203f
00000150: aa99 70be ca48 b1be 6a03 043f 132a 3cbe
00000160: 32df 0f3e 0838 c03e 9898 a3bd 8090 cd3d
00000170: c3cf 67be f9c2 27bd 76e1 53be 68e2 7f3d
00000180: 7946 b43e 6047 823d f5a0 36be 1dad 403e
-0.49609464 -0.06757409 -0.3030674 -0.054570887 -0.12573417 0.4396148 -0.22099285 0.45534292
0.11310214 0.089967094 0.039488643 0.16768809 -0.47146213 -0.03261541 -0.089207925 0.031325366
-0.06828048 -0.38713723 -0.03159958 0.44747597 -0.024760107 -0.071962304 -0.22236386 -0.19135596
-0.20416339 -0.20155026 -0.22058679 -0.3439741 -0.0387207 -0.3168855 -0.2212083 -0.22547652
-0.33776242 -0.44179758 0.003210353 -0.20958157 -0.36830115 0.3585406 -0.02686009 -0.41888583
-0.27421266 -0.1357283 -0.19774993 -0.21330348 0.18068224 -0.3499314 0.1345169 0.113641925
0.556336 -0.1844255 0.05177977 -0.540647 -0.030858276 0.287469 0.056261122 0.29329684
-0.15629095 0.1509875 -0.19355588 -0.01751864 0.29835486 0.18113655 -0.29547432 -0.12849236
-0.6242021 -0.096622996 0.04886326 0.060701486 -0.10087096 -0.1451498 -0.19241366 0.16622072
-0.35608813 -0.32847437 -0.02649364 0.20825087 0.47524875 0.119600505 -0.27534547 -0.3517201
0.27160767 -0.43907213 0.4220952 0.62761736 -0.23496118 -0.34625846 0.5156771 -0.18375425
0.14049986 0.37542748 -0.07988089 0.10037327 -0.22637849 -0.040957425 -0.20691475 0.062471777
0.35210016 0.0636127 -0.17834838 0.18816037

layer2.weight f4 [100, 100]
00000000: f248 813a 861b 4abd 8075 c93d cc14 183d
00000010: 822d 223c 4c10 2b3d bed4 4dbc 8262 e9bc
00000020: 40da b1bd 38aa 573d da24 a63c be6b 543c
00000030: b02a 0b3d 8c93 533d ce72 d3b9 4212 bfbc
00000040: b0a0 673d 762b ec3c 12f2 b03c 8e45 c53c
00000050: 725a 78bc d62e a5bd ca73 babd 3245 9c3d
00000060: 8275 43bd 603a 533d a880 2fbd de42 18bd
00000070: fe01 803c eac5 88bd a282 fdbc 02be 69bc
00000080: 603c 7d3d 7e9a c2bd b6c5 56bd 926c d93c
00000090: f4a5 bebd 3c23 63bd 1ccd 1c3d 22d1 37bd
000000a0: aa3e b43d c2db fdbc 4cd2 31bd f8b2 c13d
000000b0: 4e6b adbc 0c93 6abd f84b b3bd 6899 50bd
000000c0: c85d 043d 0e49 04bd 7c52 643d 88d0 783d
000000d0: 70aa a13d b6a4 3bbd ec4e 17bd b20e b8bb
000000e0: 40ec 023d 4e23 36bd f874 a53d 9e19 49bc
000000f0: fe78 97bb 28c1 c53d 56c2 b4bd 6e96 4ebb
00000100: ee84 d1bb fcc7 623d 9c73 acbd be6f 323c
00000110: 065d 8e3c 7ae9 f8bc 6c21 2e3d 0e46 bc3d
00000120: ccf3 45bd 2867 c7bd c828 39bd 16c6 d13c
00000130: 6ef5 37bd 6038 b23d b437 b9bd 0e01 12bc
00000140: c69b febc 6e4d f8bc 74e2 2dbd ce43 643c
00000150: 16ea a4bd 7e01 b93d 5e70 70bd 161b d63c
00000160: f682 873c e432 07bd 869f d9bc 229e dc3c
00000170: 0eed e83c acaf c7bd 1e4a 733c 322d de3b
00000180: bcbd 1dbd ba74 cbbc 8c7f 9fbd cef8 5f3b
00000190: 2e27 a03c f8a9 83bd 1805 bb3d 7e8f c5bc
000001a0: bc4d 7fbd 6e47 8a3d e06d 453d 40a4 0b3d
000001b0: 3067 ba3d aefe 95bd ee91 b8bd 9a7d 913d
000001c0: bc95 89bd 4cf6 4e3d 700f c93d 2e7f 33bd
000001d0: e84a 013d e2bb 8b3b 24f3 c13d ee4e b3bc
000001e0: bc52 3abd ee36 b3bc 86d0 0bbd 3248 23ba
000001f0: 80bb 86bd cea4 94bd be4a a7bd 9c75 35bd
00000200: 78c1 223d 640d 86bd deb4 7d3c 7c89 313d
00000210: 982a 0b3d 1806 2cbd 9253 1a3b d6ac 8fbd
00000220: 1abe 8e3c 5aa9 d8bc 5c7f c8bd ccfc 1bbd
00000230: 6833 663d 7491 6b3d ce7e bfbd fc66 a0bd
00000240: 5eb6 9e3c 2c6a 5a3d 72af 593b 2e92 c3bd
00000250: 98c2 9ebd 6686 37bc 985e 2e3d 7211 d23c
00000260: 5492 80bd c0c2 4b3d fa60 a73d 5c43 2a3d
00000270: 50c5 a33d 48b1 b53d e837 c9bd cad7 49bc
00000280: 505f a9bd 4adb b63c 3e12 84bd f808 9d3d
00000290: 9e29 da3b e650 15bc 6874 9b3d fa6c b9bc
000002a0: 10e2 263d f6f6 03bd 8c5d c23d b4be 9bbd
000002b0: 8e7e 78bd 0659 0cbd ae7d b7bd 8e6c aebd
000002c0: 4e4a dfba 6018 963d fafa b4bc 2eae c9bb
000002d0: 904c aebd 1876 bbbd e08f 3a3d 1e00 0ebd
000002e0: 7e11 9d3d 28aa 583d 6c77 81bd 2ae2 87bd
000002f0: 204b a73d 6e13 b83c 982a 70bd 0c2e 8d3d
00000300: ee60 d83b c658 b3bc 8e0f 0f3b 728b 17bd
00000310: 8eff 56bd 7aa4 b53c f437 3d3d e8c7 48bd
00000320: 82f2 37bd b4db c2bd 70c6 183d 30c9 743d
00000330: e863 91bd a860 283d 40fc 1b3d f4a4 ae3d
00000340: 38cd 7fbd 4429 043d 8653 3fbd acad c13d
00000350: c4e7 c43d 20f8 583d da03 cabd 4e85 543c
00000360: d41e 3fbd 823f 8e3d 66e3 823d 7234 60bd
00000370: fa3d c13d 9a8d 963c 886f 12bd da03 c03d
00000380: 8e46 ac3d 38f4 76bd 06c4 c0bd acaf 9bbd
00000390: 4e1e 49bc ee55 9c3d 02e6 91bd 2661 ccbd
000003a0: eae4 b9bd 5036 9cbd 7c18 1cbd 1894 21bd
000003b0: 9c98 7f3d 4857 36bd a63a 5ebc e404 2e3d
000003c0: 8422 953d 0674 ab3d 72bb db3c 54c7 abbd
000003d0: 2e0f 993c ce39 cabd 803e 8e3d bae7 b23d
000003e0: 6888 4e3d 68ba 87bd 3240 2bb9 7e20 c5bd
000003f0: 78d7 c83d ecc7 87bd 3e0b 8dbd 0ca0 9cbd
0.0009863658 -0.049342655 0.098368645 0.03712921 0.009898545 0.04176359 -0.012562929 -0.028489355
-0.08684206 0.052652568 0.020281244 0.012965141 0.033976257 0.051654384 -0.00040330592 -0.023324136
0.056549728 0.028829318 0.021599803 0.024081018 -0.015158283 -0.08065574 -0.09104116 0.076303855
-0.047719486 0.051569343 -0.042847306 -0.037173145 0.01562595 -0.06678374 -0.03094608 -0.014266493
0.061825156 -0.09502123 -0.052434646 0.026541028 -0.09308997 -0.055453524 0.038281545 -0.04487718
0.08801015 -0.030988578 -0.043413445 0.09457964 -0.02116933 -0.05726914 -0.08754724 -0.05092755
0.032316 -0.032296233 0.055742726 0.060745746 0.078938365 -0.045811377 -0.0369405 -0.005616986
0.031963587 -0.044467263 0.08078951 -0.012274174 -0.0046225777 0.09655982 -0.08826129 -0.0031522769
-0.0063940203 0.0553665 -0.08420488 0.010890899 0.017378341 -0.030384768 0.042512342 0.09193049
-0.048328206 -0.09736472 -0.045204908 0.02560715 -0.044911794 0.08702159 -0.09043828 -0.008911384
-0.031080138 -0.030310359 -0.04245229 0.0139321815 -0.08052461 0.09033488 -0.05870091 0.026135962
0.01654194 -0.033007517 -0.026565325 0.026930872 0.028433349 -0.097503036 0.014849214 0.00678029
-0.038511023 -0.024835933 -0.077879995 0.0034175399 0.019549932 -0.06428903 0.09131831 -0.024116274
-0.062329993 0.067519054 0.048200488 0.034092188 0.09101713 -0.07323967 -0.09012209 0.07104035
-0.06718013 0.050527856 0.098173976 -0.04382246 0.031565577 0.0042643407 0.094702035 -0.021888223
-0.045489058 -0.021876778 -0.03413441 -0.00062287145 -0.065787315 -0.072579965 -0.08168553 -0.044301614
0.039735287 -0.06545523 0.015485017 0.043344006 0.033976167 -0.041998 0.0023548347 -0.07015388
0.017424632 -0.02644794 -0.09789917 -0.038082883 0.05620137 0.05751176 -0.09350358 -0.07832143
0.019374069 0.05332391 0.0033216146 -0.09549366 -0.077519596 -0.011201477 0.04257068 0.025643084
-0.0627791 0.049746275 0.08172794 0.041568145 0.07996619 0.08871704 -0.098251164 -0.0123195145
-0.082701325 0.022321362 -0.06448792 0.07667726 0.006657793 -0.009113526 0.07590562 -0.022634972
0.040742934 -0.032217942 0.09490499 -0.07604733 -0.060667567 -0.034264587 -0.089595184 -0.08516799
-0.0017035694 0.07328868 -0.022092331 -0.006154797 -0.08510697 -0.09153384 0.045547366 -0.03466808
0.07669352 0.05289665 -0.06321606 -0.06634934 0.08168626 0.022470202 -0.05863437 0.06893548
0.006603352 -0.021892916 0.002182934 -0.03699822 -0.05248981 0.022173155 0.04619594 -0.04901877
-0.044909008 -0.09514561 0.03729862 0.05976218 -0.07099134 0.041107804 0.03808236 0.08527556
-0.06245157 0.032265916 -0.046710514 0.094569534 0.09614518 0.052971005 -0.09864016 0.012971235
-0.04666026 0.06945707 0.06391029 -0.054737516 0.09435649 0.018378068 -0.035750896 0.093757346
0.08411895 -0.0602915 -0.094123885 -0.07601866 -0.012275292 0.07633577 -0.07123949 -0.09979467
-0.09076865 -0.07627547 -0.038109288 -0.039447874 0.0624014 -0.04451683 -0.013563788 0.042485133
0.07281974 0.08371739 0.02682278 -0.08387628 0.018683996 -0.098743066 0.06945515 0.087356046
0.050423056 -0.06627351 -0.00016331745 -0.09625338 0.098067224 -0.06629929 -0.0688691 -0.07647714

layer2.bias f4 [100]
00000000: 6ef5 05bd 4480 bc3d 9281 c5bc ce82 87bd
00000010: 7613 6d3c f0d1 c93d 52d4 d43c 3295 2f3c
00000020: 18a0 72bd 4ed4 563c ae63 91bd 2e46 2abd
00000030: c276 59bd 620f 62bc 9471 613d 440d 0bbd
00000040: 04c9 aabd b49a 9fbd e8a3 82bd b66a bd3c
00000050: fcda adbd fc18 963d a48d a2bd f644 283c
00000060: d8a0 623d 0aa1 9c3d 16b2 8bbd 7ca1 1f3d
00000070: 662f 7cbd 8aa2 80bd 0e53 babd 2c89 36bd
00000080: b020 bb3d 2aa6 ba3d a207 b43c 5871 713d
00000090: 8a73 953d c4cc 17bd 328a 1cbb 2eb1 36bd
000000a0: ac27 89bd 8698 dbbc f05c ca3d 8af6 8fbd
000000b0: 18c3 8b3d d4fe 933d da2e 923c 7876 713d
000000c0: 3600 cb3d 4ad5 de3c dcce 86bd 721f 353b
000000d0: 04f3 553d 723c 203b def8 babd d687 bf3d
000000e0: 2211 863c 8e5c 94bc 1a82 17bd 56f1 a83d
000000f0: 8e05 243b 8897 96bd 0618 fcbc e043 bd3d
00000100: c41e c8bd 30b7 6b3d 209d 8c3d 9e64 bb3d
00000110: 1c17 9a3d 7073 5e3d caee c83c 38cb 4ebd
00000120: a01e c7bd d033 a2bd a474 c3bd 2a4d c2bd
00000130: d4a9 213d 0253 86bb 3890 573d bc2d 34bd
00000140: 180e 46bd b2b4 883d 742a 673d ee8e 9d3d
00000150: 2c2d a8bd 7cfa 8a3d 76ea 793c 6275 b7bd
00000160: c29f c9bd f0d6 1b3d 68da 9cbd 9859 883d
00000170: 5a93 08bd 36b1 7abd c226 bb3c 8a2a ea3c
00000180: 5214 e93c ba89 893c 4e6d 46bd cead c2bd
-0.032704763 0.09204152 -0.024109636 -0.06616746 0.014469972 0.098544955 0.025980148 0.010716723
-0.05923471 0.013112141 -0.070990905 -0.041570835 -0.053091772 -0.013797613 0.055039957 -0.033948198
-0.08339122 -0.07793179 -0.06378919 0.023122173 -0.084890336 0.07328984 -0.07937172 0.010270348
0.055329174 0.07647903 -0.068210766 0.038972363 -0.06156864 -0.06281002 -0.09097873 -0.04456441
0.09137094 0.091137245 0.021976296 0.058945984 0.07297428 -0.037060514 -0.0023886082 -0.044602565
-0.0669702 -0.026806127 0.09881008 -0.070294455 0.068243206 0.07226339 0.017844606 0.05895087
0.099121496 0.027201314 -0.06582424 0.002763715 0.05223371 0.002445009 -0.09129499 0.093520805
0.016365591 -0.01811054 -0.03698931 0.08249156 0.0025027725 -0.07353121 -0.030773174 0.09241462
-0.09771493 0.057547748 0.06865907 0.091500506 0.07523939 0.05430931 0.024527926 -0.050486773
-0.09722638 -0.07920039 -0.09543732 -0.09487374 0.0394686 -0.004099251 0.052627772 -0.04398893
-0.048353285 0.0667509 0.05643697 0.07693277 -0.08211741 0.06786057 0.015253654 -0.08957936
-0.098449245 0.038046777 -0.07658845 0.06657714 -0.03334365 -0.061204158 0.02284563 0.028584737
0.028452072 0.016789306 -0.048444085 -0.09505807

layer3.weight f4 [100, 100]
00000000: 745b cc3e ce89 71bf 32d1 3fbe ea3d 33bf
00000010: 12de debe 9025 15be 16f8 b6bd 0809 1bbe
00000020: 1814 afbd 6610 c3bd 0489 03bf a6d3 07be
00000030: fcf6 88be 58ee 80bb a8ed 5a3e 8235 1c3f
00000040: 9e5d 183c 326e 753e 299d cdbc 3474 4a3e
00000050: 60bc b3be 900b edbd b468 7ebe 8ab0 4ebe
00000060: 9b55 253b 782d 5f3e 2aa9 47be c2ef 20be
00000070: 88a0 89be 16b7 c33b ba63 b03e fc52 52be
00000080: 323a 94be e8c4 b7be 244d 083e 7eb6 00bf
00000090: be2e 153e 7259 dfbd 6e8e 2bbe ee81 ea3c
000000a0: c245 94bd fa2d 7e3e d265 0ebf 9c31 8b3e
000000b0: 4a14 abbd a464 7e3e 54aa 92be 349d e13d
000000c0: 6007 8abe 8238 9cbe a649 c0be 8a4e babe
000000d0: c4ec 2c3d 386f 80bd 70cd 51be 505e c8be
000000e0: 2ac6 e4be 8a4a 753d 8476 40bd ba72 983e
000000f0: 12ee 5e3e 5031 083e febe 123e a1c1 0b3e
00000100: c236 d3bd 4e77 64be 4e7f a1be 18db 06bf
00000110: 5067 023e 9eb4 7c3e 6e1f ae3e e2fe 323d
00000120: eae7 a73e fa89 4c3e e6c2 1e3f ea94 20be
00000130: 8013 86bd 56ba 523c 5424 acbe 0edb 903d
00000140: 3294 19bc 400c 0bbf 8213 dbbd 8eff 89be
00000150: 0a2b 48be ac48 0a3e a881 953c fc82 023e
00000160: a625 e6be 9ebf 14be 9a0a 77bc a88d 233f
00000170: 3e53 413e 3c5e aabe 7067 d23e a8a8 633c
00000180: 804d 43be b856 e4bd 3aa2 283e d20c 5cbd
00000190: 1c54 8dbd fe21 1ebe a854 dd3d a8ac 89bb
000001a0: f4a5 99bd 6ca4 dfbd caa3 6abe 5a38 36be
000001b0: fec9 a1bd ecf9 c43e 6241 adbd 0832 dcbd
000001c0: b0ab 243d cefd e8bd 28da be3d 2e04 a7be
000001d0: 9278 863e 0a27 8d3c 90ec 2bbe 302f ae3c
000001e0: 96cc 81bd 70f3 d0bd ca4a 46bd 76dc 80be
000001f0: 9ca4 dbbd dec4 57be 125d 32bd 8253 1cbd
00000200: 68e0 56bd 965d c63d 30df f93d f213 d7bd
00000210: 9ee4 d3bd 4e2b 28bd 5cea b73c 30da c83c
00000220: 726f 69bd b689 08be c6f9 ffbd 243d ec3b
00000230: b235 8bbc a418 9c3d 50ab 26bd e042 42be
00000240: 22f1 24be 727a 0e3d 7236 89be 9a99 05be
00000250: 5ed4 1d3c 6cb4 a4bd b29d bb3b 66eb 22bc
00000260: 8274 21be 5285 433b 70db d1bd 6446 4fbe
00000270: 069b 13be 7ab7 243d 48dc 3abe b63c ed3d
00000280: 8a13 9e3e 7661 acbe e68b edbd d628 bbbc
00000290: ba2e 583d 2a59 97be 50a9 453d 8494 c0bd
000002a0: 3688 44bd 9a2b fdbd 8440 d6bd 2e38 843c
000002b0: 7abb 943c 6089 1ebc 8a7c 3f3e a27f 99be
000002c0: 5049 2cbe d8e8 9fbd a81b 84bd 2853 b5bc
000002d0: 302d d03d de48 673d 98dd 82be a624 46be
000002e0: 9210 c33d 5636 053e 86bb fe3c 6496 51be
000002f0: 0684 10be 9046 17be 02d1 aebd a082 5c3d
00000300: 5e44 20bc 0a54 4fbe 2ee9 87bc a649 80be
00000310: ce16 b1bd b6e2 0a3e 92f3 fdbc 2030 cdbd
00000320: 26bb 843c fc91 10bf 80e5 a9be 9c76 79be
00000330: e7b4 abbe 15e2 533c d596 a53e 0ccf 8ebe
00000340: 6f23 9d3e 9963 6a3e 53b6 c33d 4ce5 2abe
00000350: b7c8 a23e 6a4a 8ebd 26ee 1b3d 28a9 f33e
00000360: 26fe 023e cbb3 6b3e 9378 32bd d2fc 42be
00000370: 3b38 3fbe 80f5 91be 52b5 41bc 8256 363e
00000380: 4358 9fbd ea2d 14bd 77a9 813e 5b6a 85bf
00000390: d414 98be 11b9 b03c 5abe 8cbe 409d 7a3e
000003a0: 687b 41be 33f4 8b3e 8590 96bc 3fe1 0bbf
000003b0: 70a5 8fbd 85ee 29be 37d0 cbbc 3381 813e
000003c0: 972f 03bc 1b37 193d 7426 c43e 1fa5 cabd
000003d0: d0f5 febd 6f22 c03e 5685 1ebe 03ef 1abe
000003e0: 237a 8c3d eff6 5dbf c53c 853d 590b be3d
000003f0: a0d7 293d 3de9 313e 9bc9 05bc 0a61 243d
0.39913523 -0.943509 -0.18732145 -0.7001635 -0.435288 -0.1456511 -0.089340374 -0.15140164
-0.085487545 -0.09524612 -0.51380944 -0.13264331 -0.26750934 -0.003934663 0.21379721 0.61019146
0.009299664 0.23967817 -0.025099354 0.1977089 -0.35104656 -0.11574471 -0.24844629 -0.20184532
0.0025228027 0.21794689 -0.19498125 -0.1571646 -0.26880288 0.0059727533 0.34451085 -0.20539469
-0.2895065 -0.35892415 0.13310677 -0.5027846 0.14568612 -0.10905732 -0.16753551 0.028626408
-0.07239868 0.24822226 -0.55624115 0.27186286 -0.08353479 0.24843079 -0.28645575 0.11016312
-0.26958752 -0.30511862 -0.3755619 -0.36388046 0.042217985 -0.06271213 -0.20488524 -0.39134455
-0.44682437 0.05988554 -0.046988025 0.2977503 0.21770504 0.13300061 0.1433067 0.13648082
-0.103131786 -0.22311136 -0.31542438 -0.5267806 0.12734723 0.24678275 0.34008354 0.043700106
0.32794124 0.19974509 0.6201614 -0.15681806 -0.06546688 0.012861809 -0.33621466 0.07073031
-0.009373711 -0.54315567 -0.1069708 -0.26952785 -0.19547668 0.13504285 0.018250301 0.12745279
-0.44950598 -0.14526221 -0.015078211 0.63888025 0.1887941 -0.3327502 0.41094542 0.013895191
-0.19072533 -0.11149353 0.16468135 -0.053723164 -0.06900808 -0.15442654 0.108071625 -0.0042014904
-0.07502356 -0.10920033 -0.22914043 -0.17794934 -0.07899855 0.38471925 -0.084597364 -0.1075173
0.040202796 -0.113765344 0.09318954 -0.32620376 0.26263863 0.01723053 -0.1678946 0.021262735
-0.0633785 -0.10202682 -0.04841117 -0.25168198 -0.10724756 -0.21071193 -0.04354579 -0.038165577
-0.052460104 0.09685819 0.12200773 -0.10501851 -0.1034634 -0.041056924 0.022450618 0.024518102
-0.05699105 -0.13333783 -0.124988124 0.007209437 -0.016993377 0.07621887 -0.04069072 -0.18970823
-0.1610761 0.03478474 -0.2679935 -0.13046876 0.009633152 -0.08042225 0.005725586 -0.009943819
-0.157671 0.0029834104 -0.102469325 -0.20241696 -0.14414605 0.04021404 -0.18248093 0.11583845
0.30874282 -0.33668107 -0.11598949 -0.02284662 0.052778937 -0.29560214 0.048257172 -0.09403327
-0.047981463 -0.12361832 -0.10461524 0.01614007 0.018155802 -0.009676307 0.18699852 -0.2998019
-0.16824841 -0.07808083 -0.064505875 -0.022134379 0.10164869 0.056465976 -0.25559688 -0.19349918
0.09524645 0.13009009 0.031095278 -0.20467526 -0.14112863 -0.14773011 -0.08535959 0.05383551
-0.009781925 -0.20246902 -0.01659068 -0.2505619 -0.08646928 0.13563046 -0.030999932 -0.10018945
0.01620252 -0.56472754 -0.33182907 -0.24361652 -0.33536455 0.01293232 0.32341638 -0.2789234
0.30691096 0.22889556 0.0955626 -0.16689032 0.31793758 -0.06947787 0.038068913 0.47589993
0.12792262 0.23017804 -0.04357202 -0.19041756 -0.18673794 -0.28507614 -0.011823015 0.17806438
-0.077805065 -0.0361766 0.25324604 -1.0423082 -0.2970339 0.021572622 -0.27488977 0.24474049
-0.18894732 0.27334747 -0.01837946 -0.54640573 -0.070139766 -0.16594894 -0.024879558 0.25293884
-0.008006952 0.03740607 0.38310587 -0.098947756 -0.12449229 0.3752627 -0.15480551 -0.15130238
0.06859233 -0.86704916 0.065057315 0.09279508 0.0414654 0.1737413 -0.008165742 0.040131606

layer3.bias f4 [100]
00000000: ce3e b73e 9803 adbd 444f 71be f488 98bd
00000010: bed9 e3bd 947b 8abe 84e8 febd b41b dbbe
00000020: 04df 103e 5c2a fabd b5ae 4ebe 8006 d2bd
00000030: 2877 ecbd ef46 d03d e2a1 3cbe dd76 5abe
00000040: fea3 c6bc c47a 40bd 0472 5dbc 2a1e e8be
00000050: fce9 423d 205f d43c e839 cc3c 67ef 2e3e
00000060: 0cf3 a1bd e9bd b8bd 91b3 d9bc 4a54 303d
00000070: f174 7fbd 4153 b13d 2807 adbd d291 c8bd
00000080: a68b 883e 4877 d53d 3496 80be 86e0 8abe
00000090: 46c7 38be a1cf 813d 942a f8be 4fe7 49be
000000a0: 85d1 a1be 0618 fabe d6a2 34be 8c1d e9bd
000000b0: 07d3 13be e41f 8ebe 92c0 cfbe b5de b1be
000000c0: 2af4 babe a44f 74bd 8268 1cbe f3cd 34bd
000000d0: 9e07 5bbe c681 43be 784f a1bc 4a87 30be
000000e0: 64d9 c3bd 1400 723c 71ce 6fbe 6cdc a43e
000000f0: b43a 52be f71f 533e 3ad7 a83e 7217 48bd
00000100: 1c71 c3bc 5bc8 cebe 14b9 43be 2e10 d7be
00000110: 6c9c 22be 2695 843c d0e3 ad3e 5215 2c3e
00000120: c928 ac3d 3bfd 6bbe 2e72 69be b512 d5bc
00000130: f249 06be b988 46be 9a06 10be c508 48bd
00000140: b03e acbc 181d c3bd 6661 69be 5255 f3bc
00000150: 1ef3 debe 7a0d a2bd 4ae0 cebd 90e1 153e
00000160: 3d6f 70be 86a7 11be 124b c3be 79d3 09bd
00000170: 63d6 cebd 54e8 24be ff23 793e a13a ebbd
00000180: 40bb a2be 8ce8 5bbe 140d 89bd fff5 7a3d
0.35790104 -0.08447951 -0.23565394 -0.07447997 -0.111255154 -0.27047408 -0.124466926 -0.42794573
0.14147574 -0.12215111 -0.20183833 -0.10255146 -0.11546165 0.101697795 -0.18421128 -0.21334405
-0.02424812 -0.04699208 -0.013515953 -0.45335513 0.047586426 0.025924265 0.024929956 0.17083512
-0.07907686 -0.090205975 -0.026574882 0.043049134 -0.062367383 0.086584575 -0.084486306 -0.09793438
0.26669043 0.10423142 -0.25114596 -0.27124423 -0.18044767 0.0633843 -0.48469985 -0.19717143
-0.31605163 -0.48846453 -0.17640242 -0.11382589 -0.1443597 -0.27758706 -0.40576607 -0.34740224
-0.36514407 -0.059646264 -0.15274242 -0.04414172 -0.21389624 -0.19092473 -0.019691214 -0.17239109
-0.09562948 0.014770526 -0.23418595 0.3219942 -0.20530206 0.20617662 0.32976705 -0.048850484
-0.023857646 -0.40387234 -0.1911357 -0.42004532 -0.15879983 0.0161844 0.3396287 0.16805008
0.08406217 -0.23045819 -0.22797462 -0.026009897 -0.13114145 -0.19388093 -0.14065018 -0.04883649
-0.021025985 -0.095270336 -0.22791061 -0.02970377 -0.4354486 -0.07912727 -0.101013735 0.14636827
-0.23479934 -0.14224061 -0.38143212 -0.03364894 -0.10099485 -0.16104251 0.24330138 -0.11485792
-0.31783485 -0.21475428 -0.066919476 0.061269756

action.weight f4 [2, 100]
00000000: 8a24 07bd 204a 053d f4fe a8be 6ec0 533c
00000010: f691 a93d cca5 513f c010 3d3c 0422 18bf
00000020: cbeb 753d 0839 08be 6aee 38bf 0cf6 7cbe
00000030: 70ff 8a3d 1241 513f a423 0b3f 74d9 a53f
00000040: 66ec 53be 4e2c 85bf 6245 ae3d 0a3f b63f
00000050: 8640 52bc b8db 19bd d8d1 82bd 681c a4bf
00000060: 68c5 84bd d3a5 ecbd ccb3 dd3d ee31 0abf
00000070: 2055 4f3f e783 693e 12b2 143c f8a6 15be
00000080: 154a ff3e 45e2 a13d 348e 9b3e c209 d63e
00000090: c29f 61be 2937 83bd b195 bebf 0520 8dbd
000000a0: 4892 38bf fec5 84bd 5e31 1cbd 2a46 bb3d
000000b0: 4298 183f d40f c6bf 32ff 433f f6af e63d
000000c0: 74ae 08c0 8ecc 643e 122d edbe 94bb f2bf
000000d0: b46b 9dbf 7d93 51bc 6c6a 74be 00cb 953e
000000e0: 10fd e33d 014e 643e 9f7b 21bf 92b1 81bc
000000f0: dc60 423f 913b 6d3e 05d7 3d3e 6e31 eabd
00000100: a2ae 0ebe 3e40 59bf b41e 0c3e 4405 873f
00000110: a49f 9d3e be9b cdbe 12b6 b0be ddc4 e6be
00000120: 9c5e 90bf 3d20 01c0 522d 2d3e 85fb 53bf
00000130: 46e6 4c3d 657e d13f 822a 97be b00a 0ebf
00000140: ca57 bebd 82a3 a2bd f479 86bf a37b fbbd
00000150: de1e 38be 0e8c 93be b247 9dbd 91a7 9f3d
00000160: 7394 ab3d d6de 803e c853 e83f 4d1f a8bc
00000170: 91a1 6b3e 2613 83be dbba 2a3e 7f14 af3f
00000180: 40de 61bf 8802 4cbd aa96 37bd 8d78 8cbd
00000190: 70fe c53e 582b 1c3e e378 84bf 56a0 88bf
000001a0: 50d9 5ebf 3035 983f 20c8 ddbd 68ac c8bc
000001b0: 2a84 163e 96d5 133f ec74 643d 984a b53d
000001c0: 1cd2 63be 260d 383d d638 d7bd 1005 01bf
000001d0: 7026 b83e 74dd 193e 9638 8c3e 711b f03d
000001e0: c292 2fbc b402 08bf 7324 e23e 06ec 61bc
000001f0: 9487 a1bf d367 2abe 3164 63bd 84a0 a3bd
00000200: 6f8d aabd 97ed 65be ec61 f0bb 8acf 0bbf
00000210: b8f1 e8be f33f 8e3f 7856 b23f 3a1d db3e
00000220: 4868 a1bd a51e 83bd be86 32be 397b 6b3f
00000230: bbe9 ae3d 3406 823d 42d9 aabe ac40 bdbd
00000240: 032b b9bc c781 a1bd 54d4 9c3e c8b0 163f
00000250: deb2 50c0 2af4 5f3d 8834 42bf 7137 92bc
00000260: 92d7 d737 b9ce 593d e176 f53d 1232 babc
00000270: c07d ea3e 0b04 773d 0e12 bc3b caaa 8a3e
00000280: aa9c 633f e66e 98bf 83ef 02bd 044a 5bbc
00000290: 42d1 3fbe 6101 43bf 5c7f dbbe 84fd 053f
000002a0: 0a12 1f3e 8c05 fa3c e9e5 c83c 6236 2c3f
000002b0: 5845 e93d 677e e8bc fa47 8e3f f258 213d
000002c0: e207 8dbd 2dc5 39be fc15 533e 0c7c d8be
000002d0: 5c22 a93d 4c78 b13e 706f 17bc b806 b9bd
000002e0: 6013 913e b8d5 df3e 78b6 c03f 9430 2b3e
000002f0: 7780 6f3f 647a 043f 5f1b 81be 0e2e 803d
00000300: 34e4 01be de83 aa3c 955d 81be 7382 0fbf
00000310: b834 13bf 2053 c4bf 8842 81bf cff7 dd3d
-0.03299383 0.032541394 -0.33007014 0.012924297 0.08279793 0.8189361 0.011539638 -0.59426904
0.060039323 -0.13303006 -0.7223879 -0.24703234 0.06787002 0.81739914 0.5435126 1.2956986
-0.20695648 -1.0404146 0.085093275 1.4237988 -0.012832766 -0.037563056 -0.06387681 -1.2821169
-0.06482965 -0.11555066 0.10825309 -0.53982437 0.80989265 0.22804223 0.009075658 -0.14614475
0.49861208 0.079044856 0.3038193 0.4180432 -0.22033599 -0.06407005 -1.4889432 -0.06890873
-0.7209821 -0.064830765 -0.038133018 0.09144242 0.59607327 -1.547358 0.7656127 0.11264031
-2.1356478 0.22343656 -0.46323448 -1.8963494 -1.2298493 -0.012791512 -0.23868722 0.2925644
0.11132252 0.22295381 -0.63079256 -0.015831742 0.75929046 0.23167254 0.18539055 -0.11435209
-0.13933805 -0.8486365 0.13683587 1.0548482 0.3078586 -0.40157884 -0.3451391 -0.4507207
-1.1278872 -2.0175927 0.1691182 -0.82805663 0.050024293 1.6366698 -0.29524618 -0.5548506
-0.09294088 -0.07941343 -1.0505967 -0.12279441 -0.17980525 -0.2881779 -0.076796904 0.07795633
0.08377924 0.2517001 1.8150568 -0.020522738 0.23010851 -0.25600547 0.16672842 1.367813
-0.8822975 -0.0498071 -0.04482142 -0.06858931 0.38670683 0.1525091 -1.0349392 -1.0673931
-0.8705034 1.1891232 -0.108291864 -0.024496272 0.14698854 0.5774778 0.055775568 0.08852118
-0.22248119 0.044934414 -0.105088875 -0.5039835 0.35966825 0.15025884 0.27386922 0.11723984
-0.010716142 -0.53129125 0.44168434 -0.0137891825 -1.26195 -0.16641168 -0.05551547 -0.079896
-0.083277576 -0.22453915 -0.007335892 -0.54613554 -0.45496917 1.1113266 1.3932638 0.42795736
-0.07881218 -0.06402329 -0.17434213 0.919849 0.08540674 0.063488394 -0.3336888 -0.09240851
-0.022603517 -0.07886081 0.30630744 0.58863497 -3.2609172 0.054676212 -0.75861406 -0.017848702
2.573038e-05 0.05317566 0.11985565 -0.022728954 0.45799065 0.06030659 0.005739457 0.27083427
0.88910925 -1.1908844 -0.031966697 -0.013384346 -0.1873217 -0.7617398 -0.42870605 0.5233996
0.15534225 0.030520223 0.024523692 0.6727048 0.113901794 -0.028380586 1.1115716 0.039391465
-0.06886269 -0.18141623 0.20613855 -0.4228214 0.08258507 0.34662092 -0.009242877 -0.090344846
0.28335094 0.43717742 1.5055685 0.1671775 0.93555397 0.51749253 -0.25216195 0.06258784
-0.12684709 0.020814832 -0.2526671 -0.56058425 -0.5750232 -1.5337868 -1.0098429 0.10838281

action.bias f4 [2]
00000000: 59bb eb39 6e4d 6a3e
0.00044962278 0.228811
