a_target_ma0.pth (torch_old, 92773 bytes, 8 tensors)

layer1.weight f4 [100, 24]
0.4364366 0.004338089 -0.047885656 -0.96166664 -0.009274576 -0.46398467 -0.3459231 -0.90523475
0.38756245 0.13928638 -0.07752557 -0.6120978 -0.32510373 -0.5147748 -0.17902118 -0.6425925
0.3364868 -0.66846186 -0.037392527 -0.38871175 -0.09825069 -0.18733592 -0.01594239 -0.36148977
-0.33889666 -0.6698749 0.049428467 -0.4079338 -1.4771762 -0.14005834 0.095217414 -0.5460915
-0.4763059 -0.79211366 0.18968856 -0.0028781537 -0.81697214 -0.22924604 -0.05866229 0.2322156
-0.43325374 -0.51720726 0.043750256 -0.28372213 -0.1503691 0.0415525 0.07454593 -0.043410905
0.1304119 1.3712022 -0.09385587 -0.16192006 -0.0663126 0.042618442 -0.17403843 -0.19031076
0.41615582 1.2742547 -0.076109394 -0.3969034 -0.07951899 0.2699389 -0.07396023 -0.5903837
0.28609967 1.1147975 -0.08292134 -0.04274003 0.18526137 0.4014443 -0.021752065 0.24319547
-0.0045006825 0.5158652 0.04148399 0.29480392 -0.18915556 -0.31662142 0.08625251 0.10402815
0.19205198 0.49231702 -0.02881589 -0.33563215 0.37042147 -0.24000657 -0.10370505 -0.053635176
0.33326823 0.72637564 0.11662074 0.03760631 0.7619346 -0.07650742 -0.20707554 -0.011493701
0.4323061 0.560519 -0.029960869 0.0062875105 -0.75961745 -0.011353185 0.16165783 0.08618278
0.25924942 0.20595656 0.12638555 -0.2550804 0.0115942685 0.0018070834 -0.16054483 -0.3181443
0.33385757 0.1517658 0.026773993 -0.17497398 0.4102674 0.49511474 -0.019906437 0.09606707
-0.19476172 1.5579721 -0.05281526 0.557094 0.16127698 -0.14146312 0.040797815 0.5582391
-0.29769853 1.6528442 0.123987526 0.119730726 0.4217233 -0.25864908 0.03074379 -0.17137527
-0.4334394 1.2210522 0.060050182 -0.28726876 0.3273777 -0.061157435 -0.1244608 -0.2298623
0.28044602 -0.24318686 -0.02038404 0.03644202 0.35212356 -0.6225359 -0.06509203 0.07871696
0.10172851 -0.21286525 -0.025425436 0.110126756 0.5068184 -0.35628375 -0.040393095 -0.035887085
0.22300553 0.07237987 -0.04524076 -0.3168483 0.44079825 -0.23256132 0.13837662 -0.004328332
0.11852052 -0.15144765 -0.0053539993 0.23729329 -0.19250302 0.5106408 -0.03711241 0.094386235
0.20328216 -0.22300334 -0.08745762 -0.15152626 -0.2680125 0.2120523 0.093878515 -0.14884849
0.16815393 -0.14743371 -0.116752975 -0.79983175 -1.1113521 0.5808958 -0.04488795 -0.5657041
0.2695723 0.10878536 -0.07493253 -0.6047189 -0.18667561 -0.018650845 -0.17547643 -0.57422805
0.40001112 0.4223378 0.25895378 -0.112742014 -0.03802793 -0.3970554 0.029039597 0.089057215
0.5612326 0.42462447 0.13403766 -0.028594187 -0.4531496 0.08211414 -0.17980672 0.08366716
-0.001275458 -0.26665506 0.1686036 0.049632676 -0.30451635 0.38120574 -0.11379076 -0.27226332
0.27661937 0.18390237 0.13175243 -0.06240358 -0.27424872 -0.3274742 0.12264998 0.13624236
0.2790225 0.15549214 -0.046946485 0.31262133 0.3232552 -0.78943336 -0.012861337 0.47210512
0.46354374 -0.411037 -0.20942795 0.19990845 0.079389356 -0.2345668 0.026739275 0.38037974
0.49647373 -0.48591584 -0.0020250713 0.33528447 0.09862364 0.044873457 0.16583274 0.5158851
00000000: 9e74 df3e 8726 8e3b c023 44bd c92f 76bf
00000010: 64f4 17bc 668f edbe d51c b1be 77bd 67bf
00000020: 966e c63e 17a1 0e3e bac5 9ebd 71b2 1cbf
00000030: ff73 a6be 48c8 03bf 5451 37be f180 24bf
00000040: ff47 ac3e 5120 2bbf e828 19bd 3a05 c7be
00000050: a837 c9bd fdd4 3fbe 9d99 82bc 3015 b9be
00000060: dd83 adbe ec7c 2bbf 8175 4a3d b3dc d0be
00000070: 1c14 bdbf 746b 0fbe 5901 c33d a7cc 0bbf
00000080: 5ede f3be f6c7 4abf b83d 423e 689f 3cbb
00000090: 1625 51bf 79bf 6abe df47 70bd edc9 6d3e
000000a0: 6fd3 ddbe b267 04bf 7833 333d 0744 91be
000000b0: 5bfa 19be f432 2a3d 89ab 983d a2cf 31bd
000000c0: b28a 053e 8e83 af3f 8237 c0bd 5fce 25be
000000d0: e7ce 87bd ad90 2e3d 2137 32be d3e0 42be
000000e0: 6012 d53e c71a a33f 3edf 9bbd ec36 cbbe
000000f0: dada a2bd 6e35 8a3e 7678 97bd 6323 17bf
00000100: a87b 923e afb1 8e3f aad2 a9bd 2b10 2fbd
00000110: 28b5 3d3e 1b8a cd3e 6331 b2bc 3c08 793e
00000120: 767a 93bb be0f 043f 1eeb 293d 8af0 963e
00000130: ffb1 41be 341c a2be 28a5 b03d b60c d53d
00000140: 46a9 443e fa10 fc3e 4d0f ecbc fad7 abbe
00000150: e2a7 bd3e 48c4 75be 5063 d4bd 8fb0 5bbd
00000160: 22a2 aa3e c1f3 393f dbd6 ee3d 1309 1a3d
00000170: 250e 433f ecaf 9cbd 9c0b 54be 1350 3cbc
00000180: 3a57 dd3e 2c7e 0f3f 7f70 f5bc 7607 ce3b
00000190: 4a76 42bf b602 3abc a189 253e 9980 b03d
000001a0: 57bc 843e 47e6 523e 376b 013e e699 82be
000001b0: e3f5 3d3c a8db ec3a dd65 24be cfe3 a2be
000001c0: 61ef aa3e 7e68 1b3e 2255 db3c 612c 33be
000001d0: 920e d23e ae7f fd3e d312 a3bc d0be c43d
000001e0: 9e6f 47be a16b c73f d054 58bd b69d 0e3f
000001f0: cb25 253e b5db 10be 9c1b 273d c2e8 0e3f
00000200: f16b 98be 6690 d33f 2ced fd3d 6235 f53d
00000210: 1eec d73e a76d 84be 67da fb3c 007d 2fbe
00000220: c5eb ddbe 704b 9c3f 2ef7 753d e414 93be
00000230: 0d9e a73e 3880 7abd 4ee5 febd 0661 6bbe
00000240: 9f96 8f3e fa05 79be 6efc a6bc 3a44 153d
00000250: 8a49 b43e 835e 1fbf f84e 85bd 5c36 a13d
00000260: 0957 d03d 59f9 59be 0149 d0bc 238a e13d
00000270: dabe 013f d36a b6be 3b73 25bd 56fe 12bd
00000280: 905b 643e e63b 943d 604e 39bd f139 a2be
00000290: 4fb0 e13e 8e24 6ebe 9ab2 0d3e aed4 8dbb
000002a0: e3ba f23d 1815 1bbe 9a70 afbb 03fd 723e
000002b0: 831f 45be 5bb9 023f 2f03 18bd 924d c13d
000002c0: 3329 503e fd5a 64be fb1c b3bd b329 1bbe
000002d0: ef38 89be 3d24 593e 6143 c03d bd6b 18be
000002e0: 8b30 2c3e ddf8 16be 2f1c efbd c6c1 4cbf
000002f0: c940 8ebf 96b5 143f 6ddc 37bd fcd1 10bf
00000300: 6105 8a3e dcca de3d 3a76 99bd dcce 1abf
00000310: e427 3fbe a8c9 98bc 18b0 33be 9c00 13bf
00000320: 42ce cc3e a93c d83e 9795 843e 49e5 e6bd
00000330: 2dc3 1bbd d84a cbbe 73e4 ed3c a163 b63d
00000340: f1ac 0f3f 6168 d93e 2b41 093e 5b3e eabc
00000350: 3903 e8be 752b a83d 411f 38be b059 ab3d
00000360: 452d a7ba 0387 88be 6ca6 2c3e a24b 4b3d
00000370: 91e9 9bbe 662d c33e 210b e9bd 1966 8bbe
00000380: 0ea1 8d3e e750 3c3e 1cea 063e e59a 7fbd
00000390: 546a 8cbe b3aa a7be ea2f fb3d 1e83 0b3e
000003a0: 0adc 8e3e 5539 1f3e f54a 40bd e70f a03e
000003b0: b581 a53e 4e18 4abf 5bb8 52bc c3b7 f13e
000003c0: 9b55 ed3e 7173 d2be 4874 56be cdb4 4c3e
000003d0: e396 a23d 4732 70be 530c db3c 22c1 c23e
000003e0: ce31 fe3e f6c9 f8be 0fb7 04bb 68aa ab3e
000003f0: 31fb c93d 3bcd 373d 0fd0 293e 0c11 043f

layer1.bias f4 [100]
0.018623235 0.30799732 -0.55061394 -0.38816768 -0.3763072 0.43799713 -0.3571372 0.26244706
-0.115348406 0.15090615 -0.49421057 -0.5168926 0.2845639 -0.27248558 -0.038321033 0.41414484
-0.29729545 -0.256282 -0.2881929 -0.53039634 -0.03561061 0.20063995 -0.22814535 0.053993654
-0.4487772 -0.18261474 -0.35455346 -0.021617066 -0.09102461 -0.064273834 -0.14810988 -0.06902475
-0.17514631 0.17565167 -0.22782364 0.07966376 -0.62090373 -0.34128365 -0.075320825 -0.15092792
-0.10434543 0.2780575 0.038331386 -0.15570575 0.0088407425 -0.20823361 -0.32413122 0.14114234
-0.54067194 -0.3114189 0.19454665 0.24760343 0.25914684 0.36314663 0.26854685 -0.30220234
0.1564089 -0.6089813 0.08905771 -0.059749573 0.17285402 -0.11873247 0.0907228 -0.019717807
-0.11561374 -0.39060938 -0.0038416903 0.03335179 -0.50400096 0.11287092 -0.018124452 -0.44613305
0.6790627 -0.74975705 0.13221863 -0.081065685 0.7767834 0.60832494 0.21893421 0.47518882
0.31262374 0.090666935 0.26472035 -0.2519784 -0.28779894 0.37419966 0.19569598 -0.12898783
-0.006913196 -0.48469684 -0.1657728 0.51215196 0.12968512 -0.22964436 -0.32341698 0.15811439
-0.1325486 -0.5828881 -0.08842802 -0.18202731
00000000: c18f 983c d3b1 9d3e 09f5 0cbf eabd c6be
00000010: 56ab c0be 2941 e03e b0da b6be 765f 863e
00000020: c93b ecbd 2487 1a3e 2b09 fdbe 1353 04bf
00000030: 5cb2 913e 3b83 8bbe 84f6 1cbd cb0a d43e
00000040: 1c37 98be 6537 83be 058e 93be 0ec8 07bf
00000050: 6edc 11bd 8f74 4d3e ef9e 69be 7328 5d3d
00000060: 20c6 e5be 5cff 3abe 0888 b5be 4616 b1bc
00000070: 1c6b babd 00a2 83bd 1eaa 17be d95c 8dbd
00000080: 8e59 33be 08de 333e 9a4a 69be c126 a33d
00000090: 8cf3 1ebf bbbc aebe ce41 9abd d98c 1abe
000000a0: 0fb3 d5bd 8d5d 8e3e 5f01 1d3d 5471 1fbe
000000b0: c3d8 103c 313b 55be 87f4 a5be 9e87 103e
000000c0: 7a69 0abf 4c72 9fbe 3d37 473e c18b 7d3e
000000d0: e5ae 843e 5bee b93e f97e 893e 44ba 9abe
000000e0: a829 203e 33e6 1bbf e363 b63d f8bb 74bd
000000f0: a500 313e 022a f3bd e0cc b93d 3d87 a1bc
00000100: e6c6 ecbd f4fd c7be dec4 7bbb e39b 083d
00000110: 3506 01bf de28 e73d bb79 94bc 8d6b e4be
00000120: 0ed7 2d3f 14f0 3fbf 5264 073e c405 a6bd
00000130: 47db 463f 2fbb 1b3f 4a30 603e f34b f33e
00000140: 3810 a03e 96af b93d 6d89 873e 5003 81be
00000150: 625a 93be 1997 bf3e 8764 483e 6315 04be
00000160: 1788 e2bb 2f2a f8be 58c0 29be 641c 033f
00000170: 2dcc 043e e427 6bbe e996 a5be bde8 213e
00000180: d2ba 07be 2838 15bf c019 b5bd 5e65 3abe

layer2.weight f4 [100, 100]
-0.08275613 0.098611236 0.058511168 0.06381895 0.052279606 -0.014151761 0.07088186 -0.012058677
0.036460474 0.086666465 0.06532939 0.03244047 0.026706982 -0.014032984 -0.012731744 -0.055712573
0.017858315 -0.08093685 -0.077793956 -0.040587395 -0.018044237 0.05290191 -0.022574272 0.013151767
0.035161436 -0.022475537 0.016839925 0.09479728 0.030827362 0.043903545 0.009451294 0.0024502021
-0.016859096 -0.09022592 0.09946042 -0.039355688 -0.06824908 0.064226136 -0.019933444 0.02693205
0.059632123 0.06410563 0.076985955 -0.08614537 -0.054469302 -0.038899787 -0.044130117 0.041889414
-0.08647148 -0.09673825 -0.005370735 -0.030965123 0.052343443 0.07913892 -0.036627688 0.08531785
0.059324384 -0.069891125 0.0349067 0.0045077885 0.032793924 0.051004767 0.047050446 -0.09098758
-0.068932444 -0.098606616 0.07987185 -0.040814787 0.051826403 0.08717327 -0.046678193 0.08383232
-0.045497447 0.05349797 -0.075468644 -0.04880204 -0.057267897 0.004855857 0.04387504 -0.010187319
0.051749974 0.05556968 -0.08823913 -0.014748981 0.02908412 0.09034531 -0.08363393 0.022737954
0.07237972 -0.01292921 0.07241991 0.018134367 0.059323564 -0.057101868 0.09542209 0.08115883
-0.025557172 0.04460877 0.063769996 0.08183375 0.036938623 -0.07374585 -0.09330891 0.08760247
-0.099729925 0.02634452 0.09812032 -0.08423379 0.017480176 0.04878831 -0.07362057 -0.0041805645
-0.068762034 0.035833493 0.079396784 0.09292118 -0.019247953 0.092319205 0.078554556 0.033498496
0.08104709 0.054905996 -0.073003635 -0.06523794 -0.050863855 -0.0023205983 0.019124571 -0.07492086
0.053951368 0.05333692 0.08433294 0.09782764 -0.05321414 0.0478532 -0.053307287 0.052773282
0.029931169 0.00921688 0.09598105 0.005515882 -0.009288477 0.029944714 -0.04729145 -0.09651385
-0.08415812 0.03773904 -0.065496564 0.07458435 0.07913147 -0.02775563 0.053716943 -0.047345683
0.056407273 -0.09779905 0.01349291 -0.0005932107 0.07661754 0.025695119 -0.008521905 -0.00043617334
-0.05121766 -0.09380138 -0.013740985 -0.08764166 0.042542964 -0.011612823 0.09899354 0.044272482
-0.049490817 -0.015068425 -0.07930246 0.0034861309 -0.035792507 0.036627218 -0.028672282 0.05007416
0.031359613 0.017821718 0.012027314 0.056903362 0.072553575 0.020537112 0.049705595 0.010904932
0.045434073 -0.050211757 0.09368053 0.0039577475 -0.089702114 -0.02105103 -0.09411481 0.09396006
0.049755752 0.05394651 0.06455439 0.022033479 0.035391524 0.081890464 -0.026254822 -0.09011079
-0.017794576 -0.071217224 0.03481227 -0.027560953 0.06522797 0.017635357 0.0028365585 -0.051723346
0.07419349 0.072793454 -0.09575276 -0.034417443 0.072238505 -0.046401173 -0.07641658 -0.06353757
-0.027792063 -0.027538296 0.0809786 -0.09024356 -0.036265567 0.050353542 0.070378184 0.00815543
0.06331132 -0.058727987 -0.023971122 0.03677763 -0.05558434 0.061947256 0.08936258 -0.049786597
0.013347914 0.055062696 0.094007224 0.010946808 -0.04824377 0.00652548 0.022999812 0.09768349
0.03786643 -0.036905915 -0.09164485 -0.039514713 -0.015223933 -0.024415877 0.017681357 0.07750352
0.05106391 0.002808657 -0.09391521 0.061652437 0.08888781 -0.0046371585 0.017145794 -0.0055560013
00000000: 0c7c a9bd b0f4 c93d 68a9 6f3d 82b3 823d
00000010: 2423 563d cadc 67bc 822a 913d c291 45bc
00000020: 9457 153d 307e b13d 6acb 853d 4ce0 043d
00000030: 9ac8 da3c 9aea 65bc ce98 50bc de32 64bd
00000040: 9a4b 923c 38c2 a5bd 7052 9fbd f83e 26bd
00000050: 82d1 93bc acaf 583d aeed b8bc 827a 573c
00000060: 7005 103d 9e1e b8bc e2f3 893c 1425 c23d
00000070: aa89 fc3c 34d4 333d 9ad9 1a3c 9293 203b
00000080: 161c 8abc 5ec8 b8bd e8b1 cb3d 6e33 21bd
00000090: 2cc6 8bbd fe88 833d 764b a3bc 9aa0 dc3c
000000a0: d040 743d d049 833d d0aa 9d3d fc6c b0bd
000000b0: 341b 5fbd 6255 1fbd c8c1 34bd 3c94 2b3d
000000c0: f617 b1bd b41e c6bd fefc afbb 92aa fdbc
000000d0: 1466 563d 9613 a23d ea06 16bd 20bb ae3d
000000e0: 20fe 723d 1423 8fbd 54fa 0e3d 12b6 933b
000000f0: ec52 063d 60ea 503d f8b7 403d b257 babd
00000100: 742c 8dbd 44f2 c9bd da93 a33d 682d 27bd
00000110: ec47 543d e687 b23d a231 3fbd 48b0 ab3d
00000120: 885b 3abd b020 5b3d 4e8f 9abd a6e4 47bd
00000130: be91 6abd e21d 9f3b 50b6 333d b6e8 26bc
00000140: c8f7 533d 089d 633d b8b6 b4bd b6a5 71bc
00000150: d241 ee3c f606 b93d 4448 abbd f244 ba3c
00000160: d23b 943d 0ad5 53bc e450 943d 868e 943c
00000170: 44fd 723d a6e3 69bd a86c c33d 9a36 a63d
00000180: 465d d1bc b0b7 363d d899 823d 7498 a73d
00000190: f44c 173d 1008 97bd be18 bfbd ec68 b33d
000001a0: 343f ccbd 76d0 d73c 4ef3 c83d c482 acbd
000001b0: 9632 8f3c 40d6 473d 62c6 96bd 1efd 88bb
000001c0: 1cd3 8cbd 24c6 123d c89a a23d 764d be3d
000001d0: e2ad 9dbc da11 bd3d 36e1 a03d b835 093d
000001e0: 04fc a53d 1ce5 603d ee82 95bd 789b 85bd
000001f0: 9e56 50bd 2e15 18bb 22ab 9c3c 1c70 99bd
00000200: 1cfc 5c3d d077 5a3d c0b6 ac3d dc59 c83d
00000210: 12f7 59bd b801 443d be58 5abd cc28 583d
00000220: 3632 f53c 6602 173c b691 c43d 92be b43b
00000230: b22e 18bc 9e4e f53c aeb4 41bd 0ea9 c5bd
00000240: 185b acbd 4094 1a3d 1023 86bd aebf 983d
00000250: ae0f a23d c65f e3bc 4c06 5c3d 8ced 41bd
00000260: 500b 673d de4a c8bd 5e11 5d3c b281 1bba
00000270: a8e9 9c3d 927e d23c 769f 0bbc 32ae e4b9
00000280: 9cc9 51bd f01a c0bd de21 61bc 787d b3bd
00000290: 8841 2e3d b643 3ebc 20bd ca3d 1057 353d
000002a0: e2b6 4abd 8ee1 76bc 5469 a2bd 9277 643b
000002b0: 2a9b 12bd 6c06 163d 22e2 eabc 901a 4d3d
000002c0: f072 003d dafe 913c 360e 453c 8013 693d
000002d0: f896 943d 723d a83c 1898 4b3d 9aaa 323c
000002e0: 1419 3a3d d8aa 4dbd 94db bf3d feaf 813b
000002f0: beb5 b7bd 3673 acbc 44bf c0bd 226e c03d
00000300: b0cc 4b3d 04f7 5c3d 1835 843d 8e7f b43c
00000310: b4f6 103d 30b6 a73d 5a14 d7bc 028c b8bd
00000320: eec5 91bc 56da 91bd 5097 0e3d 82c7 e1bc
00000330: 3e96 853d 0678 903c 8ee5 393b dcdb 53bd
00000340: c2f2 973d bc14 953d 061a c4bd 4ef9 0cbd
00000350: c8f1 933d 280f 3ebd 4c80 9cbd fc1f 82bd
00000360: 2eac e3bc fe97 e1bc 1cd8 a53d 9ed1 b8bd
00000370: 348b 14bd 843f 4e3d 7022 903d 5a9e 053c
00000380: 5ea9 813d c28c 70bd 165f c4bc 24a4 163d
00000390: 68ac 63bd 68bc 7d3d ba03 b73d 08ed 4bbd
000003a0: 36b1 5a3c 6c89 613d dc86 c03d 3e5a 333c
000003b0: 429b 45bd b2d3 d53b 1a6a bc3c 480e c83d
000003c0: d419 1b3d a82a 17bd 4cb0 bbbd 2eda 21bd
000003d0: ce6d 79bc ce03 c8bc 7ed8 903c 2aba 9e3d
000003e0: 6428 513d 7211 383b 9e56 c0bd 4487 7c3d
000003f0: d00a b63d 4ef3 97bb 5675 8c3c 1e0f b6bb

layer2.bias f4 [100]
-0.0821632 0.057603642 -0.08614825 -0.04033535 -0.059270278 -0.02255131 0.09751114 -0.087897286
-0.047260016 -0.0020782468 -0.050560795 0.048647076 -0.01740219 0.021782216 0.00799706 -0.051202886
0.04841569 0.0810487 -0.04810389 0.056037337 -0.09241898 0.031093422 0.07913661 0.08229412
-0.07434386 -0.08901854 0.03922814 -0.08660266 -0.0016032292 0.098195165 0.050808072 0.050868943
-0.093446925 0.018997718 -0.09256296 -0.06857708 -0.071688265 -0.07261661 0.010681426 0.017632332
0.06858152 0.0072001955 -0.08439207 -0.04305075 -0.020592373 -0.07714698 0.074693024 0.090439156
0.05075577 0.0427967 -0.028389316 -0.08336195 -0.04358024 0.08419831 -0.0794083 -0.049274415
0.029557277 -0.008005647 0.059202135 0.016355496 -0.024816107 -0.0076363822 0.084703565 0.09243618
0.0072930316 0.023985531 -0.062832564 -0.03333381 0.041626543 -0.015454901 0.0861925 -0.08579485
0.06701207 0.0571063 -0.0751501 -0.03709971 0.08716445 0.03244151 0.08605327 -0.0063027972
0.0031792033 -0.054471582 0.093674526 0.021801341 0.08111049 -0.044128105 0.017157402 0.021230925
-0.051238805 -0.036533512 0.00022582637 -0.04324642 -0.05611702 -0.04947021 -0.011231495 -0.029410828
0.064280644 0.072134286 0.031735644 -0.02783512
00000000: 2e45 a8bd ccf1 6b3d 7e6e b0bd ae36 25bd
00000010: 64c5 72bd 86bd b8bc ecb3 c73d 7e03 b4bd
00000020: b893 41bd 3233 08bb d618 4fbd 2842 473d
00000030: 0a8f 8ebc 9e70 b23c 1a06 033c 1eba 51bd
00000040: 884f 463d dcfc a53d 9608 45bd 6887 653d
00000050: 2a46 bdbd a2b7 fe3c 6012 a23d d289 a83d
00000060: 9841 98bd 5a4f b6bd b0ad 203d bc5c b1bd
00000070: 7223 d2ba 8c1a c93d 201c 503d f45b 503d
00000080: 1a61 bfbd 1aa1 9b3c a691 bdbd 2472 8cbd
00000090: 4cd1 92bd 04b8 94bd 2601 2f3c ae71 903c
000000a0: 7874 8c3d 9eef eb3b c0d5 acbd fc55 30bd
000000b0: 56b1 a8bc 3cff 9dbd a8f8 983d 2a38 b93d
000000c0: 48e5 4f3d 984b 2f3d b690 e8bc acb9 aabd
000000d0: 3281 32bd 2a70 ac3d d2a0 a2bd f8d3 49bd
000000e0: 1a22 f23c 1e2a 03bc f07d 723d f6fb 853c
000000f0: 264b cbbc 9e3a fabb 1079 ad3d 2e4f bd3d
00000100: 62fa ee3b 4e7d c43c 5cae 80bd 0889 08bd
00000110: 9880 2a3d 8e36 7dbc b285 b03d 36b5 afbd
00000120: a03d 893d 4ce8 693d 4ce8 99bd def5 17bd
00000130: 4683 b23d 64e1 043d b23c b03d b287 cebb
00000140: 2e5a 503b 981d 5fbd 6ed8 bf3d ba98 b23c
00000150: 421d a63d acbf 34bd ae8d 8c3c 7aec ad3c
00000160: c8df 51bd 2aa4 15bd cecb 6c39 2823 31bd
00000170: f6da 65bd 46a1 4abd 4e04 38bc faee f0bc
00000180: 92a5 833d 24bb 933d 3cfd 013d 7a06 e4bc

layer3.weight f4 [100, 100]
0.2745007 -0.025485242 0.3971808 0.13173041 0.194323 0.0099043595 0.07296708 -0.27604455
0.093040645 0.026056547 0.058673747 -0.06650318 -0.14255007 0.05545954 0.20777833 0.27105463
0.02871111 -0.2793888 0.08164229 0.024606345 -0.2556604 -0.38620085 -0.00944634 -0.031167356
0.26067072 0.2906564 0.26225784 -0.3175176 0.22405562 0.1148992 -0.048159108 -0.05947242
-0.1755522 -0.06928806 -0.13317049 0.07660783 -0.17635828 -0.020300798 -0.09623742 -0.30904606
0.30124965 0.2274478 -0.09363068 0.21390763 0.0098527 -0.089921586 -0.4148168 0.26933187
-0.0118108 -0.49539632 -0.32471058 -0.63126314 -0.05563712 0.21675451 0.24535164 -0.42561144
0.12853184 0.06853063 -0.2567908 -0.30248022 0.06717473 0.07989092 0.22538319 -0.17088422
0.36662987 0.053029995 0.09251575 0.13971019 0.018622471 -0.15958762 -0.03469141 -0.705389
-0.010306506 -0.20994112 -0.42863438 -0.16903228 -0.14824088 0.2615532 0.0822919 -0.09739584
-0.23577455 -0.42691702 -0.10917996 -0.030476302 0.14318922 -0.12311464 -0.1602659 0.2785315
-0.11610526 -0.043598022 0.052416325 -0.054636348 0.06769754 -0.58708656 -0.0034522458 0.12278198
-0.5875796 -0.18495889 0.5160494 0.012666888 -0.024607573 -0.06715813 -0.3029076 -0.087653875
-0.1576739 -0.2354253 0.10017933 0.026948445 -0.19400483 -0.18925652 -0.17869303 0.17161274
-0.23443305 0.13957527 0.21256447 0.06679298 0.07675736 -0.07439099 0.16276821 0.05021569
-0.028087094 -0.22202712 0.058415502 -0.27702737 0.25284123 -0.17785054 -0.024115417 -0.09832938
-0.17046061 -0.19320196 0.20890385 0.39081407 -0.13204655 -0.06399904 0.16079599 -0.26314807
0.29492462 0.3605221 0.32444775 -0.23090622 0.075795114 -0.15058246 0.15210104 -0.059078276
-0.24181777 -0.4590786 0.24082857 0.11924587 -0.027975123 -0.20430654 -0.4393838 -0.10348517
0.021974072 -0.13282868 0.2645951 -0.58228683 -0.37608397 0.2936805 -0.07482815 -0.23599282
-0.3539521 -1.1816947 -0.3381157 -0.07736568 -0.23497054 0.10366443 -0.011168964 -0.23322529
-0.13860038 -0.039345197 -0.13338682 0.18837422 -0.5413505 -0.0561257 -0.3593343 0.021565553
-0.09328371 -0.40201825 -0.3313148 -0.26582026 0.18036911 -0.6610762 -0.13422003 0.57679605
0.010662014 -0.098588586 -0.6394416 -0.005621127 -0.6682652 0.06164117 -0.47684819 -0.22092164
0.05448503 -0.12516803 -0.21944961 0.270375 -0.48334253 0.08140756 0.03458347 -0.09085664
0.20975563 -0.2959587 -0.023188058 -0.0271816 -0.08209476 -0.2043944 -0.04592163 -0.24573454
0.034756318 0.16184801 -0.09635781 0.06854144 -0.049353957 -0.12510282 -0.09740484 0.37247616
0.14112394 -0.09559874 -0.16249803 -0.11263865 0.026373003 -0.19341627 -0.11857611 0.0838563
-0.034211203 0.01128884 0.03792084 -0.08561616 0.086512595 0.19320673 0.17485374 -0.0940714
-0.15346795 0.20691279 -0.41821486 -0.14971098 0.025559394 0.15745819 -0.1975533 -0.27761894
-0.24522334 -0.19794679 -0.4234239 0.28837687 0.07933364 0.090404525 -0.4995823 0.22888118
-0.13212353 -0.044178963 -0.29836696 -0.09709935 0.021589026 0.07024011 -0.18476304 -0.04397589
00000000: 5b8b 8c3e 6dc6 d0bc 485b cb3e 56e4 063e
00000010: 9cfc 463e e545 223c c46f 953d b655 8dbe
00000020: 188c be3d 8a74 d53c e253 703d d232 88bd
00000030: a5f8 11be 8b29 633d d8c3 543e acc7 8a3e
00000040: 9033 eb3c 0c0c 8fbe 1334 a73d 3f93 c93c
00000050: ece5 82be 1ebc c5be d2c4 1abc af52 ffbc
00000060: a276 853e ead0 943e a946 863e ab91 a2be
00000070: d66e 653e 4650 eb3d 7c42 45bd 5a99 73bd
00000080: f5c3 33be e6e6 8dbd d85d 08be 91e4 9c3d
00000090: 4497 34be dc4d a6bc 2018 c5bd 493b 9ebe
000000a0: 653d 9a3e 13e8 683e 71c1 bfbd 9a0a 5b3e
000000b0: 386d 213c cf28 b8bd de62 d4be dee5 893e
000000c0: 1682 41bc 96a4 fdbe 7740 a6be 769a 21bf
000000d0: c0e3 63bd e5f4 5d3e 763d 7b3e bee9 d9be
000000e0: da9d 033e c959 8c3d 157a 83be b0de 9abe
000000f0: e892 893d da9d a33d daca 663e 46fc 2ebe
00000100: e9b6 bb3e fb35 593d e678 bd3d 3010 0f3e
00000110: 278e 983c f06a 23be 9418 0ebd 6094 34bf
00000120: 9fdc 28bc cefa 56be f775 dbbe cc16 2dbe
00000130: 75cc 17be 4dea 853e a888 a83d 7877 c7bd
00000140: e26e 71be de94 dabe be99 dfbd 70a9 f9bc
00000150: 32a0 123e 8723 fcbd be1c 24be ae9b 8e3e
00000160: 98c8 edbd d793 32bd 80b2 563d 5dca 5fbd
00000170: 02a5 8a3d 4e4b 16bf 133f 62bb 1e75 fb3d
00000180: 9e6b 16bf dd65 3dbe d01b 043f c788 4f3c
00000190: d295 c9bc 348a 89bd b416 9bbe e083 b3bd
000001a0: 4475 21be 5413 71be d22a cd3d fcc2 dc3c
000001b0: 34a9 46be 76cc 41be 4efb 36be 40bb 2f3e
000001c0: 380f 70be d2ec 0e3e 80aa 593e c2ca 883d
000001d0: f632 9d3d 4e5a 98bd b6ac 263e f8ae 4d3d
000001e0: e816 e6bc 145b 63be 1845 6f3d 88d6 8dbe
000001f0: 6874 813e 741e 36be b28d c5bc ea60 c9bd
00000200: 3a8d 2ebe bcd6 45be e4ea 553e c818 c83e
00000210: 3637 07be ee11 83bd b4a7 243e 58bb 86be
00000220: 5c00 973e 5a96 b83e 041e a63e ae72 6cbe
00000230: 783a 9b3d 4a32 1abe 60c0 1b3e 10fc 71bd
00000240: 149f 77be 5a0c ebbe c49b 763e 2e37 f43d
00000250: 162c e5bc bc35 51be eaf6 e0be 08f0 d3bd
00000260: f802 b43c 3e04 08be 0279 873e c010 15bf
00000270: 148e c0be 4a5d 963e 803f 99bd 1aa8 71be
00000280: 3639 b5be c641 97bf 801d adbe e671 9ebd
00000290: 1e9c 70be 044e d43d 08fe 36bc 9cd2 6ebe
000002a0: 42ed 0dbe 6e28 21bd 8e96 08be 2ce5 403e
000002b0: f295 0abf 10e4 65bd aafa b7be 3eaa b03c
000002c0: 880b bfbd 56d5 cdbe 18a2 a9be 9819 88be
000002d0: aeb2 383e 4a3c 29bf fa70 09be e8a8 133f
000002e0: baaf 2e3c d0e8 c9bd 72b2 23bf 6e31 b8bb
000002f0: 6e13 2bbf 747b 7c3d 7225 f4be 4839 62be
00000300: b22b 5f3d 0c2c 00be 66b7 60be 986e 8a3e
00000310: ac78 f7be 02b9 a63d 66a7 0d3d 0c13 babd
00000320: 2eca 563e e687 97be e2f4 bdbc f2ab debc
00000330: 4c21 a8bd c44c 51be 5218 3cbd d6a1 7bbe
00000340: a45c 0e3d 7cbb 253e 3e57 c5bd 745f 8c3d
00000350: 6027 4abd f41a 00be 307c c7bd 32b5 be3e
00000360: cb82 103e 46c9 c3bd e265 26be 18af e6bd
00000370: 320c d83c ea0e 46be 08d8 f2bd dabc ab3d
00000380: 0c21 0cbd d4f4 383c e252 1b3d 8657 afbd
00000390: 842d b13d fcd7 453e dc0c 333e 82a8 c0bd
000003a0: b426 1dbe f2e0 533e 4220 d6be d64d 19be
000003b0: ef61 d13c b83c 213e 6a4b 4abe 1224 8ebe
000003c0: d41b 7bbe 90b2 4abe 04cb d8be 22a6 933e
000003d0: ad79 a23d 0226 b93d 40c9 ffbe d45f 6a3e
000003e0: 644b 07be 00f5 34bd 8ec3 98be 06dc c6bd
000003f0: 78db b03c 0cda 8f3d 8632 3dbe 1020 34bd

layer3.bias f4 [100]
-0.2596032 -0.42915773 -0.00075547677 0.030921038 -0.039956465 0.09720762 0.1642038 -0.30476016
-0.13654718 -0.047933526 -0.071316175 -0.28741705 -0.12544528 -0.035655215 0.0181602 -0.2584601
0.16216536 0.018914623 -0.021680435 -0.12910178 0.14316969 -0.25974697 0.12746298 0.011395673
0.034376234 -0.2980978 -0.06041401 -0.0050172354 -0.23119837 -0.080378905 -0.35074311 -0.63977224
-0.09725751 0.067536615 -0.07405894 -0.25972244 -0.37603432 -0.0017476697 -0.11012532 -0.047472976
0.06728202 -0.1941776 -0.18852156 0.029307824 -0.083762705 -0.09590377 0.15992272 0.07906029
-0.29200003 0.040516287 -0.11747114 -0.2075454 -0.11995861 -0.3344372 0.20279014 -0.21797118
-0.3272032 0.004650783 0.45448932 0.12556124 -0.014758565 -0.10156102 -0.15587828 0.0759883
0.01320157 -0.20823874 0.005214361 0.012536122 -0.1768173 -0.21020721 0.2471601 -0.1116952
0.11558841 -0.25551924 0.0763422 0.07718654 -0.11111225 0.029595084 -0.17182413 0.009552922
0.098787844 0.01102812 -0.20893842 -4.4873384e-05 0.17918518 -0.32389754 0.058858972 -0.15480763
-0.33917403 0.04038591 -0.037813574 -0.035873383 0.07200784 -0.06388199 -0.07439283 0.11043006
-0.03918317 -0.05940891 0.2797477 -0.0008428006
00000000: b6ea 84be 90ba dbbe 300b 46ba 1e4e fd3c
00000010: 64a9 23bd ca14 c73d 0a25 283e 8609 9cbe
00000020: 06d3 0bbe f255 44bd 370e 92bd 5428 93be
00000030: ba74 00be 340b 12bd b3c4 943c e254 84be
00000040: ad0e 263e d7f2 9a3c 2b9b b1bc 4233 04be
00000050: 139b 123e 8efd 84be a885 023e ebb4 3a3c
00000060: 18ce 0c3d 46a0 98be ae74 77bd 9f67 a4bb
00000070: 44bf 6cbe b29d a4bd 9a94 b3be 1dc8 23bf
00000080: f22e c7bd a350 8a3d 37ac 97bd 57fa 84be
00000090: 9287 c0be 1012 e5ba 6289 e1bd 0673 42bd
000000a0: 28cb 893d 7ed6 46be cc0b 41be f616 f03c
000000b0: c88b abbd 3269 c4bd c8c2 233e 5cea a13d
000000c0: 0781 95be 68f4 253d b694 f0bd c886 54be
000000d0: dcac f5bd 5a3b abbe 38a8 4f3e d633 5fbe
000000e0: 2e87 a7be 9865 983b d3b2 e83e 2093 003e
000000f0: e9cd 71bc 39ff cfbd 8e9e 1fbe c19f 9b3d
00000100: 664b 583c 893c 55be 3bdd aa3b 4f64 4d3c
00000110: 980f 35be 8f40 57be 8a17 7d3e 74c0 e4bd
00000120: 9eb9 ec3d 6bd3 82be 4d59 9c3d fa13 9e3d
00000130: d28e e3bd 6471 f23c aaf2 2fbe dc83 1c3c
00000140: 4851 ca3d 4aaf 343c f4f3 55be 6e36 3cb8
00000150: 527c 373e e6d5 a5be 1b16 713d e485 1ebe
00000160: 38a8 adbe b26b 253d 68e2 1abd f8ef 12bd
00000170: d978 933d 90d4 82bd 455b 98bd 2829 e23d
00000180: 887e 20bd c256 73bd 173b 8f3e 64ef 5cba

action.weight f4 [2, 100]
0.84505653 0.06590791 0.38757396 -0.44139284 -0.017340336 -0.08958249 0.07884578 -0.4218498
-0.44661796 -0.820305 0.20870686 0.61999595 0.36752874 0.17664045 1.060401 0.9064119
0.014272504 0.18673958 -0.07563433 -1.134464 0.48354784 0.74177945 0.20458058 -0.08968064
-0.5160481 -1.1081519 -0.73106575 0.16991258 -0.5953766 -0.62724507 -0.4410056 0.94307065
0.23506209 -0.59559685 -0.56157756 -0.5344488 -0.028389322 -0.288037 0.239046 0.19917074
0.20642447 0.10952979 -0.70450354 0.46148458 0.46717876 0.10759111 -0.007480518 -0.20400712
0.8500987 0.23055735 -0.14152351 0.7900662 0.11271489 -0.30055934 0.6356486 0.1200597
0.47452253 -1.0676432 0.5207323 -0.30282336 0.14085549 -1.2936149 0.45959735 -0.10096524
0.16754617 0.04735499 -0.963616 -1.1881845 -0.27291244 1.8722384 0.18160757 0.6215435
-0.35233244 -0.5972933 -0.18077677 -0.15632328 -0.54532915 0.40694508 -0.69956887 0.8494544
0.538043 -0.16409084 -0.4046824 0.06498471 0.29740456 1.2925838 -0.121485606 1.3171822
-1.4948974 0.08919875 -0.6153058 0.29939753 -0.7755582 -0.3119955 -0.5157201 -0.045224503
0.3811856 0.45035118 0.57068574 0.32509252 -0.43980244 0.91524315 0.107088014 -0.15963688
-0.039492987 -0.51762915 0.045639087 -1.3482335 1.045423 -1.3492081 -0.17704718 -0.3567742
-0.29403174 -0.5467031 -0.5071486 -0.9646511 0.07238974 -0.85005355 1.555135 0.34003556
-0.36026496 -0.2198908 -1.9318187 0.17579435 0.25608695 -0.579207 -0.0047951094 -0.7164707
-0.40040022 -0.7619265 0.032892253 -0.11831634 -0.013140731 -1.189008 -0.28905103 0.48477286
-0.5873177 0.55949587 -0.2155726 0.18064293 0.65304774 0.3423453 -0.25483066 -0.29643863
-0.049360156 0.56577444 -1.167098 0.28017455 -0.33199334 -0.47721452 1.3021255 -0.33710945
-0.011124631 -0.89964104 -0.03834987 0.107851416 -0.14127263 0.53973967 0.032940034 -0.6066338
-0.65260214 0.3695129 -0.07021792 -1.6901882 0.98819673 -1.0387836 0.24144822 -0.10270908
-0.57047427 -0.7924725 0.43255907 -0.2881304 -1.7991829 -0.6191162 0.45103735 0.28844488
-0.9844038 -0.2862767 0.69745743 0.12673289 0.4872869 0.46206814 0.49471468 0.06394641
0.07960031 -0.6161183 -0.68983924 -0.97935385 -0.32136714 0.98458767 -0.01710517 0.29227555
0.38981116 0.4849198 -0.019816123 -0.3996539 -0.5187545 0.036389604 -0.029725729 -0.3457173
00000000: a055 583f bafa 863d 1870 c63e 3efe e1be
00000010: 520d 8ebc 0677 b7bd e579 a13d b2fc d7be
00000020: 1cab e4be 82ff 51bf 40b7 553e 0eb8 1e3f
00000030: ba2c bc3e 3ce1 343e 38bb 873f 9c0a 683f
00000040: 38d7 693c a938 3f3e 2ce6 9abd 1e36 91bf
00000050: 9593 f73e 42e5 3d3f 927d 513e 7caa b7bd
00000060: ba1b 04bf ecd7 8dbf 2027 3bbf 90fd 2d3e
00000070: 9a6a 18bf 2293 20bf 7ccb e1be 146d 713f
00000080: 1eb4 703e 0979 18bf 8cc3 0fbf a3d1 08bf
00000090: b990 e8bc 9679 93be 7ac8 743e 6af3 4b3e
000000a0: f060 533e 2851 e03d 585a 34bf b547 ec3e
000000b0: 0e32 ef3e ba58 dc3d 221f f5bb 3ee7 50be
000000c0: 12a0 593f 3a17 6c3e 8aeb 10be c741 4a3f
000000d0: 10d7 e63d eae2 99be deb9 223f dce1 f53d
000000e0: 9ef4 f23e 88a8 88bf b64e 053f aa0b 9bbe
000000f0: 6c3c 103e 2c95 a5bf 5850 eb3e ddc6 cebd
00000100: 3991 2b3e 4ef7 413d 8aaf 76bf 6e16 98bf
00000110: 2ebb 8bbe 82a5 ef3f 56f7 393e 7a1d 1f3f
00000120: eb64 b4be 37e8 18bf 8c1d 39be 3613 20be
00000130: b19a 0bbf 1b5b d03e f216 33bf d875 593f
00000140: 30bd 093f 6e07 28be 8832 cfbe b416 853d
00000150: 6945 983e 6373 a53f 72cd f8bd 6d99 a83f
00000160: cc58 bfbf d6ad b63d ae84 1dbf a24a 993e
00000170: fb8a 46bf e0bd 9fbe 3c06 04bf 543d 39bd
00000180: c22a c33e 6e94 e63e 7618 123f 8772 a63e
00000190: c92d e1be 604d 6a3f f650 db3d da77 23be
000001a0: 66c3 21bd 5883 04bf 0df0 3a3d ea92 acbf
000001b0: 6cd0 853f dab2 acbf db4b 35be 1cab b6be
000001c0: 548b 96be bcf4 0bbf 7ed4 01bf 60f3 76bf
000001d0: 1241 943d 1c9d 59bf aa0e c73f 2419 ae3e
000001e0: a674 b8be 0e2b 61be d645 f7bf 6f03 343e
000001f0: d41d 833e e946 14bf 4b20 9dbb a06a 37bf
00000200: 4201 cdbe 9d0d 43bf 07ba 063d d64f f2bd
00000210: 384c 57bc 6a31 98bf 7ffe 93be 2634 f83e
00000220: 745a 16bf 1f3b 0f3f 10bf 5cbe 76fa 383e
00000230: 232e 273f e247 af3e 2a79 82be cec6 97be
00000240: e02d 4abd 98d6 103f 7863 95bf 0a73 8f3e
00000250: 08fb a9be 7655 f4be 0cac a63f 9c99 acbe
00000260: 1644 36bc e04e 66bf c114 1dbd 34e1 dc3d
00000270: c6a9 10be 612c 0a3f 21ec 063d 5a4c 1bbf
00000280: ef10 27bf cb30 bd3e 6ace 8fbd 1658 d8bf
00000290: 76fa 7c3f dcf6 84bf 343e 773e 2359 d2bd
000002a0: 9a0a 12bf 7adf 4abf 6278 dd3e d485 93be
000002b0: a04b e6bf 667e 1ebf 5eee e63e 0caf 933e
000002c0: e301 7cbf dc92 92be 928c 323f 44c6 013e
000002d0: ab7d f93e 3294 ec3e 3e4b fd3e 56f6 823d
000002e0: 7d05 a33d eeb9 1dbf 4e99 30bf efb6 7abf
000002f0: 3c8a a4be f00d 7c3f 2420 8cbc 24a5 953e
00000300: 5495 c73e 6847 f83e 6c55 a2bc 709f ccbe
00000310: 18cd 04bf 440d 153d 5f83 f3bc dc01 b1be

action.bias f4 [2]
-0.09990793 0.70345527
00000000: 879c ccbd a515 343f
