c_local_ma0.pth (torch_old, 93201 bytes, 7 tensors)

net_state.weight f4 [100, 24]
0	0x3dd5a9e0	0.10432792
1	0x3e97b015	0.29626527
2	0xbc4aedcb	-0.012385796
3	0x3db4127a	0.087925866
4	0xbe8a7f3d	-0.270502
5	0xbede7d13	-0.434548
6	0x3ab64457	0.0013905865
7	0x3dbfc34a	0.0936342
8	0x3e0160c1	0.12634565
9	0x3ec24801	0.3794556
10	0x3c8c235a	0.0171067
11	0x3d0836d8	0.033255428
12	0x3f0ce6fc	0.55039954
13	0xbf4ec766	-0.8077301
14	0x3bc2c96d	0.005944422
15	0xbb8e6c3e	-0.0043463996
16	0x3c08badb	0.008345331
17	0x3e323120	0.17401552
18	0xbe03d03e	-0.12872407
19	0xbe1367f7	-0.14395128
20	0x3cdb6c0b	0.026784917
21	0x3f2cb01e	0.67456234
22	0x3e0f23b2	0.1397846
23	0xbd9ffd18	-0.07811946
24	0x3df6a105	0.12042431
25	0x3eb4847c	0.35257328
26	0xbdd84d03	-0.10561564
27	0xbd9f3799	-0.07774276
28	0xbe41e5ee	-0.18935367
29	0xbf22a4e9	-0.6353288
30	0x3dcbeed5	0.09957663
31	0x3b5cc04b	0.0033683951
32	0x3e8a9cde	0.27072805
33	0x3ed9f3bd	0.4256877
34	0xbd9fdceb	-0.07805809
35	0xbe707945	-0.2348376
36	0xbe0a0052	-0.13476685
37	0xbeeb5d57	-0.4596965
38	0x3dbbf8f3	0.09178343
39	0xbb8118d3	-0.003939727
40	0x3e129029	0.14312805
41	0x3f42323b	0.75857896
42	0x3b42e565	0.002973878
43	0x3ddc2f89	0.10751254
44	0x3db5713a	0.08859487
45	0xbf2a5f28	-0.66551447
46	0xbda629b3	-0.08113422
47	0xbdbc4a6a	-0.09193881
48	0xbde7b3c3	-0.11313584
49	0xbe8d84da	-0.2764042
50	0x3cbf556b	0.02335616
51	0xbc3a51d6	-0.01137205
52	0xbeed04de	-0.46292776
53	0xbef16140	-0.47144508
54	0xbcae1006	-0.021247875
55	0xbd3a2c20	-0.045452237
56	0x3db55c9c	0.088555545
57	0xbdc7c8cf	-0.09755098
58	0x3da0c7b2	0.07850589
59	0x3d9ef91d	0.07762358
60	0xbd0eefca	-0.03489665
61	0xbd63d370	-0.055621564
62	0xbdccc558	-0.09998578
63	0xbe06548b	-0.13118188
64	0x3da2012e	0.07910381
65	0xbcf6ca6a	-0.030125815
66	0x3e1bcb10	0.15214181
67	0x3cc9b15d	0.024620706
68	0x3f2b5652	0.6692859
69	0x3f61052d	0.8789852
70	0xbe264466	-0.1623703
71	0xbd391d99	-0.045194242
72	0x3daecb28	0.08534843
73	0xbe45a901	-0.19302751
74	0x3d5a57bd	0.05330633
75	0xbd75b903	-0.059990894
76	0xbe35e6c2	-0.17763808
77	0x3f4d62cc	0.8022888
78	0xbd43006b	-0.04760782
79	0x3cb91dcd	0.022597218
80	0x3d57dbbe	0.052699797
81	0xbde2a623	-0.11066844
82	0x3e1168af	0.1420009
83	0x3d617b66	0.055049323
84	0xbc4dc4f5	-0.012559165
85	0x3e5e4ec5	0.21709736
86	0xbe08bdbc	-0.13353628
87	0xbdf33363	-0.118750356
88	0xbd03a0c0	-0.032135725
89	0xbe9475e4	-0.28996193
90	0xbca5da8b	-0.020245811
91	0xbd4ab946	-0.049493097
92	0x3e004ced	0.12529345
93	0xbf287a80	-0.6581192
94	0x3cb839b5	0.022488454
95	0xbe30b49a	-0.17256394
96	0xbd51e409	-0.051242862
97	0x3e9456b4	0.289724
98	0x3d2913aa	0.04127852
99	0x3aae956c	0.0013319678
100	0xbe94e242	-0.2907887
101	0xbe1654a6	-0.14680728
102	0xbd4df1ac	-0.050279304
103	0x3dbee8cc	0.09321746
104	0xbe4fd0a3	-0.20294432
105	0x3e0ab7b0	0.13546634
106	0xbd985d39	-0.07439656
107	0x3db1d1aa	0.08682568
108	0x3e08e861	0.13369896
109	0xbe9f3a59	-0.31099203
110	0x3cf9e78a	0.030505914
111	0x3d3e9d16	0.046536528
112	0xbe4d384f	-0.20041011
113	0x3f013c87	0.5048298
114	0x3d91d00c	0.0711976
115	0x3e2df776	0.1698893
116	0x3f025859	0.5091606
117	0xbe9504d9	-0.2910526
118	0xbddb274f	-0.10700857
119	0x3e3ed8e4	0.18637425
120	0x3e38c63c	0.1804437
121	0x3f32a4a2	0.6978246
122	0x3d9edd76	0.07757084
123	0x3d17eae4	0.037089244
124	0xbd822ae6	-0.063558385
125	0x3baab339	0.0052093533
126	0xbdce9382	-0.10086729
127	0xbd8221c5	-0.06354097
128	0x3ea3a59a	0.3196228
129	0x3f34bdf3	0.7060234
130	0xbe4ccffb	-0.20001213
131	0xbaba8e33	-0.0014233052
132	0x3e3dd939	0.18539895
133	0x3e236f93	0.15960531
134	0x3e1d29e1	0.15348007
135	0xbe1954ec	-0.14973801
136	0x3ef0f2ef	0.47060344
137	0x3efdc741	0.4956608
138	0xbd98b494	-0.074563175
139	0xbd422081	-0.04739428
140	0xbc910e4f	-0.017707018
141	0xbf7fbb6d	-0.99895364
142	0xbbd877f3	-0.006606096
143	0x3dfa8603	0.12232592
144	0x3dec7699	0.11546058
145	0xbe06e36a	-0.13172689
146	0x3da17368	0.0788334
147	0x3c5669d3	0.013086754
148	0x3e709c35	0.23497088
149	0xbe4c607c	-0.19958681
150	0xbded7c50	-0.11595976
151	0x3d3617d6	0.044456325
152	0x3e828d29	0.25498322
153	0xbdb643f6	-0.08899681
154	0x3d98074d	0.074232675
155	0x3d74dc9d	0.059780706
156	0xbe5615fc	-0.20906824
157	0xbe879f6a	-0.2648881
158	0xbe06436c	-0.13111657
159	0x3cfee7b0	0.031116337
160	0x3e963354	0.29336035
161	0xbe57311d	-0.21014829
162	0xbd5f03ab	-0.054446857
163	0x3d7dadec	0.061933443
164	0xbdb3a012	-0.08770765
165	0xbe81e31a	-0.25368577
166	0x3d7537e0	0.05986774
167	0xbe39efdf	-0.1815791
168	0x3dfe8233	0.12427177
169	0xbe20b964	-0.15695721
170	0x3db78449	0.08960778
171	0xbe8a9d6f	-0.27073237
172	0xbb002436	-0.0019552833
173	0xbe9df210	-0.30848742
174	0xbdf514ff	-0.11966895
175	0xbe2f4a41	-0.1711817
176	0x3dfa7ad4	0.12230459
177	0x3e0b91a7	0.1362978
178	0x3ddbf756	0.10740535
179	0x3d9f7e40	0.07787752
180	0x3e53f1b5	0.20697673
181	0xbf613d15	-0.8798383
182	0xbd9056ff	-0.07047843
183	0xbd72340a	-0.05913166
184	0x3dad573c	0.08463904
185	0x3e19d461	0.15022422
186	0x3c3c71d6	0.01150175
187	0x3df3b0b9	0.118989415
188	0xbe988a8a	-0.29793197
189	0xbef70db5	-0.48252645
190	0xbd21b5ee	-0.039480142
191	0x3cf2f492	0.029657636
192	0x3f188a9c	0.595865
193	0x3ebe1b62	0.37130266
194	0xbade2893	-0.0016949348
195	0xbe12dae5	-0.14341314
196	0x3f5f42c4	0.8721125
197	0xbf86eb74	-1.0540605
198	0xbd9df401	-0.07712556
199	0xbd354733	-0.044257354
200	0x3da8edd2	0.082484856
201	0xbe7f7d62	-0.24950173
202	0x3e071b46	0.13193998
203	0xbd9802aa	-0.07422383
204	0xbee14387	-0.43996832
205	0xbd0af254	-0.03392251
206	0xbdd330df	-0.10312056
207	0x3e0cb32b	0.13740222
208	0x3cb631cf	0.022240547
209	0xbf09847d	-0.53717786
210	0xbcc3d748	-0.023906365
211	0x3df83348	0.12119156
212	0xbf03d291	-0.51493174
213	0xbc6f85f9	-0.014619344
214	0xbbce57d3	-0.0062970906
215	0xbb52c573	-0.0032161146
216	0x3e646fda	0.22308293
217	0x3f00bf27	0.50291675
218	0x3d228304	0.039675727
219	0x3e4765b8	0.19472396
220	0x3e9e9c3d	0.30978575
221	0xbf661c5d	-0.8988703
222	0xbd3dd3bf	-0.046344515
223	0xbcf06a88	-0.029347673
224	0x3ead4315	0.33840242
225	0x3f0ca33e	0.5493659
226	0xbcb42569	-0.021990495
227	0x3d8219ef	0.06352603
228	0x3dc7b987	0.097521834
229	0xbeef8a23	-0.46785077
230	0xbc020c2f	-0.007937475
231	0xbde15513	-0.11002555
232	0x3e9e3560	0.30900097
233	0x3f03832a	0.51372015
234	0x3d964008	0.07336432
235	0x3d8fe34f	0.070257775
236	0x3ec13e7c	0.37742984
237	0x3e895f08	0.26830316
238	0xbd98f2e4	-0.07468203
239	0xbd9f6a49	-0.07783944
240	0x3f146002	0.57958996
241	0xbd2b8ba8	-0.041881233
242	0x3c5a3e89	0.013320574
243	0xbd8af007	-0.06784063
244	0x3ddd1897	0.10795706
245	0xbebb0214	-0.36525023
246	0xbd64835f	-0.055789348
247	0x3cd42cac	0.025900207
248	0x3f023cda	0.508741
249	0x3d14bdf2	0.03631396
250	0xbcd99e4c	-0.02656474
251	0x3d9a54ce	0.075357065
252	0x3cb38602	0.021914486
253	0xbea05fda	-0.3132313
254	0xb9e5b82b	-0.000438155
255	0x3e9ab866	0.3021881

net_state.bias f4 [100]
0	0xbdf45d2b	-0.11931833
1	0xbf10e83d	-0.5660437
2	0x3ed4dee5	0.41576305
3	0xbe00b101	-0.12567522
4	0xbc739f5c	-0.014869537
5	0xbef1341e	-0.47110075
6	0xbef6e2cd	-0.4821991
7	0xbf014024	-0.50488496
8	0xbf030e99	-0.5119415
9	0xbf0af859	-0.542852
10	0xbe7e8275	-0.24854453
11	0xbdebdeb1	-0.115170844
12	0x3dc7d880	0.09758091
13	0x3d9fa967	0.07795983
14	0xbadcc457	-0.0016843182
15	0x3de3d363	0.11124303
16	0xbedd4602	-0.43217474
17	0x3dd8c536	0.1058449
18	0x3e41362c	0.18868321
19	0xbe834d01	-0.25644687
20	0xbd92ffeb	-0.07177719
21	0xbe85a4ad	-0.261022
22	0xbd3de292	-0.046358652
23	0xbe518c3e	-0.20463654
24	0xbdfcafa1	-0.12338186
25	0xbe43c265	-0.19117124
26	0xbef02d6f	-0.46909663
27	0x3e0aeb58	0.13566339
28	0xbeb5adc9	-0.3548415
29	0xbe842ba2	-0.2581454
30	0x3e06441e	0.13111922
31	0x3ef5e48e	0.48025936
32	0xbce21e0b	-0.027602216
33	0xbeb543be	-0.35403246
34	0xbe7a550d	-0.24446507
35	0xbe9de4b1	-0.3083854
36	0xbe4b70f5	-0.19867308
37	0xbe30077c	-0.17190355
38	0xbcf7d01e	-0.030250605
39	0x3e6eb4f2	0.23311213
40	0xbf1b6d23	-0.60713404
41	0xbdaea97f	-0.085284226
42	0x3e59fb72	0.21287325
43	0xbd66bda1	-0.056333188
44	0xbeb6a675	-0.35673872
45	0xbeb9d061	-0.36291793
46	0xbd5b43d2	-0.053531475
47	0xbe37f687	-0.17965136
48	0xbe344ef7	-0.17608248
49	0xbde11c47	-0.109917216
50	0xbe4dcb8a	-0.20097175
51	0xbed2d47e	-0.41177744
52	0xbebe341d	-0.37149134
53	0xbf0c7d00	-0.54878235
54	0xbe5a450f	-0.21315406
55	0x3d54c78a	0.051948108
56	0xbebfb332	-0.37441403
57	0xbda3b28e	-0.07993041
58	0xbd9f481b	-0.07777425
59	0x3d49f20f	0.04930311
60	0xbecb78e1	-0.3974066
61	0xbf46d452	-0.77667725
62	0xbee8a5e5	-0.45439067
63	0xbf1a048f	-0.60163206
64	0xbe030aac	-0.1279704
65	0xbe0691b2	-0.13141516
66	0xbf24298b	-0.6412589
67	0xbe0af26b	-0.13569038
68	0xbed92289	-0.4240916
69	0xbe793fae	-0.24340698
70	0x3b180c29	0.0023200607
71	0xbed231b1	-0.41053537
72	0xbe183689	-0.14864554
73	0xbe8058de	-0.250678
74	0x3df4cc56	0.119530365
75	0xbf12211d	-0.57081777
76	0xbed9d2c4	-0.42543614
77	0xbf28bd1a	-0.65913546
78	0xbe253c09	-0.16136183
79	0x3e2e57cf	0.17025684
80	0xbeb3bcc1	-0.35104945
81	0xbdbc6fac	-0.09200987
82	0xbef94a8e	-0.48689693
83	0xbec7f0c0	-0.39050865
84	0xbe1b01f3	-0.15137462
85	0xbd58ce8d	-0.052931357
86	0x3e99b233	0.30018768
87	0xbe06ce65	-0.13164671
88	0xbeb61a07	-0.35566732
89	0x3e2d12a2	0.16901639
90	0xbeaa43e2	-0.33254915
91	0x3e006102	0.12537006
92	0xbeb5993f	-0.3546848
93	0x3e3c9f16	0.18420061
94	0xbdfd004d	-0.12353573
95	0xbe293cc4	-0.16527086
96	0xbed16abf	-0.40901753
97	0xbe835cbd	-0.2565669
98	0xbdd1502a	-0.10220368
99	0x3d3887f7	0.04505154

net_action.weight f4 [100, 2]
0	0x3d44e6b9	0.048071597
1	0x3db68932	0.08912887
2	0x3d54976e	0.051902227
3	0xbe43e40c	-0.19129962
4	0x3d9d7caf	0.07689797
5	0x3f0dc88a	0.55384123
6	0xbf0f386e	-0.5594548
7	0x3d8a8fca	0.06765707
8	0x3f162e78	0.58664656
9	0xbe5831c9	-0.21112742
10	0x3edcef41	0.43151286
11	0x3da9ea9d	0.08296702
12	0x3ea627b9	0.3245218
13	0xbf430d6a	-0.76192343
14	0xbd4383bc	-0.047733054
15	0xbb83f857	-0.004027407
16	0xbe8d84a6	-0.27640265
17	0x3e524f0d	0.20537968
18	0xbe13c020	-0.14428759
19	0x3e1db42e	0.15400764
20	0xbdcf3fc3	-0.101195835
21	0xbce1f899	-0.02758436
22	0x3f1af215	0.6052564
23	0x3d23a094	0.03994806
24	0xbcdf781e	-0.027278956
25	0x3d6d3b5c	0.057917938
26	0x3ee548f8	0.44782233
27	0xbe76986e	-0.24081585
28	0xbb3cc7cc	-0.0028805612
29	0x3b96379a	0.004584265
30	0x3943ec74	0.00018684735
31	0x3c7ac9f2	0.015306937
32	0x3ee94229	0.4555829
33	0x3e8065a2	0.2507754
34	0xbcefbe1a	-0.029265452
35	0x3c47d340	0.012196362
36	0xbd3dd583	-0.0463462
37	0xbf0da377	-0.5532755
38	0xbbea978f	-0.0071591805
39	0x3a76dbdc	0.0009416917
40	0xbd7de7eb	-0.061988752
41	0x3dafff8d	0.08593664
42	0x3eea69ab	0.45783743
43	0xbc91999c	-0.017773442
44	0x3d9ba0b5	0.07599012
45	0xbe9f1f27	-0.31078455
46	0xbec659ad	-0.38740292
47	0x3cf196c4	0.029490836
48	0x3c3a73c9	0.011380144
49	0x3e38dc3a	0.1805276
50	0x3f432b45	0.762379
51	0x3dd28eec	0.102811664
52	0x3e20eb44	0.15714747
53	0xbd9563a7	-0.07294398
54	0xbeeef829	-0.46673706
55	0xbd83efea	-0.06442244
56	0x3e78d313	0.24299268
57	0x3d9a9571	0.07548035
58	0x3f528816	0.822389
59	0x3e0ad0f4	0.13556272
60	0x3cd8f8ee	0.026485886
61	0x3e395c03	0.18101506
62	0x3bc870a2	0.0061169425
63	0xbe2cb8ea	-0.16867414
64	0xbd737786	-0.05944016
65	0xbebf4fae	-0.37365478
66	0x3e6bd5c6	0.23030767
67	0x3ebca430	0.36844015
68	0xbea6b569	-0.3256028
69	0xbec31ee7	-0.38109514
70	0x3cbe525d	0.023232633
71	0xbedbc02f	-0.42920062
72	0xbbcc3bc0	-0.0062327087
73	0x3c8ec7bb	0.017429223
74	0xbbaf5a1e	-0.005351319
75	0xbb3f4589	-0.0029185733
76	0xbc8be726	-0.017077994
77	0xbdc3da9c	-0.09563181
78	0x3c84cac6	0.016209971
79	0x3e4136f8	0.18868625
80	0xbe86465b	-0.26225552
81	0x3db8b908	0.09019667
82	0xbe061878	-0.13095272
83	0x3c8b14c0	0.016977668
84	0xbc891c87	-0.016737236
85	0x3d0192b6	0.031634055
86	0xbd8fc1ac	-0.07019362
87	0x3d130306	0.035891555
88	0x3ec8e75a	0.39239007
89	0xbd22dabd	-0.039759386
90	0xbe57da6f	-0.2107942
91	0x3eb6110f	0.3555989
92	0xbe0f9caf	-0.14024614
93	0xbe3fd6fb	-0.18734352
94	0xbe0cd56f	-0.13753293
95	0xbd2bb5f4	-0.04192157
96	0xbe04dd53	-0.12975053
97	0x3c159b27	0.0091312295
98	0xbe894c0b	-0.2681583
99	0xbde90ef1	-0.11379803
100	0xbe992ba5	-0.2991611
101	0xbd2764b2	-0.040867515
102	0xbc3604e7	-0.011109567
103	0x3f2aeec2	0.66770566
104	0x3e79b785	0.24386413
105	0x3e4101dc	0.18848366
106	0x3b66b62a	0.0035203793
107	0x3ce3297a	0.027729739
108	0xbf17fb50	-0.5936785
109	0x3b7e7016	0.0038824133
110	0x3e291f67	0.16515885
111	0x3e5eacad	0.21745558
112	0xbc25d1cb	-0.010120819
113	0xbcc93232	-0.024560068
114	0x3e412a04	0.18863684
115	0xbed41447	-0.4142172
116	0x3e6afb4d	0.22947426
117	0x3e8fd949	0.28095463
118	0x3e6d22bf	0.23157786
119	0x3db2f162	0.08737446
120	0xbc167285	-0.009182577
121	0x3d616d35	0.05503579
122	0x3e71e596	0.23622736
123	0xbe868500	-0.26273346
124	0xbf16e9e1	-0.5895062
125	0xbe87ea9c	-0.2654618
126	0xbecc58cd	-0.399115
127	0xbdf8c2a3	-0.12146499
128	0x3e838468	0.25686955
129	0xbe60b336	-0.21943364
130	0xbe14172b	-0.14461963
131	0xbbb90172	-0.0056459242
132	0x3d23b935	0.03997155
133	0x3da650b6	0.08120863
134	0x3f182e00	0.5944519
135	0xbed7f2f3	-0.42177543
136	0xbdca69b0	-0.098834395
137	0xbe024db3	-0.12724952
138	0xbbad1452	-0.0052819634
139	0x3c83ab3c	0.016072862
140	0xbca65080	-0.020302057
141	0x3ca9bb00	0.020719051
142	0xbf210e0b	-0.6291205
143	0x3d99f828	0.07518035
144	0xbc2d5647	-0.010579652
145	0x3ccefca1	0.025266947
146	0x3c2c4653	0.0105148135
147	0x3aa94b78	0.0012916168
148	0x3db2b26f	0.0872544
149	0x3de6293b	0.11238333
150	0xbafb5bbf	-0.0019177123
151	0xbcc4baea	-0.024014909
152	0xbe4c3ccb	-0.19945066
153	0xbc7dc077	-0.015487782
154	0xbdbb51f1	-0.091464885
155	0x3e7e6913	0.2484477
156	0x3e0ad468	0.13557589
157	0x3df4d772	0.119551554
158	0x3da05f0f	0.07830631
159	0x3ef37a3a	0.4755419
160	0xbf0310ee	-0.5119771
161	0xbde519e2	-0.111865774
162	0xbf191eb6	-0.59812486
163	0xbdef09b1	-0.1167177
164	0x3f073999	0.5282226
165	0xbdea522a	-0.11441453
166	0xbe8cdca6	-0.2751209
167	0x3b4f4d19	0.0031631647
168	0xbe27492c	-0.16336507
169	0xbdb877e0	-0.09007239
170	0xbecfb640	-0.40568733
171	0xbef5e780	-0.48028183
172	0xbd5d123f	-0.05397248
173	0xbd23ed73	-0.04002137
174	0xbde63de4	-0.112422734
175	0x3f09bd4b	0.53804463
176	0xbee6dff4	-0.45092738
177	0xbe8d7e22	-0.27635294
178	0x3e4f7f89	0.20263495
179	0xbeb27687	-0.34856054
180	0x3ef874e2	0.48526675
181	0xbe5ec11d	-0.21753354
182	0x3b00a01c	0.0019626683
183	0x39bb5057	0.00035727277
184	0x3d07994c	0.03310518
185	0xbf0b8909	-0.54505974
186	0xbcceb428	-0.02523239
187	0xbd35861d	-0.044317354
188	0x3de0de91	0.10979951
189	0x3edecbd1	0.43514875
190	0xbba5bff1	-0.0050582816
191	0xbb56ff8b	-0.0032806124
192	0x3d309d96	0.043119036
193	0xbb85f552	-0.0040880824
194	0xbd1c5b06	-0.038172744
195	0x3bb79b6e	0.0056032455
196	0xbee23ad0	-0.44185495
197	0x3e943d05	0.28952804
198	0xbe9ecd2c	-0.3101591
199	0x3edeeaa1	0.43538383

net_action.bias f4 [100]
0	0xbe120982	-0.1426144
1	0x3ea42db6	0.32066125
2	0xbf309bc5	-0.68987685
3	0xbecf6e6a	-0.40513927
4	0xbeedaf14	-0.46422637
5	0xbf046b05	-0.517258
6	0xbf3c2234	-0.7348969
7	0x3ddf22c3	0.10895302
8	0xbefdd14b	-0.4957374
9	0x3e644ad1	0.22294165
10	0x3eefb1c8	0.46815324
11	0xbeb4d22a	-0.35316592
12	0x3e9b1c4f	0.30295035
13	0xbf312918	-0.6920333
14	0xbc915ced	-0.017744506
15	0xbd818f01	-0.06326104
16	0xbe920e11	-0.28526357
17	0xbdc60326	-0.09668569
18	0xbf1ab4f6	-0.60432374
19	0xbcac9d28	-0.021071032
20	0x3ebca273	0.3684269
21	0xbf0050d4	-0.50123334
22	0xbe77f952	-0.24216202
23	0xbeb49895	-0.3527266
24	0xbe4b6200	-0.19861603
25	0xbef0dd5f	-0.47043893
26	0x3e9d6766	0.3074295
27	0x3f1cb3fc	0.61212134
28	0xbea581fe	-0.3232574
29	0xbf0226c8	-0.50840425
30	0xbe5600a7	-0.20898686
31	0xbe4ce27a	-0.20008269
32	0xbdd7d94a	-0.105394915
33	0xbea04fc7	-0.31310865
34	0xbf16d6c8	-0.5892148
35	0xbed302aa	-0.4121297
36	0xbcd1cd96	-0.025610726
37	0xbcaf0334	-0.021363832
38	0xbde9a5b3	-0.11408558
39	0x3ca11e81	0.019667866
40	0xbe33c550	-0.17555737
41	0xbf12d26c	-0.5735233
42	0x3e5d2ee6	0.21599922
43	0x3e849ef8	0.25902534
44	0x3f18bd7f	0.5966415
45	0xbe88b8b0	-0.26703405
46	0xbeaa4c10	-0.33261156
47	0x3ecafd90	0.39646578
48	0x3e7273f8	0.23677051
49	0x3ede6187	0.43433782
50	0x3eee09d0	0.4649186
51	0xbf3644bf	-0.7119865
52	0xbe2c9e0c	-0.16857165
53	0xbdab4fdb	-0.083648406
54	0xbe84bb59	-0.25924185
55	0x3ed7d26c	0.42152727
56	0xbd307be5	-0.043086905
57	0xbebef5b9	-0.37296847
58	0x3f0106a2	0.50400746
59	0x3e776592	0.2415984
60	0xbd858afd	-0.065206505
61	0x3eff24d6	0.4983279
62	0xbf5bfed9	-0.8593574
63	0x3e869f73	0.26293525
64	0xbefa0eb0	-0.4883933
65	0xbe1ba81c	-0.15200847
66	0x3dec4459	0.11536474
67	0xbf3b7f90	-0.7324152
68	0x3d29affc	0.041427597
69	0xbd586ae5	-0.052836318
70	0xbe1485dc	-0.14504188
71	0xbf3a8d80	-0.7287216
72	0xbd202e92	-0.039106913
73	0xbd0fbb76	-0.035090886
74	0x3e4a7d4d	0.19774361
75	0xbcec7d86	-0.028868448
76	0xbe677217	-0.22602116
77	0xbe86041d	-0.26175013
78	0xbe8620ef	-0.26197
79	0xbed69cf7	-0.4191663
80	0xbf2068c7	-0.6265988
81	0xbf176fac	-0.5915477
82	0xbef1f8f7	-0.47260258
83	0x3eb6beca	0.35692436
84	0xbf0ee62c	-0.55819964
85	0xbf64a2d1	-0.8931094
86	0x3dd42027	0.10357695
87	0xbf340986	-0.7032703
88	0xbf3ef5e9	-0.7459398
89	0xbf0e4194	-0.55568814
90	0xbecc41f4	-0.39894068
91	0xbbea45f6	-0.0071494533
92	0xbef905c8	-0.48637223
93	0xbd9ce30e	-0.07660495
94	0xbed7faad	-0.42183438
95	0xbc5abb20	-0.013350278
96	0xbe0c2536	-0.1368607
97	0xbd4eddff	-0.05050468
98	0xbee980b0	-0.45605993
99	0xbf0d4d91	-0.5519648

net_layer.weight f4 [100, 200]
0	0xbd4a3a52	-0.049372025
1	0x3e1a85f5	0.15090163
2	0xbd44d60d	-0.048055697
3	0x3d2453f7	0.040119138
4	0xbd76322e	-0.06010645
5	0x3cf1283f	0.029438136
6	0xbd7f6b71	-0.062358323
7	0xbcda3129	-0.02663477
8	0xbe0ad6ae	-0.13558456
9	0x3d01c2f5	0.031680066
10	0x3d94217e	0.07232951
11	0xbd8a0f58	-0.06741208
12	0xbe4182ea	-0.18897596
13	0xbde352f9	-0.1109981
14	0xbd3433e5	-0.043994803
15	0x3dab2edf	0.08358549
16	0xb8f5bb40	-0.000117173884
17	0xbde9178c	-0.11381444
18	0xbe04a8f0	-0.1295507
19	0x3c71696c	0.014734607
20	0x3d29ab9d	0.04142343
21	0xbd0bad4b	-0.034100812
22	0x3d263de1	0.040586356
23	0xbc954e45	-0.018225798
24	0x3cc80e0b	0.024420759
25	0xbcaedf86	-0.021346819
26	0x3d91c0f4	0.07116881
27	0x3d4c3e47	0.04986408
28	0x3c85ec7f	0.016348122
29	0xbd69e0ec	-0.057099268
30	0xbcf98d58	-0.030462906
31	0x3bdc9dca	0.006732677
32	0xba479092	-0.000761279
33	0xbd4fd75c	-0.050742492
34	0x3d5c3227	0.053758767
35	0x3cf855ba	0.030314315
36	0xbb4b434f	-0.003101546
37	0x3d83fa60	0.064442396
38	0x3d17271e	0.03690254
39	0xbd68a75d	-0.056800235
40	0x3c0fa1d4	0.00876661
41	0x3c80b41a	0.01571088
42	0xbd556316	-0.05209645
43	0xbdd7d171	-0.10537995
44	0xbd9c9424	-0.07645443
45	0x3d3f0832	0.046638675
46	0xbe2f168e	-0.17098448
47	0x3ce7356d	0.028223718
48	0xbc705674	-0.0146690495
49	0xbd3f0189	-0.046632323
50	0xbe07e08e	-0.13269255
51	0x3caf0305	0.021363745
52	0xbc380083	-0.011230591
53	0xbcfbb587	-0.030726207
54	0x3d5be6be	0.05368685
55	0xbd10ee71	-0.035383645
56	0x3cda87ca	0.026676077
57	0x3e05b939	0.13058938
58	0x3ca9f7c6	0.02074803
59	0xbda4f7c3	-0.08055069
60	0xbb27299e	-0.0025506984
61	0xbdb7c628	-0.08973342
62	0xbdaa39aa	-0.0831178
63	0xbda114c5	-0.078652896
64	0xbd644ecc	-0.05573921
65	0xbd171b5f	-0.036891337
66	0x3c6df99f	0.014524846
67	0x3a4a4013	0.0007715236
68	0x3cdd5c66	0.027021598
69	0xbd0b3204	-0.033983245
70	0xbcb3f672	-0.0219681
71	0x3a6dc086	0.0009069521
72	0xbc03be46	-0.00804097
73	0xbccc34d8	-0.024927542
74	0xbd59ddac	-0.05318992
75	0xbced36bd	-0.028956765
76	0x3c6e31af	0.014538213
77	0x3d6a1448	0.057148248
78	0x3d02ff05	0.031981487
79	0x3cc67f6b	0.02423068
80	0xbdbcfc24	-0.092277795
81	0xbc9bca6f	-0.019017426
82	0x3cc06d68	0.023489669
83	0xbcd779e4	-0.02630324
84	0xbd228eb9	-0.039686892
85	0xbd3822a2	-0.044954903
86	0xbd9a90dd	-0.07547162
87	0xbd0ac864	-0.033882514
88	0xbd53dd23	-0.051724564
89	0xbcff448b	-0.031160614
90	0xbd823599	-0.06357879
91	0xbd4af3b5	-0.049548823
92	0xbdfda2cd	-0.123845674
93	0xbda59851	-0.08085693
94	0xbcbd6b5e	-0.023122486
95	0xbd1b0470	-0.03784603
96	0xbe02f8da	-0.12790242
97	0xbb1c1e2d	-0.0023821697
98	0xbd3e0957	-0.046395626
99	0x3cb204c0	0.02173078
100	0xbdb097ae	-0.086226806
101	0x3c990332	0.018678281
102	0x3d54b57b	0.051930886
103	0xbd9114af	-0.07084023
104	0xbbfa1764	-0.007632183
105	0xbc9b2082	-0.0189364
106	0x3cd0a42c	0.025468908
107	0xbc7b7609	-0.015347966
108	0x3ba2570d	0.004954225
109	0xbcb76d0b	-0.022390863
110	0xbcefaa16	-0.029255908
111	0x3d75f09c	0.060043916
112	0xbd54d597	-0.051961508
113	0xbe0faf6b	-0.1403176
114	0x3ca7213e	0.020401593
115	0xbdc7ef72	-0.097624674
116	0x3accbeba	0.0015620806
117	0xbd6fba9b	-0.05852757
118	0x3e0cf9b4	0.13767129
119	0x3c94475e	0.018100437
120	0xbd5aaea1	-0.053389195
121	0x3db90590	0.09034264
122	0xbd9304ef	-0.071786754
123	0x3ad523ab	0.001626124
124	0x3a318377	0.0006771604
125	0xbc9818df	-0.018566547
126	0x3cf3d6df	0.029765544
127	0x3bc2bd6c	0.005942991
128	0xbcb27f3d	-0.021789188
129	0xbcf17338	-0.029473886
130	0x3ce99a74	0.028516032
131	0xbcaf3855	-0.021389166
132	0xbdf8e236	-0.12152521
133	0xbb131b8c	-0.002244684
134	0x3b14e921	0.0022721963
135	0xbd9d827e	-0.07690905
136	0x3c4c0b1e	0.012453822
137	0xbd7a7e8d	-0.061155844
138	0xbdaee300	-0.085393906
139	0xbd9592d2	-0.073033944
140	0xbdc533a9	-0.09628994
141	0x3d778d32	0.06043739
142	0xbbba8da1	-0.005693153
143	0xbd1f816d	-0.03894179
144	0x3d403dc6	0.04693391
145	0x3d144cb7	0.036205973
146	0x3cfe6cb6	0.031057697
147	0xbda5121f	-0.08060097
148	0xbdf1c3a1	-0.118048914
149	0xbd8533a0	-0.06503987
150	0xbe01645b	-0.12635939
151	0x3ddc3763	0.10752752
152	0x3ca44ee9	0.020057159
153	0xbcb1f784	-0.02172447
154	0xbde787c8	-0.11305195
155	0xbd4890fc	-0.048966393
156	0xbce1648e	-0.027513769
157	0x3c692076	0.014228931
158	0xbd372285	-0.044710655
159	0xbd8e2957	-0.06941479
160	0xbdcca978	-0.09993261
161	0x3ca5e2f9	0.02024983
162	0x3d77d07f	0.06050157
163	0xbda7d662	-0.08195187
164	0xbda004b6	-0.078133985
165	0xbd566fbf	-0.052352663
166	0xbc245236	-0.010029366
167	0xbb03b70b	-0.0020098116
168	0xbd8e0fed	-0.06936631
169	0xbdabdf48	-0.08392197
170	0x3cc3eaec	0.02391573
171	0x3e730fb8	0.23736465
172	0xbd9b38fd	-0.07579229
173	0xbd48e7e1	-0.049049262
174	0xbdb7af9d	-0.089690425
175	0xbde5420a	-0.111942366
176	0xbd8698ad	-0.06572089
177	0x3cce9a76	0.025220137
178	0xbd486b4f	-0.048930462
179	0xbbc90cd2	-0.0061355615
180	0x3d57e551	0.052708928
181	0xbd19b58a	-0.037526645
182	0xbd7bb1e7	-0.061448958
183	0x3c9c3f3d	0.019073123
184	0x3c77deb8	0.015128784
185	0xbcae6e23	-0.021292752
186	0x3b3101f2	0.0027009216
187	0xbc12e379	-0.0089653665
188	0x3d21635b	0.039401393
189	0x3d92f8b2	0.07176341
190	0x3cb7fff3	0.022460913
191	0x3d1acb71	0.037791673
192	0xbcaa55f3	-0.020792937
193	0xbde7ec1a	-0.1132433
194	0xbc79382f	-0.015211149
195	0x3c00be52	0.007857876
196	0xbd4754f8	-0.048665017
197	0xbdcfd512	-0.10148062
198	0x3c360d1a	0.011111522
199	0xbd496ed9	-0.04917798
200	0xbd83aa54	-0.06428972
201	0xbcaf25a0	-0.021380246
202	0x3d1da9d2	0.03849203
203	0xbd3ad941	-0.045617346
204	0xbda42a83	-0.08015921
205	0x3d2eee40	0.04270768
206	0xbd83c378	-0.06433767
207	0xbcfb1041	-0.030647399
208	0xbd214a01	-0.039377216
209	0xbd94c24b	-0.07263621
210	0xbc012140	-0.007881463
211	0xbd91a73c	-0.071119756
212	0x3ce3b7b2	0.027797554
213	0x3d2a9ef7	0.041655507
214	0xbd406d97	-0.046979513
215	0xbd83bdb8	-0.0643267
216	0x3bb97354	0.0056595
217	0x3d5cd223	0.05391134
218	0xbd537b70	-0.05163139
219	0x3d25a0f6	0.040436707
220	0x3d3904c8	0.045170575
221	0xbd6d5f5e	-0.057952277
222	0x3d75937e	0.059955113
223	0xbda60824	-0.081070215
224	0xbd1c07a8	-0.03809324
225	0xbd8e5415	-0.06949631
226	0x3d759512	0.059956618
227	0xbd8045fa	-0.06263347
228	0xbd64de11	-0.05587584
229	0xbd582f31	-0.05277938
230	0xbbb6ffe6	-0.0055847047
231	0x3cf94992	0.030430589
232	0x3d23a7a8	0.03995481
233	0xbbb8a7aa	-0.0056352215
234	0xbd96aa29	-0.07356674
235	0x3b699240	0.003564015
236	0xbd8742e0	-0.06604552
237	0x3c88da38	0.016705617
238	0xbd30cc8c	-0.04316382
239	0xbbe4d48e	-0.0069833463
240	0xbd5beaaf	-0.05369061
241	0xbd634d94	-0.055493906
242	0x3d0ca3b8	0.034335822
243	0xbdd714d9	-0.10502023
244	0xbcac346e	-0.021021094
245	0x3736b44d	1.0890025e-05
246	0xbc927450	-0.017877728
247	0xbd482d19	-0.048871133
248	0x3d0847bf	0.033271547
249	0x3cda3193	0.026634967
250	0xba459b80	-0.0007538125
251	0xbd652563	-0.055943858
252	0xbdb9f75d	-0.09080384
253	0xbdac3778	-0.08409017
254	0xbd248ef3	-0.04017539
255	0xbd97a545	-0.074045695

net_layer.bias f4 [100]
0	0xbd066c86	-0.03281834
1	0xbd434364	-0.04767169
2	0xbdcac478	-0.09900755
3	0xbd2ce29c	-0.0422083
4	0x3cf469c4	0.02983559
5	0xbd701537	-0.058613982
6	0xbce4d6d7	-0.027934475
7	0x3e04a183	0.12952237
8	0xbe4c0157	-0.19922386
9	0xbdfec661	-0.124401815
10	0xbdf08376	-0.11743824
11	0x3caf6134	0.021408655
12	0xbe80948d	-0.25113335
13	0x3ce615df	0.0280866
14	0x3d811253	0.06302323
15	0xbd08bcac	-0.033383057
16	0xbd505adf	-0.05086791
17	0xbd9a1ca7	-0.07524996
18	0x3c045247	0.008076257
19	0xbdfdbdb3	-0.12389698
20	0x3d1c8e94	0.03822191
21	0xbdff2a70	-0.12459266
22	0xbdc25a8f	-0.09489929
23	0xbdf97669	-0.12180788
24	0xbdaafb71	-0.0834874
25	0xbe153572	-0.14571169
26	0x3deb0dbb	0.11477228
27	0x3e52030b	0.20508973
28	0xbdc1147c	-0.09427735
29	0xbddc8cb8	-0.107690275
30	0xbdef17ed	-0.11674485
31	0xbd3d1772	-0.046164937
32	0x3c1efea2	0.009704264
33	0xbec5c259	-0.38624838
34	0x3e821665	0.2540771
35	0xbe5bce78	-0.2146548
36	0xbd8db024	-0.06918362
37	0x3caf6838	0.021412
38	0xbdb0269c	-0.08601114
39	0x3e2793e2	0.16365007
40	0x3d970b0b	0.07375153
41	0xbe4b543c	-0.19856352
42	0x3dc1301f	0.094330065
43	0xbdc96d40	-0.09835291
44	0x3d55bb9e	0.05218088
45	0x3de66b95	0.112509884
46	0xbda17438	-0.07883495
47	0xbc722deb	-0.0147814555
48	0x3ddfac71	0.109215625
49	0x3ba79b38	0.005114939
50	0x3de13f53	0.10998406
51	0xbdb5fbad	-0.08885894
52	0x3cb387c5	0.021915326
53	0xbcb4fc0b	-0.02209284
54	0xbf0416bc	-0.5159719
55	0xbd9fc6d4	-0.07801595
56	0xbe104007	-0.14086924
57	0xbdf93193	-0.12167659
58	0xbde919f8	-0.11381906
59	0xbd65977a	-0.056052662
60	0xbdb35caf	-0.08757912
61	0xbda417fd	-0.08012388
62	0x3c28d7c4	0.010305349
63	0xbd12d901	-0.035851482
64	0x3d8fed9e	0.07027744
65	0xbe886796	-0.2664153
66	0xbd16a6bc	-0.036780104
67	0xbd91f4a7	-0.07126742
68	0xbd7129f2	-0.058877893
69	0xba7b56c8	-0.00095878216
70	0xbd10a6d7	-0.03531536
71	0xbbfeaa16	-0.0077717407
72	0xbbdc32c2	-0.006719918
73	0xbdc43ac7	-0.095815234
74	0x3cc89697	0.02448587
75	0x38d6c1e4	0.0001024043
76	0x3defaa75	0.11702434
77	0xbd0cb4d4	-0.03435214
78	0xbd664e1f	-0.056226846
79	0x3ccddc3c	0.02512943
80	0xbc87efa6	-0.016593765
81	0xbc670126	-0.014099395
82	0x3d87af5c	0.06625244
83	0xbd0c1b5b	-0.034205776
84	0xbd707f81	-0.058715347
85	0x3d81f857	0.06346195
86	0xbe414c02	-0.18876651
87	0xbe6f3493	-0.23359899
88	0xbd4d2e32	-0.050092883
89	0xbe207936	-0.15671238
90	0xbe42fe7f	-0.19042395
91	0x3c918297	0.017762465
92	0xbdfd1f50	-0.12359488
93	0xbdbb90f2	-0.091585055
94	0xbd99804e	-0.07495175
95	0xbe45db91	-0.19322039
96	0xbdb4d4ec	-0.08829674
97	0x3d86a838	0.06575054
98	0xbe14a374	-0.14515477
99	0xbb85680f	-0.0040712426

q_value.weight f4 [1, 100]
0	0x3c94983d	0.018139
1	0x3c11ae88	0.008891709
2	0x3d1a86d0	0.037726223
3	0x3ca66c19	0.020315217
4	0xba2bbb98	-0.0006551086
5	0x3b5c9432	0.0033657667
6	0xbc0f005e	-0.008728115
7	0x3ccf44ac	0.0253013
8	0xbc8ed8fb	-0.017437449
9	0xbc23f07a	-0.010006065
10	0xbadc141d	-0.0016790662
11	0xba7fec8c	-0.0009762726
12	0x3c767f6a	0.015045026
13	0xbc220c8c	-0.009890687
14	0xbcaefabb	-0.021359792
15	0xbc158f6b	-0.009128432
16	0x3d2ed349	0.042681966
17	0xbba23264	-0.0049498547
18	0xbcca21d4	-0.024674334
19	0x3c184d59	0.009295785
20	0x3cbffc6e	0.023435798
21	0xbbb1ac27	-0.0054221335
22	0x3c575162	0.013141962
23	0x3bbeb6f7	0.005820151
24	0xbbf3b7e3	-0.0074376925
25	0xbbff69a8	-0.0077945776
26	0x3c2b089d	0.010439065
27	0x3c8aaf87	0.016929401
28	0x3abe1d1f	0.0014504528
29	0xbbf4960c	-0.007464176
30	0xbccf37bc	-0.02529513
31	0x3d7633d8	0.060108036
32	0xbcabfb76	-0.02099393
33	0x3c01ede1	0.00793025
34	0x3bfe14f8	0.0077539645
35	0xbbfa3db7	-0.0076367515
36	0xbd2a347e	-0.041553967
37	0x3ab2cfc8	0.0013642246
38	0x3bd25840	0.0064192116
39	0xbc7fde62	-0.015616985
40	0x3c197133	0.009365368
41	0x3c3d6c47	0.01156146
42	0x3d0fcdb8	0.035108298
43	0xbcc01c52	-0.023451004
44	0xbccdf185	-0.02513958
45	0xbc806806	-0.015674602
46	0xbae940bc	-0.0017795782
47	0x3ac191a9	0.0014768142
48	0x3cd0798c	0.025448583
49	0xbd11648a	-0.035496272
50	0x3c2eed9d	0.010676769
51	0x3c0a6aa1	0.008448274
52	0xbcab3e0c	-0.02090361
53	0x3bd8fe69	0.006622125
54	0xbca6d3d8	-0.020364687
55	0x3d1f0939	0.038827155
56	0xbc632dcd	-0.0138659
57	0xbc308c49	-0.010775634
58	0xbba796ae	-0.005114398
59	0x3c89b02c	0.016807638
60	0xbce3dc91	-0.027815135
61	0xbcb7f3c1	-0.022455098
62	0x3d258061	0.040405635
63	0xbbc6d96a	-0.0060683982
64	0x3c10c6ae	0.008836431
65	0xbc4fca44	-0.012682501
66	0xbc7211c5	-0.014774744
67	0xbbaca59b	-0.005268765
68	0xbc058454	-0.008149225
69	0x3cbd7266	0.023125838
70	0xbb4579c4	-0.0030132392
71	0xbc4d67f8	-0.012536995
72	0xbbc552e2	-0.0060218433
73	0xbd2f20d4	-0.042755917
74	0xbcb5f57a	-0.022211779
75	0x3bd10f44	0.0063799936
76	0x3bdb3bfc	0.0066905003
77	0xbc5587ee	-0.013032896
78	0xbd7d71d9	-0.06187615
79	0xbd246aeb	-0.040141027
80	0xbc9ac1ff	-0.018891333
81	0xbd0282d7	-0.03186306
82	0x3a58d04c	0.0008270785
83	0xbc9f971d	-0.019481236
84	0x3d0a340c	0.033741042
85	0xbd328169	-0.043580446
86	0x3c0a6d2b	0.008448879
87	0xbb8a8e77	-0.004228409
88	0xbd01bdef	-0.031675275
89	0x3a8ae0e9	0.0010595593
90	0xbc372d03	-0.011180165
91	0x3d0c2d9e	0.03422319
92	0xbc018d4b	-0.007907222
93	0xbc8817a7	-0.01661284
94	0x3b8d1541	0.004305512
95	0xbc3f8f5f	-0.011691897
96	0xbaeec68e	-0.0018217133
97	0xbd317ddd	-0.043332923
98	0x3b711b9e	0.0036790143
99	0x3d347ae8	0.044062525
