c_local_ma1.pth (torch_old, 93201 bytes, 7 tensors)

net_state.weight f4 [100, 24]
0	0x3d990a85	0.074727096
1	0xbd95b976	-0.073107645
2	0x3d8ea2d9	0.069646545
3	0x3df539cc	0.119739145
4	0x3e2ab768	0.16671526
5	0xbf58a56a	-0.846274
6	0xbdb986b1	-0.090588935
7	0xbe39b405	-0.18135078
8	0x3e38cadf	0.18046139
9	0xbe26983f	-0.16269015
10	0xbd987e3e	-0.07445954
11	0x3e652b4f	0.22379802
12	0x3dc0d326	0.09415273
13	0xbf0cd0b8	-0.5500598
14	0x3d866ff9	0.06564326
15	0x3d5177f0	0.051139772
16	0x3ebe8e54	0.37217963
17	0xbd43c6ae	-0.047796898
18	0x3afacdfd	0.0019134876
19	0xbe7cff06	-0.24706659
20	0xbde86484	-0.11347297
21	0x3f10c5d7	0.5655188
22	0x3c622694	0.013803143
23	0xbdb3214c	-0.08746585
24	0x3e507201	0.20355989
25	0xbe328e88	-0.17437184
26	0xbd114c82	-0.035473354
27	0xbd334a99	-0.043772314
28	0xbda05421	-0.07828546
29	0xbed66463	-0.41873464
30	0xbbabb49e	-0.005240037
31	0x3e3d9731	0.18514706
32	0x3d7642e1	0.060122374
33	0x3df5a30d	0.1199399
34	0xbbf75908	-0.007548455
35	0x3d0fb499	0.03508434
36	0x3d90d3d9	0.07071657
37	0xbf066c41	-0.5250893
38	0xbd9e2668	-0.07722169
39	0xbdd9879c	-0.106215686
40	0x3cce9ef9	0.025222288
41	0xbea76125	-0.32691303
42	0x3d8695ff	0.06571578
43	0xbe1fd227	-0.1560751
44	0x3ebbfacb	0.36714777
45	0xbec1c723	-0.37847242
46	0xbe091233	-0.13385849
47	0xbdc9c7a9	-0.09852535
48	0xbd8592de	-0.06522153
49	0x3df3e3d0	0.11908686
50	0x388fd24b	6.8579415e-05
51	0xbe59d23a	-0.21271601
52	0x3f13977b	0.57653016
53	0xbf952dae	-1.1654565
54	0x3b6249b2	0.003452879
55	0x3e14ca36	0.14530262
56	0x3d09b6d9	0.033621643
57	0x3d1151a0	0.035478234
58	0x3c47399e	0.012159733
59	0xbd610efd	-0.054945935
60	0xbdcfedbe	-0.101527676
61	0xbd171432	-0.036884494
62	0xbca9cc80	-0.020727396
63	0xbbca4b38	-0.0061735176
64	0xbdad8585	-0.084727325
65	0x3e954d18	0.2916038
66	0xbdd63660	-0.1045959
67	0x3db18dab	0.08669599
68	0x3eaef822	0.34173685
69	0x3c61c7aa	0.013780514
70	0x3da67084	0.081269294
71	0xbc45ceb5	-0.012073209
72	0xbd38554b	-0.045003217
73	0xbe79a496	-0.24379191
74	0xbb138ddf	-0.0022514982
75	0x3e0455af	0.1292331
76	0x3d93d1c7	0.07217746
77	0xbec4cb36	-0.38436288
78	0xbcab3b80	-0.020902395
79	0x3be49b81	0.0069765453
80	0xbbba5b75	-0.005687172
81	0xbef8b339	-0.48574236
82	0x3db0d427	0.08634215
83	0x3d727544	0.059193864
84	0x3df42b20	0.11922288
85	0xbf76720a	-0.9626776
86	0xbdf493fd	-0.11942289
87	0x3dec9994	0.1155273
88	0x3e4c0503	0.19923787
89	0xbec4f7b6	-0.38470238
90	0x3d16f1a7	0.03685155
91	0xbea43c6e	-0.32077354
92	0xbe845e45	-0.25853172
93	0xbf79d292	-0.9758693
94	0xbda8cac3	-0.08241799
95	0xbe1ed430	-0.1551063
96	0xbbe783c8	-0.00706527
97	0x3e9a0c48	0.30087495
98	0x3d9228e0	0.071367025
99	0xbe104cc1	-0.1409178
100	0xbe5c8fbd	-0.21539207
101	0xbe71ba97	-0.23606335
102	0xbccc4c40	-0.024938703
103	0x3c9bbae5	0.019010017
104	0xbb5d49b0	-0.0033765845
105	0x3e89607e	0.2683143
106	0xbd79cd21	-0.06098664
107	0x3df589ef	0.11989199
108	0xbe19465a	-0.14968243
109	0xbed6f6bd	-0.4198512
110	0x3dd18663	0.1023071
111	0x3e29c590	0.1657927
112	0x3e8f5de3	0.28001317
113	0x3eb83438	0.3597734
114	0x3c68ad93	0.01420154
115	0xbdd21cc8	-0.10259396
116	0x3db74047	0.08947807
117	0xbec53646	-0.3851797
118	0xbe1e5e02	-0.15465549
119	0x3e1e29e9	0.15445675
120	0xbddec445	-0.10877279
121	0x3e992c68	0.29916692
122	0x3c91a2d5	0.01777784
123	0x3df011db	0.11722156
124	0xbd2a62d6	-0.041598164
125	0xbc3914e1	-0.011296482
126	0xbdb5df4d	-0.08880482
127	0xbd597eca	-0.05309943
128	0xbc9f4749	-0.019443171
129	0x3f246127	0.6421074
130	0xbe3bfc06	-0.18357858
131	0x3d0f5ef9	0.035002682
132	0x3d5d026d	0.05395739
133	0x3dbdfa01	0.092762
134	0x3e1ef86a	0.1552445
135	0x3bf55dd5	0.0074879923
136	0x3e9782e1	0.2959204
137	0x3ed2b37f	0.4115257
138	0xbd88abce	-0.06673394
139	0xbde1db6b	-0.11028179
140	0x3ee24d34	0.44199526
141	0xbe15d9d2	-0.14633873
142	0x3d4dc26b	0.05023424
143	0x3c9a217c	0.018814795
144	0xbd3e0cf3	-0.046399068
145	0x3f6f09d4	0.9337437
146	0xbd4fa767	-0.050696757
147	0xbdea5d99	-0.114436336
148	0xbdbd2ed1	-0.09237445
149	0x3a8d30ad	0.0010771953
150	0x3dc15a10	0.09441006
151	0x3d173631	0.036916915
152	0xbd338437	-0.04382726
153	0x3f68c23e	0.9092139
154	0xbe202a04	-0.15641028
155	0xbc5ee6b0	-0.013604805
156	0xbacd150c	-0.0015646531
157	0xbe535296	-0.20636973
158	0x3e1cdbae	0.15318176
159	0xbb92444b	-0.0044637076
160	0x3e2b5391	0.16731097
161	0x3f130b41	0.5743905
162	0xbdf494a8	-0.119424164
163	0xbe6ec7c2	-0.23318389
164	0xbe0fe3aa	-0.1405169
165	0xbedfca75	-0.4370915
166	0x3dbd3e0b	0.092403494
167	0xbe3588bd	-0.17727943
168	0x3e7da533	0.2477005
169	0x3eedab40	0.46419716
170	0xbdea56d8	-0.114423454
171	0x3dabf1ec	0.08395752
172	0x3d222cde	0.03959357
173	0xbdafdd01	-0.08587075
174	0x3de215bc	0.11039302
175	0x3e7525de	0.23940226
176	0x3e941709	0.28923824
177	0x3eb94fef	0.36193797
178	0xbd93a64d	-0.07209454
179	0xbd9c5434	-0.07633248
180	0x3e2f308e	0.17108366
181	0xbe211908	-0.15732205
182	0x3d312289	0.043245826
183	0xbe61fea2	-0.22069791
184	0x3d8e6785	0.069533385
185	0x3da7bbb5	0.08190099
186	0xbd62f789	-0.05541185
187	0xbd0d5783	-0.034507286
188	0x3d97a303	0.07404139
189	0xbf57986b	-0.84216946
190	0x3cd0c0aa	0.025482494
191	0xbd934f26	-0.07192831
192	0x3e18d0ec	0.14923447
193	0xbe663492	-0.22480991
194	0xbc97391d	-0.01845985
195	0x3d3f09f0	0.046640337
196	0xbeebb553	-0.46036777
197	0x3d29c982	0.04145194
198	0x3d0d242d	0.034458328
199	0xbca4bc55	-0.020109335
200	0xbd8a7755	-0.06761042
201	0xbe1fe176	-0.1561335
202	0x3cf0c2e0	0.029389799
203	0xbe10d477	-0.14143549
204	0xbd774b64	-0.060374632
205	0x3ee0bcf4	0.4389416
206	0xbcfba212	-0.03071693
207	0x3d6a3fe6	0.057189845
208	0x3c0709ba	0.008242065
209	0xbdaf3a05	-0.08555988
210	0x3e281706	0.16415033
211	0x3e664280	0.22486305
212	0x3f1871af	0.5954847
213	0xbf05d314	-0.52275205
214	0xbe03767e	-0.1283817
215	0xbe1312c2	-0.14362624
216	0x3e747507	0.23872767
217	0x3f83a3b4	1.0284333
218	0x3d4372a4	0.04771675
219	0xbd890cb9	-0.0669188
220	0xbdb07232	-0.08615531
221	0x3dd38c68	0.10329515
222	0xbdbb9d48	-0.091608584
223	0x3e218bfb	0.15776055
224	0x3ed836a4	0.42229187
225	0x3f8cb32b	1.0992178
226	0x3e30ba9b	0.17258684
227	0x3e5dc254	0.21656162
228	0x3e923a38	0.28560042
229	0x3d810bbb	0.063010655
230	0xbe1548c9	-0.14578547
231	0x3e487a44	0.1957789
232	0x3e4d6a24	0.2006002
233	0x3f54acb0	0.83076
234	0x3df41c13	0.11919417
235	0x3e4bf8b7	0.19919096
236	0xbd1c783f	-0.038200613
237	0x3ecf350d	0.40470162
238	0xbd53f9a8	-0.051751763
239	0x3e1cd79d	0.15316625
240	0x3e8d6dc1	0.27622798
241	0x3d8af7c5	0.067855395
242	0x3b3a9429	0.0028469658
243	0x3e07f521	0.13277103
244	0xbe84f3f7	-0.2596738
245	0xbdb542ef	-0.08850657
246	0xbcce0cbb	-0.025152555
247	0x3e178125	0.14795358
248	0x3e948f55	0.29015604
249	0x3e320165	0.17383344
250	0x3cadd433	0.021219349
251	0x3e36030c	0.177746
252	0x3e510a56	0.20414099
253	0x3e6ecd8e	0.233206
254	0xbd1b067f	-0.037847992
255	0xbc8db15e	-0.01729649

net_state.bias f4 [100]
0	0xbd97b805	-0.07408146
1	0xbe93e328	-0.28884244
2	0xbf1c1bb8	-0.60979795
3	0xbe1f562c	-0.15560216
4	0x3c0e48fd	0.008684394
5	0xbeea9ad6	-0.45821255
6	0xbe89fb8e	-0.26949733
7	0xbe8ccc2b	-0.27499518
8	0xbb0b4dd0	-0.0021256097
9	0x3bb64101	0.0055619483
10	0xbe5690f3	-0.20953731
11	0xbe857291	-0.2606397
12	0xbe9f6494	-0.31131423
13	0xbe19b2e6	-0.1500965
14	0xbe5a7cd1	-0.21336676
15	0x3dc7d6d3	0.09757771
16	0xbe434f62	-0.19073251
17	0xbe6e2b62	-0.23258737
18	0xbed032db	-0.406638
19	0xbe9f754d	-0.3114418
20	0xbdf4ca1d	-0.119526125
21	0xbe71b336	-0.2360352
22	0xbe8b1664	-0.2716552
23	0xbed24452	-0.4106775
24	0xbf5b2b5a	-0.85613024
25	0x3e3d7b0b	0.18503968
26	0xbda45d8c	-0.08025655
27	0xbd63917e	-0.055558674
28	0xbe589686	-0.2115117
29	0xbe6c889d	-0.23098989
30	0xbf114451	-0.5674487
31	0xbf036a07	-0.5133366
32	0xbe9db3e8	-0.3080132
33	0xbf1136fc	-0.56724524
34	0xbe4faa11	-0.20279719
35	0xbce86f44	-0.028373368
36	0x3cf04606	0.029330265
37	0xbec2fc94	-0.38083327
38	0xbe262588	-0.16225255
39	0x3e0df868	0.1386429
40	0xbf390984	-0.72280145
41	0xbd278375	-0.04089685
42	0xbed3c296	-0.41359395
43	0xbe5935b6	-0.21211895
44	0xbd871cc2	-0.06597282
45	0xbebb8be9	-0.3663018
46	0x3e053b0f	0.1301081
47	0xbdaf0517	-0.08545893
48	0xbbf3fd82	-0.007445992
49	0x3b2c1bc5	0.002626167
50	0x3d6cbb54	0.057795838
51	0xbedf879f	-0.43658158
52	0xbdd3735c	-0.103247374
53	0xbe147ae9	-0.14500012
54	0xbe5535d1	-0.2082131
55	0xbf029a92	-0.51017106
56	0xbe6446d2	-0.22292641
57	0xbea8a25b	-0.32936367
58	0xbd82faf0	-0.06395519
59	0xbd61c2c5	-0.055117387
60	0xbe47eb16	-0.19523272
61	0x3ea6f4ae	0.3260855
62	0xbdeab752	-0.11460747
63	0xbf0a2571	-0.5396338
64	0xbe1fa940	-0.15591908
65	0xbeefcfee	-0.46838325
66	0xbe9b0ee2	-0.30284792
67	0xbe58d8fe	-0.21176526
68	0x3ebf0916	0.3731162
69	0x3cef286f	0.029194085
70	0xbf0694c4	-0.5257075
71	0xbe9fd32b	-0.31215796
72	0xbf019397	-0.5061583
73	0xbf54f378	-0.83184004
74	0x3e6ba7b6	0.23013195
75	0xbeaa79cd	-0.33296052
76	0xbe971c2f	-0.2951369
77	0xbe3700a9	-0.17871346
78	0xbe8ba44e	-0.27273792
79	0x3e00e61c	0.1258778
80	0xbec0150b	-0.37516055
81	0x3e8dc69c	0.2769059
82	0x3ce6216a	0.028092105
83	0xbda1c691	-0.07899202
84	0xbe9edf7c	-0.3102988
85	0xbeecd30a	-0.4625476
86	0x3ef9f7a1	0.48821738
87	0xbef3a606	-0.47587603
88	0x3d7a9537	0.06117746
89	0xbe76d69a	-0.24105301
90	0xbcb037ef	-0.021511046
91	0xbed205b6	-0.41019982
92	0xbeebf22e	-0.46083206
93	0xbf22affd	-0.63549787
94	0x3d736c10	0.05942923
95	0xbe950b3b	-0.2911013
96	0xbe3cb620	-0.1842885
97	0x3de322be	0.11090611
98	0x3c769604	0.015050415
99	0xbe2b5cae	-0.16734573

net_action.weight f4 [100, 2]
0	0x3f554f92	0.8332454
1	0xbdd79051	-0.10525573
2	0x3c300e6e	0.010745628
3	0x3d894951	0.06703437
4	0xbe93ab83	-0.2884179
5	0xbe9dcb7e	-0.30819315
6	0x3c86025f	0.016358553
7	0x3de6f02c	0.11276278
8	0x3cf63aa0	0.030057251
9	0x3e557c60	0.20848227
10	0x3c372f77	0.01118075
11	0x3e34e19c	0.17664188
12	0xbb2d7387	-0.0026466565
13	0xbf28813d	-0.658222
14	0x3c5c79f1	0.0134568075
15	0xbc91727d	-0.017754788
16	0x3cc0665d	0.02348631
17	0x3df48278	0.119389474
18	0xbcdf25d9	-0.027239727
19	0xbf0c25b1	-0.5474501
20	0x3f0a6076	0.5405344
21	0x3d0407db	0.032234054
22	0xbc1b6035	-0.009483387
23	0x3c7cc864	0.015428636
24	0x3eac06eb	0.33599028
25	0x3da6e400	0.08148956
26	0x3e776ccd	0.24162598
27	0xbe49ebe3	-0.1971889
28	0x3e36b514	0.17842513
29	0x3c637737	0.0138834035
30	0xbec0dbdd	-0.37667742
31	0xbc38efe9	-0.011287668
32	0x3f265c52	0.6498462
33	0xbecaf879	-0.39642695
34	0xbe5f5a07	-0.21811686
35	0x3e25d76e	0.16195461
36	0x3ebb4aff	0.36580655
37	0xbddddde4	-0.10833338
38	0x3dd350de	0.103181586
39	0xbd8f33a1	-0.06992269
40	0x3b7a425b	0.0038186524
41	0x3c5c959b	0.013463403
42	0xbbe9933e	-0.0071281483
43	0x3e799fa2	0.24377301
44	0x3dba577f	0.0909872
45	0x3eaadb89	0.33370617
46	0xbf4086a5	-0.7520545
47	0x3e1af878	0.15133846
48	0x3a4cc652	0.00078115345
49	0xbb86a14a	-0.0041085826
50	0xbed48618	-0.41508555
51	0x3c0fed57	0.008784614
52	0xbe02df8a	-0.12780586
53	0xbe1b17c4	-0.15145785
54	0xbebefb55	-0.37301126
55	0xbecfceb3	-0.40587386
56	0x3d7893d4	0.060687855
57	0x3f02a162	0.510275
58	0xbd83aa34	-0.06428948
59	0x3cacd07b	0.021095505
60	0xbe772699	-0.24135818
61	0xbced631f	-0.028977929
62	0xbca7c8bc	-0.02048146
63	0xbcba5ecf	-0.022750286
64	0x3d89167a	0.0669374
65	0x3f33403a	0.70019877
66	0xbdacb432	-0.08432807
67	0xbe645500	-0.2229805
68	0x3ef1823b	0.4716967
69	0x3dcca3a9	0.09992153
70	0xbe480403	-0.1953278
71	0x3ef6861a	0.48149186
72	0x3f095a6b	0.5365359
73	0x3ebe0be9	0.37118462
74	0x3ea147ff	0.3150024
75	0x3c1adf96	0.009452721
76	0x3ebb1b67	0.36544344
77	0x3e8a218d	0.26978722
78	0xbd206759	-0.03916106
79	0x3dc31b08	0.0952664
80	0xbe22a0a9	-0.158816
81	0x3d87baa0	0.06627393
82	0x3f0e930c	0.55693126
83	0xbb63167e	-0.0034650858
84	0xbcf40599	-0.029787825
85	0x3e99110e	0.29895824
86	0xbc94326a	-0.018090446
87	0xbeb904a2	-0.36136347
88	0x3c678a6a	0.014132122
89	0x3c4909b5	0.012270381
90	0xbe05d7e1	-0.13070633
91	0xbe0ce93b	-0.13760845
92	0xbe2c236c	-0.16810387
93	0x3d004764	0.031318083
94	0xbdd3059c	-0.10303804
95	0xbeb9a649	-0.36259678
96	0xbe8ddd82	-0.2770806
97	0xbe28e29a	-0.16492692
98	0xbd1dc0e4	-0.038514033
99	0xbf042125	-0.51613075
100	0xbe0dde58	-0.13854349
101	0x3ee6a209	0.45045498
102	0x3ed1ae81	0.40953448
103	0xbd7a9e16	-0.06118592
104	0xbd7c3a59	-0.061579082
105	0x3d1a73c4	0.03770806
106	0x3e23a295	0.15979989
107	0x3ea2a479	0.31766108
108	0xbd40f7f1	-0.047111455
109	0xbe132172	-0.14368227
110	0x3be8900f	0.0070972512
111	0xbb84af4d	-0.004049218
112	0x3e83c6c0	0.25737572
113	0x3de838f3	0.11338987
114	0x3ea844a0	0.32864857
115	0x3d74d58e	0.059773974
116	0xbe99a014	-0.30004942
117	0x3f0e4632	0.5557586
118	0x3e9a5870	0.30145597
119	0x3e748aec	0.2388112
120	0x3cee2e45	0.029074797
121	0xbd6c133b	-0.057635527
122	0x3dc6522a	0.0968364
123	0x3ead96e0	0.3390417
124	0xbf306ad7	-0.68913025
125	0xbe532544	-0.20619684
126	0xbd976ea6	-0.073941514
127	0x3c60b345	0.013714616
128	0x3f1d865e	0.61533153
129	0x3ee58994	0.44831526
130	0x3e0822ec	0.13294572
131	0xbd1eb26c	-0.038744375
132	0xbe8c47e9	-0.27398613
133	0xbeb4c7cb	-0.3530868
134	0x3b8337da	0.0040044608
135	0x39d1a541	0.0003998671
136	0x3cbca1fe	0.023026463
137	0x3e39dda7	0.1815096
138	0xbebe2819	-0.37139967
139	0xbba97129	-0.0051709604
140	0xbaeb4a87	-0.0017951288
141	0x3cb3b752	0.021938
142	0xbdb364e6	-0.08759479
143	0xbe9e83aa	-0.30959827
144	0xbe647af1	-0.22312523
145	0xbe72c3cc	-0.23707503
146	0x3f3460e4	0.70460343
147	0xbe883470	-0.26602507
148	0x3f38476b	0.71983975
149	0x3cccc7de	0.024997648
150	0x3e210c1e	0.15727279
151	0xbe151ead	-0.14562483
152	0xbb8e6996	-0.004346083
153	0xbc6ae873	-0.014337647
154	0xbe9b150e	-0.302895
155	0x3e6f3dbd	0.23363395
156	0xbd14688f	-0.036232527
157	0xbe4b03da	-0.19825688
158	0x3db5615f	0.08856463
159	0xbde21592	-0.110392705
160	0xbcbb59f8	-0.022870049
161	0xbe9b37ee	-0.30316108
162	0xbda00ac5	-0.07814554
163	0xbe96703e	-0.2938251
164	0xbe5e5c81	-0.21714975
165	0x3cfcbc6b	0.030851563
166	0x3ce46d48	0.02788414
167	0xbdf73724	-0.12071064
168	0xbe83724f	-0.25673148
169	0xbc0c34ea	-0.008557538
170	0xbda15e8b	-0.07879361
171	0x3df085d1	0.117442735
172	0xbe1c0800	-0.15237427
173	0xbe05b550	-0.13057446
174	0xbda27a70	-0.07933509
175	0xbf0ac7fd	-0.5421141
176	0x3eb2a2f0	0.34889936
177	0x3c17c9d0	0.009264424
178	0xbe879909	-0.26483944
179	0xbd001b8c	-0.03127627
180	0xbca9e2d1	-0.020738037
181	0xbcde5b4d	-0.027143145
182	0x3e5622bc	0.20911688
183	0x3d04e434	0.032444194
184	0x3c8696e9	0.016429381
185	0x3d765e67	0.060148623
186	0xbe476452	-0.19471863
187	0xbea55907	-0.32294485
188	0xbefc513b	-0.49280724
189	0x3e90d1a5	0.28284946
190	0x3df40dca	0.119166926
191	0xbcfd1202	-0.030892376
192	0xbf3853ff	-0.7200317
193	0xbdc6b0bc	-0.09701678
194	0x3dfb3bbf	0.12267255
195	0xbe583e67	-0.21117555
196	0xbe0efb1e	-0.13962981
197	0x3e64fc27	0.22361813
198	0x3cef5203	0.02921391
199	0x3d818ed8	0.063260734

net_action.bias f4 [100]
0	0xbf13eebb	-0.5778615
1	0x3e5c0182	0.2148495
2	0xbf1991fb	-0.59988374
3	0xbc3b4618	-0.011430286
4	0xbf258e73	-0.64670485
5	0xbe03812c	-0.12842244
6	0xbf319720	-0.69371223
7	0xbd951ba4	-0.07280663
8	0xbe1b9c7a	-0.1519641
9	0xbed221ad	-0.41041318
10	0xbf198a59	-0.59976727
11	0xbce2d482	-0.027689222
12	0xbe29ddb8	-0.16588485
13	0x3e6dba5b	0.2321562
14	0xbe463fc1	-0.19360258
15	0xbeca3a52	-0.3949762
16	0xbeadfa81	-0.33980182
17	0x3bc4ce83	0.0060060634
18	0xbef483cb	-0.477568
19	0x3df8b849	0.121445246
20	0x3e594d34	0.21220857
21	0x3ef31633	0.47477874
22	0xbe4d398a	-0.2004148
23	0xbf2de0e2	-0.6792127
24	0xbc32735e	-0.0108917635
25	0xbee9da38	-0.456743
26	0x3ef60de6	0.4805748
27	0xbf001e54	-0.5004628
28	0xbeca3b8b	-0.39498553
29	0x3d8314ae	0.06400429
30	0x3e8f7068	0.28015447
31	0xbd839804	-0.06425479
32	0xbf0c1080	-0.54712677
33	0xbe40f73c	-0.18844312
34	0xbedbe532	-0.429483
35	0xbf2e3a5a	-0.6805779
36	0xbe993000	-0.29919434
37	0xbea70873	-0.32623634
38	0x3e920a0f	0.285233
39	0xbe1ed7a1	-0.15511943
40	0x3e9ed295	0.31020036
41	0xbf1f62a2	-0.62259877
42	0xbee2dcab	-0.4430898
43	0xbe908618	-0.28227305
44	0xbcdb336e	-0.026757922
45	0xbe97a263	-0.2961608
46	0xbe4dd7c9	-0.20101847
47	0xbe8b1d20	-0.27170658
48	0x3e814bd7	0.25253174
49	0xbeb52cf7	-0.35385868
50	0xbee7dd0e	-0.4528584
51	0x3ebe336c	0.37148607
52	0xbe9e8098	-0.30957484
53	0xbf219420	-0.63116646
54	0xbe545be0	-0.20738173
55	0xbcc696fe	-0.02424192
56	0xbebf7e7e	-0.37401193
57	0x3d2d7701	0.04234982
58	0xbed07add	-0.40718737
59	0x3e6c938d	0.23103161
60	0xbd3e691b	-0.046486955
61	0xbe97d60c	-0.29655492
62	0xbee8aa8e	-0.45442623
63	0x3c9ed33a	0.01938783
64	0xbf3ba2f9	-0.7329555
65	0xbe3c9174	-0.18414861
66	0xbe65e8a6	-0.2245203
67	0xbc0f8057	-0.008758626
68	0xbe83f700	-0.25774384
69	0x3e8ebd25	0.2787868
70	0xbd999677	-0.07499402
71	0xbe874cbb	-0.26425728
72	0x3e081143	0.13287835
73	0xbee7b216	-0.45253056
74	0xbec3da9f	-0.38252732
75	0x3e87cb99	0.2652252
76	0xbd3019ce	-0.04299336
77	0xbe02b1ff	-0.12763213
78	0xbe74ebe2	-0.23918107
79	0xbc9dec49	-0.019277709
80	0xbea80fc0	-0.32824516
81	0x3eef447f	0.46731946
82	0xbe80435d	-0.25051394
83	0xbeaac6e9	-0.3335488
84	0x3f0c9397	0.54912704
85	0x3ec2b2fe	0.38027185
86	0xbf25b23a	-0.6472508
87	0xbefa8713	-0.48931178
88	0xbeba8378	-0.36428428
89	0xbe999263	-0.29994497
90	0x3ea004c0	0.31253624
91	0x3e1c12b4	0.1524151
92	0xbdb503fc	-0.088386506
93	0xbe80b77d	-0.2513999
94	0xbf4ddae0	-0.804121
95	0xbd2ab1e7	-0.041673567
96	0xbecb59f9	-0.3971708
97	0xbf33bf2f	-0.702136
98	0xbebab2e3	-0.36464605
99	0x3ec3d601	0.3824921

net_layer.weight f4 [100, 200]
0	0xbe2a771f	-0.16647004
1	0xbd9d497f	-0.07680034
2	0xbdc2b6dc	-0.09507534
3	0xbe062a0b	-0.13101976
4	0x3e03a2a9	0.12855019
5	0xbc9beca0	-0.01903373
6	0xbe768951	-0.2407582
7	0xbd830f20	-0.06399369
8	0xbe0797a6	-0.13241443
9	0xbd34ec27	-0.044170525
10	0xbc4345ef	-0.011918529
11	0xbdd98218	-0.106205165
12	0xbe0be8a1	-0.1366296
13	0xbd2587a4	-0.04041256
14	0xbda8fc44	-0.08251241
15	0xbcf5e34e	-0.030015614
16	0xbd694186	-0.056947254
17	0xbc490304	-0.012268785
18	0xbd8e48a3	-0.06947448
19	0xbe08e4f8	-0.13368595
20	0xbe43f7c0	-0.19137478
21	0xbd8ae147	-0.067812495
22	0xbc9617b7	-0.018321855
23	0xbdcce5d1	-0.100047715
24	0xbd4ae997	-0.049539175
25	0xbe96d9bb	-0.2946299
26	0xbbeece4c	-0.007287776
27	0x3cfb8e9f	0.030707655
28	0xbe7574b3	-0.23970298
29	0xbe58ceb5	-0.21172602
30	0xbda5bea8	-0.080930054
31	0x3d70a858	0.058754295
32	0xbe57cfe8	-0.21075404
33	0x3dae6fdc	0.08517429
34	0x3b973ab4	0.0046151523
35	0xbdaff11d	-0.085909106
36	0xbd528b3b	-0.05140231
37	0x3d6513b9	0.055927012
38	0x3dc2ea67	0.09517365
39	0x3acf4036	0.0015811983
40	0x3aae8963	0.0013316091
41	0x3d65e607	0.056127574
42	0x3c616ab0	0.013758346
43	0xbdb014a9	-0.085976906
44	0xba95d93e	-0.0011432541
45	0xbe3ff094	-0.18744117
46	0xbcddf521	-0.027094426
47	0xbe14f13e	-0.14545152
48	0xbd80b3e2	-0.0628431
49	0xbdd9f414	-0.10642257
50	0xbd86c122	-0.06579806
51	0x3d0533a9	0.03251997
52	0xbdb4ad0a	-0.08822067
53	0xbcfb25a3	-0.030657595
54	0xbd7f7baa	-0.062373795
55	0x3db0956a	0.086222485
56	0xbc172fa8	-0.009227671
57	0xbe082605	-0.13295753
58	0xbd6fa382	-0.058505543
59	0xbd5ec1c3	-0.054384004
60	0x3d17e9cc	0.0370882
61	0xbc943c1d	-0.01809507
62	0xbcd73d47	-0.026274337
63	0xbd43a7a4	-0.047767296
64	0xbcb57dba	-0.022154678
65	0x3d03e7ad	0.032203365
66	0xbe00d925	-0.12582834
67	0xbc24557a	-0.010030145
68	0x3c43f66f	0.01196061
69	0x3d3d4a44	0.046213403
70	0x3d33b659	0.043875072
71	0xbd8ecbb6	-0.069724485
72	0xbd29bbe0	-0.041438937
73	0x3b26bc2a	0.0025441744
74	0xbe7e3785	-0.24825867
75	0xbe3ec9b0	-0.18631625
76	0xbdb6c7d2	-0.089248314
77	0xbe4626aa	-0.19350687
78	0x3c0fe9b7	0.008783749
79	0xbdf77768	-0.12083322
80	0xbd192939	-0.03739283
81	0x3d997406	0.07492833
82	0xbd283a34	-0.04107113
83	0xbdfdb47e	-0.12387942
84	0xbc174221	-0.009232075
85	0x3d6acb90	0.05732304
86	0xbe374e63	-0.17900996
87	0x3c88fb61	0.01672143
88	0x3b4060cf	0.0029354577
89	0xbe2ec2b3	-0.1706646
90	0xbdf4b557	-0.1194865
91	0xbd4d56f3	-0.05013175
92	0xbc460e9d	-0.012088445
93	0x3d57e2c9	0.052706514
94	0xbe1fa35e	-0.15589663
95	0xbcb82525	-0.02247865
96	0xbd9ca9dc	-0.076495856
97	0xbd3cb698	-0.046072572
98	0xbdd2d1c6	-0.10293917
99	0xbc8dfc46	-0.017332207
100	0xbdde74b5	-0.10862104
101	0xbdbe3fc0	-0.09289503
102	0xbe0dc6cf	-0.1384537
103	0xbccc3837	-0.02492915
104	0x3d6a52f6	0.057208024
105	0xbc6683d3	-0.014069515
106	0xbc8f3b28	-0.017484263
107	0xbd9b4f23	-0.075834535
108	0xbc4c381a	-0.0124645475
109	0xbddf3c16	-0.10900132
110	0x3ded6275	0.11591045
111	0xbc957ae9	-0.018247085
112	0xbe876913	-0.26447353
113	0xbec07011	-0.375855
114	0xbe3da3cc	-0.18519515
115	0xbe6d6f6c	-0.23187035
116	0xbdbee5ea	-0.093211964
117	0xbc6ffe46	-0.014648026
118	0xbdf4f38a	-0.11960514
119	0xbda6f13a	-0.08151479
120	0xbd5afb92	-0.053462572
121	0xbd8feaed	-0.070272304
122	0xbcc8a79a	-0.024493981
123	0x3c8114d8	0.01575701
124	0x3c9fe72d	0.019519413
125	0xbdfadc9a	-0.12249108
126	0xbe0881ed	-0.13330813
127	0xbe740366	-0.23829421
128	0xbe82d510	-0.2555318
129	0xbdf97146	-0.12179808
130	0xbd69495f	-0.056954738
131	0xbdc9fa48	-0.098621905
132	0xbe58f34c	-0.2118656
133	0xbe074092	-0.13208225
134	0xbd8ae130	-0.06781232
135	0xbe47a90e	-0.19498083
136	0xbe86f204	-0.26356518
137	0x3ca92ca7	0.020651175
138	0x3d0784d5	0.033085663
139	0xbcfbf2f2	-0.030755494
140	0xbd332e52	-0.043745346
141	0xbdb8dc2e	-0.09026371
142	0xbd8ceed5	-0.06881491
143	0xbe2ca37e	-0.16859242
144	0xbd1c324e	-0.03813391
145	0xbd489ebc	-0.048979506
146	0xbc136454	-0.008996088
147	0xbd3a41a0	-0.04547274
148	0xbcf31f13	-0.029677903
149	0xbd452c2f	-0.04813784
150	0xbe828cd7	-0.25498077
151	0xbdf4d828	-0.11955291
152	0xbc73865b	-0.014863576
153	0x3de51d97	0.111872844
154	0xbe03cbbc	-0.12870687
155	0xbe576c64	-0.21037441
156	0xbe01ac8f	-0.12663482
157	0xbe4451c1	-0.19171812
158	0xbb1c774f	-0.0023874824
159	0xbc1730d9	-0.009227955
160	0xbe23ce41	-0.15996648
161	0xbe0053ae	-0.12531921
162	0xbe493974	-0.19650823
163	0xbcabe279	-0.020982014
164	0xbd9eb807	-0.07749944
165	0xbd3e101c	-0.04640208
166	0xbe487d1d	-0.19578977
167	0xbe022871	-0.1271074
168	0xbd8cdd28	-0.0687812
169	0xbb258ca4	-0.002526083
170	0x3d5650d2	0.05232317
171	0xbe1e706c	-0.15472573
172	0xbe0a56fd	-0.13509746
173	0xbbb69e84	-0.0055730958
174	0xbd882e10	-0.06649411
175	0xbe9f6fc1	-0.3113995
176	0xbbfd8f8f	-0.007738061
177	0xbd3709e9	-0.044687185
178	0xbdc2ce0d	-0.09511957
179	0xbdc7eacb	-0.0976158
180	0xbe496613	-0.19667844
181	0xbe5d6f7b	-0.21624558
182	0xbe6d0d7c	-0.23149675
183	0xbc9cd6b6	-0.01914535
184	0xbe06daa3	-0.13169341
185	0xbd662b08	-0.05619338
186	0xbd18b5e9	-0.037282858
187	0xbdf4b10a	-0.1194783
188	0xbe1fe031	-0.15612866
189	0xbe4a0648	-0.19728959
190	0xbd5cb5aa	-0.053884186
191	0xbc5bd508	-0.01341749
192	0x3d95e137	0.07318347
193	0xbda710cd	-0.08157501
194	0xbdad90f3	-0.084749125
195	0xbe1a3446	-0.15059003
196	0xbeac1527	-0.33609888
197	0x3c7bda69	0.015371897
198	0xbd95a996	-0.073077366
199	0xbc007e32	-0.007842587
200	0xbe50b4b9	-0.2038144
201	0xbccf3ff6	-0.025299054
202	0x3d96ee84	0.07369712
203	0xbdadbacc	-0.08482894
204	0x3c0706ed	0.008241397
205	0x3d0a9d00	0.033841133
206	0x3c4bea04	0.01244593
207	0x3dc39e6b	0.095517
208	0x3cea3ae9	0.028592544
209	0xbd8389a5	-0.06422738
210	0xbe4b97d1	-0.19882132
211	0xbe8be8a5	-0.2732593
212	0xbdbb4160	-0.09143329
213	0xbce754f0	-0.028238744
214	0xbe95e0a6	-0.29272956
215	0xbea506e7	-0.3223183
216	0xba999439	-0.0011717147
217	0x3e0ea5c0	0.13930416
218	0xbe95b66b	-0.29240736
219	0xbdfd059b	-0.12354585
220	0xbdd348c9	-0.10316617
221	0x3df5d60a	0.12003715
222	0x3db8ba9a	0.090199664
223	0xbe8b22b5	-0.27174917
224	0xbc1cc552	-0.009568529
225	0xbe971fa7	-0.29516336
226	0xbd5ada0b	-0.0534306
227	0xbd89ee0c	-0.06734857
228	0x3d51b73f	0.051200148
229	0xbc15dde6	-0.009147143
230	0x3c47a03a	0.012184197
231	0x3d8b92d0	0.06815112
232	0xbcdda36d	-0.027055467
233	0xbd216c07	-0.039409664
234	0xbd021a1b	-0.031763177
235	0xbe5ae763	-0.2137733
236	0xbdce75dd	-0.100810744
237	0xbeb2284b	-0.34796366
238	0x3e15225b	0.14563887
239	0xbe37c584	-0.1794644
240	0xb9c3b179	-0.00037325526
241	0xbd8cc30d	-0.068731405
242	0xbdea4347	-0.114386134
243	0x3cb3bf4f	0.021941809
244	0x3d85b9f7	0.065296106
245	0x3db4e962	0.08833577
246	0xbfd93f91	-1.6972524
247	0xbb259950	-0.0025268383
248	0xbdd62391	-0.104560025
249	0xbc17fe39	-0.00927692
250	0xbe212dfd	-0.157402
251	0x3da5bd49	0.08092744
252	0xbda46d69	-0.08028681
253	0xbd593065	-0.05302467
254	0x39e9d57d	0.00044600284
255	0xbe050f94	-0.12994224

net_layer.bias f4 [100]
0	0xbd36f198	-0.044663996
1	0x3c8bc20d	0.017060304
2	0xbd1b03a2	-0.03784526
3	0xbd0703ec	-0.032962725
4	0xbddabddc	-0.10680744
5	0x3db67786	0.08909516
6	0xbdf8d33a	-0.12149663
7	0xbd596a3b	-0.053079825
8	0x3d2cea81	0.042215828
9	0xbd0e8cd7	-0.034802284
10	0x3ce12a10	0.027485877
11	0xbdd7507f	-0.105134
12	0xbcbae694	-0.022815026
13	0x3bf52d71	0.0074822237
14	0x3e216685	0.15761764
15	0x3dce54ee	0.10074793
16	0x3d130fab	0.035903614
17	0xbd1da9b8	-0.038491935
18	0xbdb81cf7	-0.089898996
19	0xbabc8935	-0.0014384153
20	0xbe97ec2c	-0.29672372
21	0xbdacd22f	-0.08438527
22	0xbccd3720	-0.0250507
23	0xbdd3d3b7	-0.10343116
24	0xbdc8245f	-0.09772562
25	0xbcd73a8f	-0.02627304
26	0x3d95bb8c	0.07311162
27	0xbddedd3d	-0.108820416
28	0xbdc48c1b	-0.095970355
29	0x3d80a56c	0.06281552
30	0xbd3fcbef	-0.046825346
31	0xbd5c2249	-0.053743634
32	0xbd8eea0f	-0.06978237
33	0xbdbc8cdc	-0.09206554
34	0xbe053ee7	-0.13012277
35	0x3c91dcdf	0.017805515
36	0xbcd4fc96	-0.025999349
37	0x3d6640ea	0.05621425
38	0xbc3137b3	-0.010816502
39	0x3de5f4ba	0.112283185
40	0xbdaa8b3b	-0.08327337
41	0xbc9bdc6a	-0.019026
42	0xbd442c85	-0.04789402
43	0x3ce5a8de	0.028034624
44	0xbd60e655	-0.05490716
45	0x3d69b997	0.057061758
46	0xbe798c4e	-0.24369928
47	0xbd53a3d6	-0.051669918
48	0x3b54f5bf	0.003249511
49	0xbdf6b447	-0.12046104
50	0x3d834447	0.06409507
51	0x3cc515f4	0.02405832
52	0xbd6f1d63	-0.058377635
53	0xbdd886f1	-0.10572613
54	0xbeb2c230	-0.34913778
55	0xbbe033b2	-0.0068421
56	0xbee8b9f0	-0.4545436
57	0xbb5e1462	-0.003388666
58	0xbd7c416b	-0.061585825
59	0xbd1a9a49	-0.037744794
60	0xbd11f3c4	-0.035632864
61	0xbd8d34ed	-0.068948604
62	0xbd96d363	-0.073645376
63	0xbdb52549	-0.08845002
64	0xbe3b830f	-0.18311714
65	0xbe7ca048	-0.24670517
66	0x3e738897	0.23782574
67	0x3dc20af2	0.09474744
68	0xbd084e14	-0.033277586
69	0x3d4886e8	0.04895678
70	0xbc51b878	-0.012800328
71	0x3c947dd5	0.018126408
72	0xbdb9983e	-0.09062241
73	0xbbaa2b7f	-0.0051931734
74	0x3d047c0a	0.032344855
75	0x3d621b2a	0.055201687
76	0x3e140be4	0.14457661
77	0xbc13dc29	-0.009024658
78	0xbdfab1c0	-0.12240934
79	0xbb437d3a	-0.002982928
80	0x3ac85476	0.001528396
81	0xbc4a7b66	-0.012358522
82	0xbe685b03	-0.22690968
83	0xbca552e9	-0.020181136
84	0xbcbe6906	-0.023243438
85	0xbce2a336	-0.027665716
86	0xbddb2ac2	-0.10701515
87	0xbdda542a	-0.10660584
88	0xbe021f2b	-0.12707202
89	0xbde5d8d9	-0.11223001
90	0x3caf4efe	0.021399971
91	0xbdb49e72	-0.088192835
92	0xbe2719b3	-0.16318397
93	0xbdb21c2a	-0.08696778
94	0xbd1af678	-0.037832707
95	0x3d00683d	0.03134941
96	0x3d1f400c	0.03887944
97	0xbce37178	-0.027764067
98	0xbdd1bb92	-0.10240854
99	0xbc923532	-0.017847631

q_value.weight f4 [1, 100]
0	0xbb58f604	-0.003310562
1	0xbd0ba332	-0.034091182
2	0x3d4f329d	0.050585378
3	0x3a696391	0.0008903081
4	0xba80a6d4	-0.0009815344
5	0x3c1dac1d	0.009623555
6	0xbd80fe9c	-0.06298563
7	0x3c901aa8	0.017590836
8	0xbd074e3c	-0.033033594
9	0xbd6ecd59	-0.058301304
10	0x3d3fcc92	0.046825953
11	0x3b8c1d2a	0.0042759376
12	0x3b13cb91	0.0022551755
13	0xbda371f5	-0.0798072
14	0x3c446381	0.011986614
15	0x3c9ba3ae	0.018998947
16	0xbcc95687	-0.024577392
17	0x3c249fa0	0.010047823
18	0xbaaf7ff7	-0.0013389577
19	0x3cece428	0.028917387
20	0xbada90e8	-0.0016675266
21	0xbc30fc3b	-0.010802324
22	0x3c25dc5e	0.01012334
23	0x3d04b733	0.032401275
24	0x3c1cac2b	0.009562532
25	0x3c16e491	0.009209768
26	0xbc470836	-0.012147954
27	0x3ca3451d	0.019930417
28	0x3ba9491e	0.005166187
29	0xbcdac1b8	-0.0267037
30	0xbb5f19c8	-0.0034042466
31	0x3d077be6	0.033077143
32	0xbcc4ec10	-0.024038345
33	0x3b127c12	0.0022351784
34	0xbcb440ed	-0.022003615
35	0xbcd4e704	-0.025989063
36	0xb94bb70f	-0.00019427783
37	0xbbc540e0	-0.0060196966
38	0x3cb44407	0.022005094
39	0x3cb337e2	0.021877233
40	0xbd651f83	-0.055938255
41	0xbc144ed1	-0.009051994
42	0x3c6b3b01	0.014357329
43	0x3d52d22a	0.05146996
44	0xb7a63593	-1.981369e-05
45	0xbc1dd63f	-0.0096336
46	0x3c6487ca	0.01394839
47	0x3cbb307d	0.02285027
48	0xbc83740e	-0.01604655
49	0xbcd5fd76	-0.026121836
50	0xbd788585	-0.06067421
51	0x3c07e0f5	0.00829338
52	0x3b806a27	0.0039189043
53	0xbc28707a	-0.010280723
54	0x3d4b7459	0.049671505
55	0x3d02aa72	0.03190083
56	0xbcaa857b	-0.020815602
57	0xbd3997bb	-0.045310717
58	0x3b960d92	0.0045792544
59	0xbb4b4e26	-0.0031021922
60	0x3bd75ce2	0.006572352
61	0x3a84807e	0.0010109094
62	0x3c52bad4	0.012861926
63	0xbc1e84c3	-0.009675208
64	0xbd036f61	-0.03208864
65	0x3c94b28c	0.018151544
66	0x3ccc3bba	0.024930824
67	0xbbd11aaf	-0.0063813548
68	0xbbff3616	-0.00778843
69	0xbd0d330f	-0.03447252
70	0xbbc65966	-0.0060531376
71	0xbc355413	-0.011067408
72	0xbd43b7ab	-0.04778258
73	0x3dc3c659	0.09559316
74	0x3bf91f23	0.0076025887
75	0xbc0e3472	-0.008679496
76	0x3d027ec6	0.03185918
77	0xbd11f7b9	-0.035636637
78	0x3b2e5bcc	0.0026605008
79	0x39aa489c	0.00032479025
80	0x3d0fa40f	0.035068568
81	0xba8289f1	-0.0009959323
82	0xbc3d9a39	-0.011572414
83	0x3ce73b88	0.028226629
84	0x3ac798ea	0.0015228067
85	0x3c5a612a	0.01332883
86	0x3cfaf75e	0.030635532
87	0x3c733401	0.014843942
88	0x3b9403e2	0.0045170644
89	0xbcf47cac	-0.029844604
90	0xbc7025e6	-0.014657473
91	0x3c59e07a	0.013298148
92	0xbbbac05c	-0.0056992006
93	0x3cafd010	0.021461517
94	0x3c315448	0.010823317
95	0xbc737f2d	-0.014861864
96	0x3cbf7ad4	0.023373999
97	0x3c547d8a	0.012969384
98	0x3b7d1b1c	0.0038620895
99	0xbc287f65	-0.0102842795
