c_target_ma1.pth (torch_old, 93201 bytes, 7 tensors)

net_state.weight f4 [100, 24]
0.07373295 -0.07378662 0.06916441 0.11958446 0.16684783 -0.846063 -0.09107107 -0.1815055
0.1799302 -0.16345803 -0.07326893 0.22414246 0.09414263 -0.54908717 0.06683387 0.051484194
0.3734319 -0.048055533 0.0027037892 -0.24651848 -0.11296973 0.56494224 0.014593444 -0.086917736
0.20864688 -0.16973029 -0.036744233 -0.04571977 -0.083019696 -0.41927066 -0.006510917 0.18319955
0.06517751 0.124360055 -0.0063302945 0.03540519 0.06601339 -0.5219148 -0.07600355 -0.105894834
0.030147474 -0.3223628 0.06424656 -0.15589732 0.36217907 -0.37484673 -0.13532768 -0.09834745
-0.06510755 0.1184187 0.001823081 -0.21353455 0.57668966 -1.1677843 0.0052073775 0.14448409
0.03368411 0.034729365 0.011380995 -0.054497156 -0.101170674 -0.041047357 -0.021506146 -0.0057247356
-0.084496744 0.291167 -0.10362021 0.08773467 0.3421331 0.009294152 0.082244985 -0.011034557
-0.041557577 -0.24484628 -0.0037950708 0.11985779 0.06919501 -0.38809812 -0.022445966 -0.0023987836
-0.0014021334 -0.48633474 0.08696042 0.06530502 0.11678053 -0.960782 -0.11880462 0.12163847
0.20465437 -0.3848763 0.038338456 -0.31692323 -0.26085114 -0.97173804 -0.080931105 -0.151256
-0.009900404 0.3017288 0.07403797 -0.13891928 -0.21910638 -0.23356608 -0.022267776 0.021008568
-0.008049128 0.27048233 -0.06290705 0.12389322 -0.15324116 -0.41891813 0.10038669 0.16979393
0.27800328 0.36227173 0.019512767 -0.110199004 0.08624783 -0.38614726 -0.14934431 0.14685164
-0.11032446 0.29726818 0.022685736 0.11643138 -0.040987223 -0.012662515 -0.08389689 -0.053889617
-0.02199026 0.6398832 -0.18708178 0.035904292 0.054795362 0.09024539 0.1517413 0.008389609
0.29408845 0.4095306 -0.063054815 -0.11184256 0.44296604 -0.14914317 0.05391336 0.017254002
-0.04808253 0.935579 -0.052704707 -0.11520702 -0.09293749 0.0022312705 0.09240207 0.036146253
-0.045261808 0.91053355 -0.15494397 -0.014318219 -0.0016364222 -0.20473194 0.15464807 -0.0051771263
0.16652085 0.5752258 -0.11553436 -0.23419473 -0.14016351 -0.43488213 0.0962933 -0.17829028
0.24738376 0.46057954 -0.111917116 0.080210485 0.042174418 -0.08224209 0.112899356 0.2356552
0.28836522 0.35765994 -0.07010133 -0.07989344 0.17396237 -0.1534231 0.045239065 -0.2242588
0.068383425 0.07750101 -0.053345263 -0.037987642 0.07716881 -0.8383328 0.027549079 -0.07540863
0.14914349 -0.22425129 -0.018567974 0.047264688 -0.45709917 0.04150919 0.03435022 -0.019485
-0.06745774 -0.15572976 0.030521173 -0.14281811 -0.057332836 0.43755436 -0.02958555 0.055807263
0.008236199 -0.08555904 0.16361496 0.22386949 0.59816355 -0.5261206 -0.12891707 -0.14461981
0.23901215 1.0325342 0.04775309 -0.06724951 -0.088665776 0.10524333 -0.09157224 0.15742984
0.42204535 1.1031728 0.17230822 0.21485455 0.2827459 0.065227866 -0.14606409 0.19407184
0.19854495 0.8328268 0.117095724 0.1977465 -0.041201763 0.4069303 -0.053850207 0.15172179
0.27684322 0.070593484 0.0027340034 0.13430093 -0.25935152 -0.090118706 -0.025265515 0.14948349
0.2909133 0.17689845 0.021010058 0.17665388 0.20458648 0.23187669 -0.038057275 -0.018388677
00000000: 4d01 973d 701d 97bd 12a6 8d3d b3e8 f43d
00000010: 28da 2a3e 9697 58bf 7883 babd 94dc 39be
00000020: 9f3f 383e 8b61 27be 050e 96bd 9a85 653e
00000030: dacd c03d fa90 0cbf 32e0 883d 17e1 523d
00000040: 7732 bf3e e1d5 44bd 0e32 313b 576f 7cbe
00000050: ac5c e7bd 0ea0 103f 5719 6f3c ed01 b2bd
00000060: 87a7 553e c7cd 2dbe 1f81 16bd a744 3bbd
00000070: 3b06 aabd a5aa d6be 8859 d5bb aa98 3b3e
00000080: c97b 853d 7cb0 fe3d 5c6e cfbb 0805 113d
00000090: 0732 873d 359c 05bf c0a7 9bbd 64df d8bd
000000a0: d6f7 f63c bd0c a5be b393 833d 8ca3 1fbe
000000b0: 896f b93e e9eb bfbe 5793 0abe 636a c9bd
000000c0: 1b57 85bd 8185 f23d 73f4 ee3a cda8 5abe
000000d0: efa1 133f f579 95bf a6a2 aa3b a3f3 133e
000000e0: 59f8 093d 6140 0e3d 5a77 3a3c 6938 5fbd
000000f0: 9232 cfbd 4621 28bd a82d b0bc 9096 bbbb
00000100: a10c adbd d713 953e d536 d4bd 3cae b33d
00000110: 122c af3e 8046 183c 0f70 a83d 49ca 34bc
00000120: 4738 2abd fcb8 7abe b9b6 78bb 0078 f53d
00000130: 1db6 8d3d ccb4 c6be 9ae0 b7bc e934 1dbb
00000140: cac7 b7ba de00 f9be 4e18 b23d a3be 853d
00000150: a12a ef3d cff5 75bf d64f f3bd 971d f93d
00000160: ea90 513e 820e c5be c908 1d3d c343 a2be
00000170: 488e 85be d3c3 78bf 35bf a5bd dae2 1abe
00000180: 4e35 22bc 337c 9a3e 38a1 973d db40 0ebe
00000190: 6c5d 60be f22b 6fbe e96a b6bc 291a ac3c
000001a0: 7de0 03bc a97c 8a3e 69d5 80bd bbbb fd3d
000001b0: 40eb 1cbe 707c d6be 8997 cd3d 76de 2d3e
000001c0: 7256 8e3e ae7b b93e 3dd9 9f3c 04b0 e1bd
000001d0: b4a2 b03d 18b5 c5be b7ed 18be 4760 163e
000001e0: caf1 e1bd 8933 983e 70d7 b93c 9373 ee3d
000001f0: 38e2 27bd 7076 4fbc 22d2 abbd 5cbb 5cbd
00000200: eb24 b4bc 63cf 233f 5e92 3fbe 6110 133d
00000210: 1a71 603d 93d2 b83d 1262 1b3e 9274 093c
00000220: c392 963e ffad d13e e222 81bd b60d e5bd
00000230: 72cc e23e fdb8 18be 41d4 5c3d 4458 8d3c
00000240: 30f2 44bd 1b82 6f3f e4e0 57bd a8f1 ebbd
00000250: 0356 bebd 823a 123b 4c3d bd3d 180e 143d
00000260: 7264 39bd ba18 693f a2a9 1ebe f796 6abc
00000270: 387d d6ba 40a5 51be 105c 1e3e e2a4 a9bb
00000280: 7184 2a3e ff41 133f 479d ecbd bed0 6fbe
00000290: 0687 0fbe dfa8 debe 6c35 c53d ba91 36be
000002a0: 2b52 7d3e 15d1 eb3e cd34 e5bd 6545 a43d
000002b0: 15bf 2c3d 8a6e a8bd c737 e73d 994f 713e
000002c0: 9ba4 933e 341f b73e 4991 8fbd 2c9f a3bd
000002d0: 3123 323e f21a 1dbe 994c 393d 19a4 65be
000002e0: 9c0c 8c3d d9b8 9e3d 9080 5abd ee98 1bbd
000002f0: ae0a 9e3d fa9c 56bf 9bae e13c d76f 9abd
00000300: 12b9 183e 21a2 65be dd1b 98bc 9e98 413d
00000310: e708 eabe 8a05 2a3d d1b2 0c3d 029f 9fbc
00000320: 4927 8abd 9f77 1fbe 8a07 fa3c e93e 12be
00000330: d6d5 6abd 2007 e03e 655d f2bc 2896 643d
00000340: 1ff1 063c 9439 afbd ae8a 273e 0b3e 653e
00000350: 3f21 193f d7af 06bf d602 04be 3717 14be
00000360: 9abf 743e 152a 843f be98 433d 1cba 89bd
00000370: 6796 b5bd d189 d73d 3a8a bbbd 4a35 213e
00000380: 5416 d83e c434 8d3f 9171 303e d502 5c3e
00000390: 12c4 903e 3096 853d d391 15be c5ba 463e
000003a0: 5e4f 4b3e 2334 553f e2cf ef3d 0f7e 4a3e
000003b0: 2ec3 28bd 2b59 d03e 0992 5cbd f55c 1b3e
000003c0: 65be 8d3e 5193 903d f72c 333b 2f86 093e
000003d0: b9c9 84be 2890 b8bd a0f9 cebc 3312 193e
000003e0: 97f2 943e de24 353e 491d ac3c c1e4 343e
000003f0: 1e7f 513e 1571 6d3e f2e1 1bbd daa3 96bc

net_state.bias f4 [100]
-0.07369118 -0.293266 -0.60979074 -0.15922448 0.012713537 -0.45653397 -0.2684502 -0.27314016
-0.0025109746 0.006296111 -0.21033998 -0.26199612 -0.3103615 -0.15011577 -0.21347357 0.10437598
-0.18943198 -0.23582396 -0.40843585 -0.3092972 -0.11715616 -0.23602773 -0.26792082 -0.40934393
-0.8536849 0.18545997 -0.08025618 -0.054364856 -0.21225469 -0.2319712 -0.5684888 -0.5117672
-0.30883214 -0.56866574 -0.20167242 -0.023722582 0.033223294 -0.37946096 -0.16186139 0.13958845
-0.7260358 -0.04086556 -0.41355646 -0.21157345 -0.06385597 -0.36560503 0.13047104 -0.08591853
-0.007112407 0.009551651 0.058120724 -0.43440494 -0.10258667 -0.14256483 -0.2115677 -0.5073308
-0.22311693 -0.32747033 -0.060787853 -0.05549194 -0.19483377 0.32746753 -0.1133697 -0.54202664
-0.15438385 -0.47016338 -0.30385238 -0.21170309 0.3718922 0.027032103 -0.5241691 -0.31078365
-0.50642926 -0.83017397 0.23040956 -0.33421895 -0.29531676 -0.17569673 -0.2711188 0.12315985
-0.3748365 0.27876025 0.027054036 -0.07638235 -0.30952665 -0.46299496 0.48762628 -0.47722283
0.062226906 -0.24105227 -0.023292633 -0.40968826 -0.46140456 -0.6369765 0.05716096 -0.293389
-0.18416819 0.11233506 0.0150504615 -0.16721052
00000000: 67eb 96bd f626 96be 3f1b 1cbf be0b 23be
00000010: 704c 503c d2be e9be 4e72 89be 07d9 8bbe
00000020: 2a8f 24bb 9b4f ce3b 5d63 57be 5b24 86be
00000030: b4e7 9ebe f3b7 19be d198 5abe 13c3 d53d
00000040: 75fa 41be d67b 71be 811e d1be 345c 9ebe
00000050: 92ef efbd 41b1 71be eb2c 89be 8795 d1be
00000060: 188b 5abf 38e9 3d3e 5a5d a4bd afad 5ebd
00000070: 4b59 59be dc89 6dbe 7b88 11bf 2d03 03bf
00000080: 3f1f 9ebe 1494 11bf 3783 4ebe dc55 c2bc
00000090: 2615 083d b548 c2be febe 25be 46f0 0e3e
000000a0: 7bdd 39bf a562 27bd acbd d3be b6a6 58be
000000b0: ebc6 82bd 9530 bbbe 339a 053e 0ef6 afbd
000000c0: 320f e9bb 877e 1c3c ff0f 6e3d 536a debe
000000d0: f618 d2bd 84fc 11be 34a5 58be 6ee0 01bf
000000e0: c478 64be 31aa a7be affc 78bd 844b 63bd
000000f0: 8182 47be d3a9 a73e 602e e8bd 42c2 0abf
00000100: cd16 1ebe 41b9 f0be 8a92 9bbe b2c8 58be
00000110: a868 be3e 6e72 dd3c f22f 06bf 091f 9fbe
00000120: 59a5 01bf 4886 54bf 7cf0 6b3e bf1e abbe
00000130: c233 97be d8e9 33be 15d0 8abe 3b3b fc3d
00000140: 92ea bfbe aab9 8e3e 6da0 dd3c 596e 9cbd
00000150: 477a 9ebe ad0d edbe 27aa f93e 8d56 f4be
00000160: a4e1 7e3d 68d6 76be 31d0 bebc a9c2 d1be
00000170: 383d ecbe e410 23bf 9c21 6a3d 1537 96be
00000180: 9696 3cbe ed0f e63d 3696 763c 3c39 2bbe

net_action.weight f4 [100, 2]
0.83072865 -0.10305188 0.010637928 0.06686714 -0.28841937 -0.30819464 0.014521817 0.11135606
0.030057345 0.20848301 0.009559529 0.17423336 -0.002646645 -0.65822494 0.013456853 -0.017754879
0.023486402 0.11938985 -0.024621123 -0.5482117 0.5405314 0.03223387 -0.009483432 0.015428683
0.33620748 0.07877361 0.23985893 -0.19657712 0.17842588 0.013883449 -0.37667888 -0.011287713
0.6473349 -0.39660874 -0.21772149 0.1632997 0.365808 -0.10833375 0.10369896 -0.0693607
0.0039315787 0.013208026 -0.0061423625 0.24305123 0.09027934 0.3317384 -0.75358486 0.1528629
0.00078115636 -0.004108606 -0.41508704 0.008784568 -0.12752154 -0.15192658 -0.37570515 -0.40808398
0.058594685 0.51259583 -0.064391814 0.021726714 -0.24143827 -0.02818083 -0.020481553 -0.022750378
0.06327764 0.7051612 -0.08359372 -0.22273818 0.4736499 0.1017192 -0.19532853 0.48149335
0.53677505 0.36956125 0.31500387 0.009452768 0.3658124 0.26859784 -0.039161243 0.095266774
-0.15938085 0.06707862 0.55693424 -0.0034650974 -0.029787917 0.29895675 -0.0155276675 -0.36141926
0.014132168 0.012270426 -0.13070706 -0.13760918 -0.16810462 0.03131827 -0.10342125 -0.36223873
-0.27711514 -0.16348189 -0.03588304 -0.5172883 -0.13964365 0.4499664 0.41119567 -0.062226225
-0.061579265 0.037708245 0.15979916 0.31765962 -0.047111638 -0.14368302 0.007097274 -0.004049195
0.2573772 0.11339024 0.32895997 0.05817347 -0.30151388 0.5564292 0.30219132 0.23771706
0.027496018 -0.05822003 0.09875386 0.33864996 -0.6925364 -0.20465273 -0.07512276 0.014875697
0.6143466 0.44695956 0.13294646 -0.03874456 -0.27498966 -0.35319856 0.004004484 0.00039986853
0.02302637 0.18150887 -0.37126303 -0.003987714 -0.0017951345 0.021938093 -0.088991016 -0.3095105
-0.22470148 -0.23475781 0.7059175 -0.26801986 0.7187269 0.02572285 0.15720111 -0.14639364
-0.004346106 -0.014337692 -0.302411 0.23402856 -0.036232345 -0.19825613 0.090005025 -0.112492196
-0.022870142 -0.30316257 -0.07840487 -0.29490635 -0.21715048 0.030851655 0.027884234 -0.12071101
-0.2569163 -0.008454569 -0.078899376 0.11734945 -0.15237352 -0.13057372 -0.0806494 -0.5415683
0.34890085 0.009264471 -0.2648409 -0.031276457 -0.020891707 -0.027019527 0.21026194 0.02965663
0.016429473 0.060148805 -0.1946807 -0.321523 -0.49280578 0.282848 0.11880256 -0.031523976
-0.71965957 -0.097588055 0.122672915 -0.21117628 -0.13963056 0.22361887 0.028999034 0.06329685
00000000: a2aa 543f dd0c d3bd b44a 2e3c a4f1 883d
00000010: b4ab 93be b0cb 9dbe eaec 6d3c a50e e43d
00000020: d23a f63c 927c 553e 929f 1c3c 3b6a 323e
00000030: 5673 2dbb 6e81 28bf 227a 5c3c ae72 91bc
00000040: 8e66 c03c aa82 f43d 3db2 c9bc 9a57 0cbf
00000050: 4460 0a3f aa07 043d 6660 1bbc 96c8 7c3c
00000060: 6323 ac3e 0f54 a13d 949d 753e 834b 49be
00000070: 46b5 363e 6877 633c 0edc c0be 1af0 38bc
00000080: bdb7 253f 4d10 cbbe 62f2 5ebe 0938 273e
00000090: 304b bb3e 16de ddbd 1f60 d43d fc0c 8ebd
000000a0: 79d4 803b 7a66 583c df45 c9bb 6ce2 783e
000000b0: 60e4 b83d 9ed9 a93e f0ea 40bf 1888 1c3e
000000c0: 84c6 4c3a 7ca1 86bb 4a86 d4be 26ed 0f3c
000000d0: 0295 02be a492 1bbe 6d5c c0be 62f0 d0be
000000e0: fb00 703d 7b39 033f dbdf 83bd 39fc b13c
000000f0: 983b 77be 7cdb e6bc eec8 a7bc 005f babc
00000100: b597 813d 7285 343f 2f33 abbd 7a15 64be
00000110: 3d82 f23e 2852 d03d 3404 48be 4c86 f63e
00000120: 176a 093f 2237 bd3e 3048 a13e c8df 1a3c
00000130: c34b bb3e a885 893e 8a67 20bd 3a1b c33d
00000140: bc34 23be 8460 893d 3e93 0e3f b016 63bb
00000150: ca05 f4bc dc10 993e c267 7ebc f20b b9be
00000160: 9c8a 673c e609 493c 12d8 05be 6ce9 0cbe
00000170: 9e23 2cbe 9647 003d 85ce d3bd 5b77 b9be
00000180: 09e2 8dbe cc67 27be 18fa 12bd 026d 04bf
00000190: bffe 0ebe ff61 e63e 3d88 d23e ede0 7ebd
000001a0: 8a3a 7cbd f673 1a3d 64a2 233e 48a4 a23e
000001b0: 22f8 40bd a421 13be 4090 e83b 1caf 84bb
000001c0: f2c6 833e 2439 e83d 716d a83e 4e47 6e3d
000001d0: 0760 9abe 2572 0e3f d2b8 9a3e 1a6c 733e
000001e0: 543f e13c 2078 6ebd 773f ca3d 8763 ad3e
000001f0: 114a 31bf 7c90 51be f6d9 99bd 32b9 733c
00000200: d245 1d3f e2d7 e43e 1e23 083e 9eb2 1ebd
00000210: 72cb 8cbe 71d6 b4be 0c38 833b 72a5 d139
00000220: cca1 bc3c 76dd 393e 3016 bebe 5fab 82bb
00000230: b84a ebba 84b7 b33c ec40 b6bd 2978 9ebe
00000240: 2518 66be 5a64 70be 02b7 343f e639 89be
00000250: 7cfe 373f bab8 d23c 54f9 203e 37e8 15be
00000260: c869 8ebb a4e8 6abc 9dd5 9abe 2fa5 6f3e
00000270: 5e68 14bd a803 4bbe 8e54 b83d 4f62 e6bd
00000280: 2a5a bbbc 2038 9bbe bc92 a0bd f7fd 96be
00000290: b25c 5ebe 9cbc fc3c 7a6d e43c 5637 f7bd
000002a0: 898a 83be 0885 0abc ff95 a1bd e954 f03d
000002b0: ce07 1cbe 1eb5 05be 832b a5bd 38a4 0abf
000002c0: 22a3 b23e 02ca 173c 3a99 87be be1b 00bd
000002d0: 1625 abbc 0e58 ddbc e84e 573e 76f2 f23c
000002e0: 1a97 863c 985e 763d 615a 47be aa9e a4be
000002f0: 0a51 fcbe 74d1 903e c24e f33d 491f 01bd
00000300: 9c3b 38bf 3fdc c7bd f03b fb3d 983e 58be
00000310: 50fb 0ebe 58fc 643e 628f ed3c c7a1 813d

net_action.bias f4 [100]
-0.5802418 0.2147277 -0.5998808 -0.011564346 -0.64670193 -0.13053557 -0.69370925 -0.072806254
-0.15196335 -0.4096925 -0.5997702 -0.02768913 -0.16647519 0.23354769 -0.19360185 -0.3949747
-0.3404346 0.007943989 -0.47756654 0.12266627 0.21275404 0.4748813 -0.2018163 -0.6775669
-0.010891717 -0.4567415 0.48111427 -0.49807718 -0.3928999 0.06465085 0.2802361 -0.06425442
-0.54241025 -0.18887776 -0.4274126 -0.6805749 -0.3000776 -0.32623488 0.28553525 -0.1551187
0.31010017 -0.6225958 -0.44309127 -0.28215942 -0.026757829 -0.29615933 -0.20101774 -0.27162084
0.25266093 -0.35286504 -0.4534196 0.37170464 -0.30957335 -0.63116944 -0.20738098 -0.024241827
-0.37401044 0.04179699 -0.40653735 0.23126999 -0.045778554 -0.29695886 -0.45057106 0.02081647
-0.7343556 -0.18414786 -0.22327624 -0.00875858 -0.25774533 0.27947265 -0.074993655 -0.26416522
0.13082927 -0.45081243 -0.38317922 0.2660759 -0.042993173 -0.12688343 -0.23918182 -0.01676333
-0.32824367 0.46770504 -0.25051248 -0.33354735 0.5493149 0.38019243 -0.6472478 -0.48981097
-0.3642828 -0.2999435 0.31272635 0.15325709 -0.08838613 -0.25297287 -0.804124 -0.043067694
-0.39722958 -0.70213306 -0.3646446 0.3827077
00000000: ba8a 14bf 94e1 5b3e ca91 19bf 6278 3dbc
00000010: 428e 25bf 1eab 05be ee96 31bf 721b 95bd
00000020: 489c 1bbe 37c3 d1be 8a8a 19bf 50d4 e2bc
00000030: 7978 2abe 2027 6f3e 903f 46be 203a cabe
00000040: 724d aebe 8127 023c 9a83 f4be 7438 fb3d
00000050: 32dc 593e a423 f33e efa8 4ebe 0675 2dbf
00000060: 2c73 32bc 06da e9be 9c54 f63e f903 ffbe
00000070: 2d2a c9be aa67 843d 1b7b 8f3e d297 83bd
00000080: 66db 0abf 2c69 41be d3d5 dabe 283a 2ebf
00000090: c5a3 99be 4208 a7be ad31 923e 70d7 1ebe
000000a0: 73c5 9e3e 7062 1fbf dcdc e2be 3377 90be
000000b0: 3c33 dbbc 32a2 97be 98d7 4dbe e311 8bbe
000000c0: c65c 813e baaa b4be 9d26 e8be 1250 be3e
000000d0: 6680 9ebe 5294 21bf ae5b 54be cc96 c6bc
000000e0: 4c7e bfbe 5233 2b3d aa25 d0be 0ad2 6c3e
000000f0: 4b82 3bbd fe0a 98be 40b1 e6be 4d87 aa3c
00000100: bbfe 3bbf 4291 3cbe 87a2 64be 2680 0fbc
00000110: 32f7 83be 0a17 8f3e 4696 99bd aa40 87be
00000120: 1cf8 053e e3d0 e6be 1130 c4be 1a3b 883e
00000130: 9c19 30bd bbed 01be 14ec 74be 4053 89bc
00000140: 8e0f a8be 0977 ef3e 2c43 80be b8c6 aabe
00000150: e79f 0c3f 95a8 c23e 08b2 25bf 81c8 fabe
00000160: 4683 babe 3292 99be ab1d a03e 6def 1c3e
00000170: ca03 b5bd a985 81be 12db 4dbf c067 30bd
00000180: ad61 cbbe febe 33bf b2b2 babe 43f2 c33e

net_layer.weight f4 [100, 200]
-0.1664693 -0.076800704 -0.09507497 -0.13101903 0.12854946 -0.019033823 -0.24075893 -0.06399332
-0.13241369 -0.044170342 -0.011918483 -0.10620554 -0.13662887 -0.040412374 -0.082512036 -0.03001552
-0.056947067 -0.012268832 -0.069474116 -0.1336852 -0.19137403 -0.06781213 -0.018321764 -0.10004735
-0.049538992 -0.29463136 -0.007287753 0.030707747 -0.23970225 -0.21172675 -0.08092968 0.05875448
-0.21075329 0.08517392 0.0046151755 -0.08590874 -0.051402494 0.055927195 0.095174015 0.0015812041
0.0013316148 0.056127757 0.013758393 -0.08597654 -0.0011432483 -0.18744043 -0.027094517 -0.14545077
-0.06284273 -0.1064222 -0.06579769 0.032520153 -0.08822104 -0.030657504 -0.06237361 0.08622211
-0.009227717 -0.13295826 -0.058505356 -0.05438382 0.037088014 -0.018095162 -0.026274245 -0.04776711
-0.022154585 0.032203548 -0.12582761 -0.010030098 0.011960655 0.046213217 0.043875255 -0.06972411
-0.04143875 0.002544186 -0.24825794 -0.1863155 -0.08924794 -0.19350612 0.008783795 -0.120832846
-0.037392646 0.07492824 -0.041070946 -0.123879045 -0.009232029 0.057323225 -0.17900923 0.01672152
0.0029354692 -0.17066386 -0.11948614 -0.050131567 -0.012088399 0.052706696 -0.15589589 -0.022478558
-0.07649548 -0.046072386 -0.1029388 -0.017332114 -0.10862067 -0.09289466 -0.13845298 -0.024929058
0.057207838 -0.01406947 -0.01748417 -0.07583417 -0.012464501 -0.10900095 0.11591081 -0.018246993
-0.26447207 -0.37585646 -0.1851944 -0.23186961 -0.09321159 -0.014647979 -0.11960477 -0.08151442
-0.053462386 -0.07027194 -0.024493888 0.015757103 0.019519504 -0.122490704 -0.1333074 -0.23829347
-0.2555303 -0.12179771 -0.056954555 -0.09862153 -0.21186486 -0.132083 -0.06781195 -0.19498158
-0.2635637 0.020651266 0.033085845 -0.0307554 -0.04374516 -0.09026334 -0.068815276 -0.16859168
-0.038133726 -0.04897932 -0.0089960415 -0.045472555 -0.029677812 -0.048137657 -0.2549793 -0.11955254
-0.01486353 0.11187248 -0.12870613 -0.21037367 -0.12663409 -0.19171885 -0.002387471 -0.009227909
-0.15996575 -0.12531847 -0.19650748 -0.020981923 -0.07749908 -0.046401896 -0.19578904 -0.12710667
-0.06878157 -0.0025260714 0.052323356 -0.15472499 -0.13509673 -0.0055730725 -0.066493735 -0.31139803
-0.007738038 -0.044687003 -0.09511921 -0.097616166 -0.19667917 -0.21624485 -0.231496 -0.019145444
-0.13169268 -0.056193195 -0.037282676 -0.11947793 -0.15612793 -0.19729033 -0.053884 -0.013417443
0.073183835 -0.08157465 -0.08474876 -0.15058929 -0.33609742 0.015371943 -0.07307699 -0.007842541
-0.20381367 -0.02529896 0.07369749 -0.08468396 0.008387548 0.03384132 0.0115649 0.09551737
0.031066166 -0.06384033 -0.19882059 -0.27325785 -0.09084853 -0.028238649 -0.2923665 -0.3218543
-0.0032719725 0.1393049 -0.2924059 -0.12849346 -0.10264562 0.12003678 0.09142622 -0.2721653
-0.016281817 -0.2951619 -0.05343078 -0.06686508 0.04877628 -0.011471254 0.012184244 0.06820603
-0.027068803 -0.03878574 -0.033342805 -0.2192096 -0.10081038 -0.34680963 0.1456396 -0.17870058
-0.00037325383 -0.06873177 -0.11438577 0.021941718 0.06529647 0.08805098 -1.696717 -0.0024456226
-0.10456039 -0.0091915 -0.15708187 0.08083 -0.08184443 -0.052913453 0.00044600427 -0.13023287
00000000: ee76 2abe b049 9dbd aab6 c2bd da29 06be
00000010: 78a2 033e d2ec 9bbc 8289 76be ee0e 83bd
00000020: 7497 07be f6eb 34bd be45 43bc 4a82 d9bd
00000030: 70e8 0bbe 7287 25bd 12fc a8bd 1ce3 f5bc
00000040: 5441 69bd 3603 49bc 7248 8ebd c6e4 08be
00000050: 8ef7 43be 16e1 8abd 8617 96bc a0e5 ccbd
00000060: 66e9 4abd ecd9 96be 1ace eebb d08e fb3c
00000070: 8274 75be e6ce 58be 76be a5bd 8aa8 703d
00000080: b6cf 57be aa6f ae3d e63a 973b ecf0 afbd
00000090: 6c8b 52bd ea13 653d 98ea c23d 6840 cf3a
000000a0: 9489 ae3a 38e6 653d e26a 613c 7814 b0bd
000000b0: 0cd9 95ba 62f0 3fbe 52f5 ddbc 0cf1 14be
000000c0: b0b3 80bd e2f3 d9bd f0c0 86bd da33 053d
000000d0: 3cad b4bd 7225 fbbc 787b 7fbd 3895 b03d
000000e0: da2f 17bc 3626 08be 50a3 6fbd 92c1 5ebd
000000f0: 9ae9 173d 4e3c 94bc 163d d7bc 72a7 43bd
00000100: 887d b5bc dee7 033d f4d8 00be 4855 24bc
00000110: a0f6 433c 124a 3d3d 8ab6 333d 84cb 8ebd
00000120: aebb 29bd 5cbc 263b 5437 7ebe 7ec9 3ebe
00000130: a0c7 b6bd 7826 46be e8e9 0f3c 3677 f7bd
00000140: 0829 19bd fa73 993d 023a 28bd 4cb4 fdbd
00000150: f041 17bc c2cb 6a3d 324e 37be 92fb 883c
00000160: 0061 403b 82c2 2ebe 26b5 f4bd c256 4dbd
00000170: 6c0e 46bc fae2 573d 2ca3 1fbe f424 b8bc
00000180: aaa9 9cbd 66b6 3cbd 94d1 d2bd 14fc 8dbc
00000190: 8474 debd 8e3f bebd 9ec6 0dbe 0638 ccbc
000001a0: c452 6a3d a283 66bc f63a 8fbc f24e 9bbd
000001b0: e837 4cbc e43b dfbd a662 ed3d b87a 95bc
000001c0: e268 87be 4270 c0be 9aa3 3dbe 3a6f 6dbe
000001d0: b8e5 bebd 14fe 6fbc 58f3 f4bd 08f1 a6bd
000001e0: 60fb 5abd bcea 8fbd 68a7 c8bc 0a15 813c
000001f0: 5ee7 9f3c 68dc fabd bc81 08be 3403 74be
00000200: ded4 82be 1471 f9bd 2e49 69bd 16fa c9bd
00000210: 1af3 58be c440 07be fee0 8abd 40a9 47be
00000220: d2f1 86be d82c a93c 0685 073d c0f2 fbbc
00000230: 202e 33bd fcdb b8bd 06ef 8cbd 4ca3 2cbe
00000240: 1c32 1cbd 8a9e 48bd 2264 13bc 6e41 3abd
00000250: e21e f3bc fe2b 45bd a68c 82be f6d7 f4bd
00000260: 2a86 73bc 661d e53d 8acb 03be 326c 57be
00000270: 5eac 01be f251 44be 1e77 1cbb a830 17bc
00000280: 10ce 23be 7c53 00be 4239 49be 48e2 abbc
00000290: d6b7 9ebd ea0f 3ebd ec7c 48be 4028 02be
000002a0: 5add 8cbd 728c 25bb 0451 563d 3a70 1ebe
000002b0: cc56 0abe 529e b6bb de2d 88bd 906f 9fbe
000002c0: 5e8f fdbb b809 37bd dccd c2bd fcea c7bd
000002d0: 4466 49be 4a6f 5dbe 4a0d 6dbe e8d6 9cbc
000002e0: 72da 06be d62a 66bd b8b5 18bd d8b0 f4bd
000002f0: 00e0 1fbe 7a06 4abe 78b5 5cbd d6d4 5bbc
00000300: 68e1 953d 9c10 a7bd c290 adbd 1434 1abe
00000310: f614 acbe 9ada 7b3c 64a9 95bd 007e 00bc
00000320: 88b4 50be c43f cfbc b6ee 963d c96e adbd
00000330: ed6b 093c 329d 0a3d b57a 3d3c 9c9e c33d
00000340: 797e fe3c b8be 82bd a097 4bbe 74e8 8bbe
00000350: cb0e babd bd54 e7bc 10b1 95be 16ca a4be
00000360: 976e 56bb f2a5 0e3e 3ab6 95be ca93 03be
00000370: de37 d2bd d8d5 f53d ac3d bb3d 4059 8bbe
00000380: 7261 85bc 761f 97be 3cda 5abd 8ff0 88bd
00000390: a3c9 473d edf1 3bbc 6ca0 473c 9aaf 8b3d
000003a0: 65bf ddbc ccdd 1ebd 7792 08bd 7b78 60be
000003b0: ac75 cebd 0891 b1be 8c22 153e 49fd 36be
000003c0: 48b1 c3b9 3ec3 8cbd 1643 eabd 1ebf b33c
000003d0: 28ba 853d 1254 b43d 062e d9bf bd46 20bb
000003e0: c223 d6bd f297 16bc 12da 20be 338a a53d
000003f0: 0d9e a7bd c7bb 58bd aed5 e939 c45b 05be

net_layer.bias f4 [100]
-0.04466381 0.01594596 -0.037845075 -0.03296254 -0.10680707 0.085335106 -0.12412496 -0.053079642
0.041364346 -0.032716993 0.02748597 -0.10513364 -0.022814933 0.0074822465 0.15723811 0.10219617
0.036219127 -0.03849175 -0.08989863 -0.0014384096 -0.2967252 -0.0843849 -0.025050607 -0.10287596
-0.09772526 -0.026296427 0.0728611 -0.10882005 -0.09582974 0.063498504 -0.046825163 -0.052958872
-0.070160665 -0.09206517 -0.13156791 0.024457298 -0.025999255 0.056214437 -0.010816457 0.112858966
-0.08292522 -0.019877683 -0.047893837 0.019992745 -0.05490698 0.05706194 -0.24369854 -0.05166973
0.003223857 -0.12085531 0.065807454 0.026098711 -0.058377452 -0.105725765 -0.34912968 -0.006842077
-0.4521946 -0.0033886544 -0.061585642 -0.03774461 -0.035632677 -0.06894824 -0.07364501 -0.08989737
-0.1831164 -0.24670443 0.23772772 0.09596991 -0.0332774 0.049653947 -0.012800282 0.019237233
-0.09449429 -0.0051931506 0.03168601 0.055414647 0.1453391 -0.009024613 -0.12240897 -0.0029829163
0.0015098484 -0.0123584755 -0.22808063 -0.026684854 -0.023243345 -0.028035715 -0.10694878 -0.10725296
-0.12707129 -0.11209385 0.021400064 -0.08804313 -0.16392387 -0.08696741 -0.03783252 0.03182931
0.038879625 -0.027032077 -0.10240817 -0.017847538
00000000: 66f1 36bd 1aa1 823c 7003 1bbd ba03 07bd
00000010: aabd dabd 2cc4 ae3d 3a35 febd 0a6a 59bd
00000020: a96d 293d 4102 06bd 422a e13c 4e50 d7bd
00000030: 62e6 babc a22d f53b 0703 213e 3a4c d13d
00000040: 825a 143d 86a9 1dbd c61c b8bd 0489 bcba
00000050: 5eec 97be fed1 acbd ee36 cdbc a2b0 d2bd
00000060: 2e24 c8bd 9b6b d7bc 3338 953d 0cdd debd
00000070: 6242 c4bd 810b 823d becb 3fbd 67eb 58bd
00000080: 65b0 8fbd aa8c bcbd bdb9 06be ac5a c83c
00000090: 64fc d4bc 1c41 663d 8237 31bc 9a22 e73d
000000a0: b3d4 a9bd 86d6 a2bc 542c 44bd d3c7 a33c
000000b0: 24e6 60bd c8b9 693d 1c8c 79be a4a3 53bd
000000c0: 5847 533b fd82 f7bd 0fc6 863d f7cc d53c
000000d0: 321d 6fbd c086 d8bd 20c1 b2be 8033 e0bb
000000e0: 0d86 e7be 3014 5ebb 3a41 7cbd 189a 1abd
000000f0: 92f3 11bd bc34 8dbd 32d3 96bd 1d1c b8bd
00000100: de82 3bbe 16a0 7cbe e56e 733e df8b c43d
00000110: e24d 08bd f061 4b3d 46b8 51bc 6797 9d3c
00000120: 3986 c1bd 4e2b aabb 31c9 013d 78fa 623d
00000130: c6d3 143e f8db 13bc 8eb1 fabd 087d 43bb
00000140: 1be6 c53a 347b 4abc f88d 69be 329a dabc
00000150: d468 bebc 28ab e5bc f607 dbbd 71a7 dbbd
00000160: fa1e 02be 7691 e5bd 304f af3c f54f b4bd
00000170: a9db 27be f81b b2bd 46f6 1abd 735f 023d
00000180: 3e40 1f3d 6072 ddbc 60bb d1bd 0035 92bc

q_value.weight f4 [1, 100]
-0.0033105505 -0.02903412 0.05058556 0.00089030527 -0.0009815285 0.0088363355 -0.063605435 0.017590929
-0.031528134 -0.060615227 0.04682614 0.004275961 0.002255187 -0.079807565 0.016792415 0.020432163
-0.023887156 0.01004787 -0.001338952 0.02891748 -0.0016675207 -0.010802278 0.010123387 0.032785535
0.009562487 0.008829857 -0.01206801 0.019930508 0.004225941 -0.027014945 -0.003404235 0.03511202
-0.024206823 0.00223519 -0.022233916 -0.027171565 -0.00019427712 -0.0060196733 0.022005185 0.022865307
-0.056675483 -0.008971432 0.014357284 0.042380873 -1.98136e-05 -0.009633645 0.013948437 0.02285036
-0.01594543 -0.027740248 -0.061057974 0.011632976 0.003918927 -0.010280676 0.04991369 0.031901017
-0.02074267 -0.0453109 0.004579231 -0.0031022038 0.006572375 0.0010109036 0.012861973 -0.0079494
-0.032088824 0.018151637 0.024558036 -0.006425723 -0.0077884067 -0.03538518 -0.0060531143 -0.012246154
-0.046847314 0.09559353 0.007478284 -0.008692762 0.031663276 -0.03563682 0.0026605125 0.0003247917
0.035049908 -0.000995938 -0.012594024 0.027273731 0.0015228009 0.01054059 0.030701758 0.014642497
0.0045170877 -0.029898291 -0.01465752 0.013488184 -0.0061759083 0.02146161 0.010823363 -0.0152996
0.023374092 0.014075894 0.0038620778 -0.010284325
00000000: d2f5 58bb f6d8 edbc ce32 4f3d 6063 693a
00000010: a2a6 80ba 47c6 103c 9143 82bd da1a 903c
00000020: a523 01bd ac47 78bd c4cc 3f3d 5c1d 8c3b
00000030: c2cb 133b 2672 a3bd 3f90 893c 5a61 a73c
00000040: ffae c3bc d29f 243c c67f afba 5ae4 ec3c
00000050: b690 daba 0afc 30bc 90dc 253c 204a 063d
00000060: faab 1c3c 1bab 103c e7b8 45bc 4e45 a33c
00000070: c379 8a3b 724e ddbc 9619 5fbb 9fd1 0f3d
00000080: 634d c6bc 447c 123b e723 b6bc e796 debc
00000090: deb6 4bb9 ae40 c5bb 3844 b43c 0650 bb3c
000000a0: 8d24 68bd eafc 12bc d03a 6b3c 9197 2d3d
000000b0: 6235 a6b7 70d6 1dbc fc87 643c ae30 bb3c
000000c0: fe9f 82bc 843f e3bc ed17 7abd 3d98 3e3c
000000d0: 586a 803b 4870 28bc 4c72 4c3d a4aa 023d
000000e0: 88ec a9bc ec97 39bd 600d 963b 584e 4bbb
000000f0: 145d d73b 4c80 843a 06bb 523c 333e 02bc
00000100: 926f 03bd beb2 943c ef2d c93c df8e d2bb
00000110: e435 ffbb 0df0 10bd 3459 c6bb 18a4 48bc
00000120: f8e2 3fbd 8ac6 c33d 650c f53b 166c 0ebc
00000130: 5ab1 013d eaf7 11bd fe5b 2e3b ce48 aa39
00000140: 7e90 0f3d 228a 82ba 2a57 4ebc 296d df3c
00000150: b898 c73a 70b2 2c3c 4182 fb3c 15e7 6f3c
00000160: 1404 943b 43ed f4bc 1826 70bc 8bfd 5c3c
00000170: 465f cabb 42d0 af3c 7a54 313c 2cab 7abc
00000180: 067b bf3c 949e 663c ea1a 7d3b 967f 28bc
