c_target_ma0.pth (torch_old, 93201 bytes, 7 tensors)

net_state.weight f4 [100, 24]
0.10213974 0.29694232 -0.00953912 0.09002309 -0.2701226 -0.4321606 0.0042372583 0.09573143
0.12425514 0.38098878 0.017864004 0.03383265 0.55061454 -0.8057705 0.0067017283 -0.003769184
0.006929531 0.17593014 -0.12815306 -0.14200775 0.027130442 0.67665845 0.14035562 -0.07617591
0.12035022 0.35259634 -0.10556393 -0.077758975 -0.1894495 -0.63533854 0.09962834 0.0033522146
0.27070376 0.42570427 -0.07800956 -0.23486198 -0.13486743 -0.45970953 0.09183195 -0.0039641256
0.14309564 0.7585879 0.002933119 0.10747677 0.088496454 -0.6655352 -0.08117496 -0.09197458
-0.11298395 -0.27844936 0.02144846 -0.011272778 -0.4628966 -0.47151855 -0.023155577 -0.045352954
0.088741794 -0.0991434 0.07797516 0.07976039 -0.03451182 -0.056278065 -0.100516506 -0.12904508
0.07941489 -0.0311203 0.15356755 0.027277406 0.6694339 0.87799996 -0.16094455 -0.042537555
0.08627936 -0.19039729 0.053582992 -0.05990119 -0.17598002 0.8017543 -0.047331158 0.022686929
0.053199638 -0.10808181 0.13980946 0.055577327 -0.010771253 0.21722388 -0.13572773 -0.118222296
-0.031858757 -0.28719708 -0.021577124 -0.048947904 0.12724996 -0.6569821 0.021157142 -0.17201884
-0.049370073 0.29039454 0.037926126 -0.0011819344 -0.28775966 -0.14752357 -0.053631697 0.09070355
-0.20106468 0.13506165 -0.074826635 0.08412354 0.13663091 -0.31166634 0.030075848 0.0438344
-0.1988389 0.50302875 0.0690335 0.16705398 0.51197004 -0.29175285 -0.10917266 0.18353893
0.18038327 0.69787097 0.07763254 0.037117135 -0.0634708 0.005240881 -0.10080559 -0.0635131
0.31960523 0.7060708 -0.19995967 -0.0014175966 0.18548618 0.15960893 0.15353253 -0.14973229
0.4705533 0.49570456 -0.07462676 -0.04741302 -0.017623074 -0.9989621 -0.0066696745 0.12230718
0.11786761 -0.12891065 0.07588491 0.013086983 0.23785426 -0.19678685 -0.11890826 0.044456616
0.2578713 -0.08618019 0.07718256 0.059781 -0.20616409 -0.26212975 -0.12816635 0.03111655
0.2961504 -0.207332 -0.057392728 0.06193374 -0.08479521 -0.25120127 0.05692187 -0.18157828
0.122703075 -0.15890193 0.089981884 -0.27130112 -0.0011904621 -0.3094936 -0.11929485 -0.17175074
0.12067589 0.13421473 0.108465 0.077171154 0.20774758 -0.88151616 -0.06941877 -0.05983804
0.08317401 0.14836751 0.0125545915 0.11987767 -0.29709068 -0.4844913 -0.03842731 0.030545877
0.5959834 0.37135872 -0.0015722715 -0.14328493 0.8720526 -1.0543115 -0.077002905 -0.044129133
0.08229329 -0.2494627 0.13191153 -0.074113965 -0.44195706 -0.033744246 -0.10314898 0.13751207
0.023522522 -0.5353434 -0.023847995 0.123360135 -0.5163004 -0.016180411 -0.0062387204 -0.0010475651
0.22143032 0.50333685 0.04013632 0.19654007 0.31059843 -0.89654595 -0.045883924 -0.027531624
0.33584744 0.5503093 -0.021250732 0.065380424 0.098342255 -0.4661351 -0.0071977144 -0.10817115
0.30635303 0.5146259 0.07410616 0.071772076 0.37855428 0.27021945 -0.07394019 -0.07632514
0.5782729 -0.042778663 0.014677118 -0.06850209 0.109556645 -0.36514437 -0.054432802 0.025238698
0.50809866 0.035250403 -0.025585866 0.074669376 0.023487724 -0.31394497 0.00054072664 0.30150047
00000000: a42e d13d d308 983e f849 1cbc 075e b83d
00000010: 824d 8abe 2744 ddbe b3d8 8a3b d70e c43d
00000020: 7b79 fe3d f610 c33e 8857 923c 1b94 0a3d
00000030: 13f5 0c3f fa46 4ebf 2c9a db3b 6a04 77bb
00000040: 1f11 e33b 0827 343e 8e3a 03be 7b6a 11be
00000050: a940 de3c 7d39 2d3f 62b9 0f3e 1e02 9cbd
00000060: 2d7a f63d 8287 b43e e731 d8bd 1940 9fbd
00000070: 0dff 41be 8ca5 22bf f109 cc3d d4b0 5b3b
00000080: af99 8a3e e9f5 d93e 7ac3 9fbd a97f 70be
00000090: b01a 0abe 0c5f ebbe 6412 bc3d 7fe5 81bb
000000a0: aa87 123e d132 423f 9239 403b c81c dc3d
000000b0: a13d b53d 8460 2abf 0f3f a6bd 2b5d bcbd
000000c0: 2164 e7bd ea90 8ebe aeb4 af3c 75b1 38bc
000000d0: c800 edbe e16a f1be c4b0 bdbc 05c4 39bd
000000e0: 42be b53d b20b cbbd 71b1 9f3d 6a59 a33d
000000f0: 445c 0dbd d483 66bd 99db cdbd 6524 04be
00000100: 46a4 a23d 00f0 febc d040 1d3e de74 df3c
00000110: 0560 2b3f 9bc4 603f a6ce 24be dc3b 2ebd
00000120: 3cb3 b03d 82f7 42be d779 5b3d f35a 75bd
00000130: 1b34 34be c53f 4d3f 51de 41bd f0d9 b93c
00000140: dde7 593d ff59 ddbd 362a 0f3e 0da5 633d
00000150: e979 30bc f06f 5e3e 36fc 0abe 881e f2bd
00000160: 547e 02bd 7f0b 93be 82c2 b0bc 997d 48bd
00000170: d04d 023e fb2f 28bf be51 ad3c b525 30be
00000180: 4638 4abd 98ae 943e 6d58 1b3d 23eb 9aba
00000190: 3c55 93be 6b10 17be e9ac 5bbd c8c2 b93d
000001a0: e6e3 4dbe 9a4d 0a3e b53e 99bd f648 ac3d
000001b0: f9e8 0b3e bb92 9fbe a061 f63c b38b 333d
000001c0: 6d9c 4bbe 7ec6 003f 7061 8d3d 3310 2b3e
000001d0: 7810 033f a160 95be ea95 dfbd a1f1 3b3e
000001e0: 64b6 383e aca7 323f cffd 9e3d 2308 183d
000001f0: fbfc 81bd b2bb ab3b 2973 cebd 2813 82bd
00000200: 4ca3 a33e 0ec1 343f 3ac2 4cbe a6ce b9ba
00000210: 17f0 3d3e 8670 233e a237 1d3e 6c53 19be
00000220: 5dec f03e fdcc fd3e ead5 98bd 2834 42bd
00000230: 445e 90bc fbbb 7fbf 498d dabb 307c fa3d
00000240: 9364 f13d 2701 04be 8c69 9b3d c96a 563c
00000250: 1190 733e 7e82 49be 2c86 f3bd 2418 363d
00000260: b507 843e 3d7f b0bd e411 9e3d ecdc 743d
00000270: ae1c 53be df35 86be 0a3e 03be 23e8 fe3c
00000280: 06a1 973e d74e 54be a314 6bbd 3cae 7d3d
00000290: 1ca9 adbd 749d 80be e826 693d a8ef 39be
000002a0: c04b fb3d 30b7 22be 6c48 b83d fbe7 8abe
000002b0: 4809 9cba f275 9ebe dc50 f4bd 6ddf 2fbe
000002c0: ec24 f73d 966f 093e e622 de3d e90b 9e3d
000002d0: c8bb 543e 0bab 61bf 6e2b 8ebd bc18 75bd
000002e0: 2357 aa3d a7ed 173e c6b1 4d3c 6d82 f53d
000002f0: 451c 98be 3e0f f8be f465 1dbd 593b fa3c
00000300: 5e92 183f bb22 be3e ad14 ceba 49b9 12be
00000310: d73e 5f3f aef3 86bf b3b3 9dbd c0c0 34bd
00000320: 6289 a83d 2673 7fbe d113 073e 10c9 97bd
00000330: 3248 e2be 6837 0abd c63f d3bd f7cf 0c3e
00000340: 4eb2 c03c 440c 09bf df5c c3bc 3da4 fc3d
00000350: 432c 04bf c88c 84bc 2e6e ccbb 744e 89ba
00000360: a1be 623e afda 003f fb65 243d cd41 493e
00000370: c206 9f3e 0984 65bf c8f0 3bbd 008a e1bc
00000380: 32f4 ab3e 12e1 0c3f 0416 aebc 2ce6 853d
00000390: aa67 c93d 43a9 eebe ceda ebbb d688 ddbd
000003a0: 4eda 9c3e 86be 033f f8c4 973d 3dfd 923d
000003b0: ded1 c13e 345a 8a3e f46d 97bd 5b50 9cbd
000003c0: b109 143f ae38 2fbd 4b78 703c d34a 8cbd
000003d0: 3c5f e03d 34f4 babe eef4 5ebd 63c1 ce3c
000003e0: c112 023f ba62 103d 7399 d1bc 42ec 983d
000003f0: 5469 c03c 65bd a0be 8dbf 0d3a 455e 9a3e

net_state.bias f4 [100]
-0.118083775 -0.5660075 0.41657358 -0.12720054 -0.016165894 -0.47105145 -0.4849044 -0.50311357
-0.5136398 -0.54151094 -0.2467036 -0.1175216 0.10007616 0.07341823 -0.0029381043 0.11264254
-0.4315803 0.10721253 0.18790627 -0.25815165 -0.070496924 -0.2572959 -0.046378054 -0.2069876
-0.12086522 -0.1935633 -0.46850505 0.13192481 -0.35420144 -0.25848484 0.13248274 0.4797639
-0.027395902 -0.35438177 -0.24509495 -0.30811736 -0.1977489 -0.17530854 -0.030739402 0.23333687
-0.6059665 -0.08528386 0.21132846 -0.057271916 -0.35475078 -0.36214235 -0.053632706 -0.18028146
-0.17532219 -0.108715005 -0.20080724 -0.4114061 -0.37585378 -0.54722035 -0.2184146 0.048152946
-0.37214398 -0.081346 -0.07618722 0.048926905 -0.39611813 -0.7772283 -0.4553719 -0.6013007
-0.12975374 -0.13141441 -0.6415804 -0.13427876 -0.42473346 -0.24434663 0.0010798521 -0.4113066
-0.14944896 -0.24989815 0.119684055 -0.5718113 -0.4259186 -0.65891176 -0.1623251 0.17176843
-0.34924975 -0.09255663 -0.48562506 -0.39097703 -0.1515164 -0.051692948 0.29855666 -0.13104749
-0.35581285 0.16796555 -0.32635802 0.1254765 -0.35536903 0.18516959 -0.12260475 -0.16553251
-0.41090825 -0.25458905 -0.10390897 0.048316322
00000000: e8d5 f1bd dee5 10bf 2249 d53e dc40 02be
00000010: 566e 84bc a82d f1be 6445 f8be 0dcc 00bf
00000020: e67d 03bf 76a0 0abf de9f 7cbe 2aaf f0bd
00000030: bbf4 cc3d 4c5c 963d 368d 40bb 22b1 e63d
00000040: 18f8 dcbe 3e92 db3d 806a 403e 742c 84be
00000050: b160 90bd 4abc 83be eaf6 3dbd 8ff4 53be
00000060: 2f88 f7bd 7535 46be e5df efbe 4c17 073e
00000070: e459 b5be 2058 84be 8ea9 073e 9da3 f53e
00000080: 5f6d e0bc 8771 b5be 2cfa 7abe 8fc1 9dbe
00000090: b07e 4abe 1584 33be 33d1 fbbc dcef 6e3e
000000a0: 9f20 1bbf 4ea9 aebd 7d66 583e f595 6abd
000000b0: e5a1 b5be b96a b9be f8ad 5bbd b49b 38be
000000c0: a987 33be f9a5 debd 6aa0 4dbe d2a3 d2be
000000d0: e86f c0be a216 0cbf 14a8 5fbe 063c 453d
000000e0: a889 bebe bb98 a6bd 0c08 9cbd 9467 483d
000000f0: ffcf cabe 6ff8 46bf 8126 e9be d8ee 19bf
00000100: 2ade 04be 8091 06be 9d3e 24bf 5f80 09be
00000110: aa76 d9be 0136 7abe d389 8d3a c796 d2be
00000120: 2609 19be 4de5 7fbe ea1c f53d 3a62 12bf
00000130: 0112 dabe 71ae 28bf 8d38 26be 10e4 2f3e
00000140: ddd0 b2be 558e bdbd d9a3 f8be 242e c8be
00000150: 1d27 1bbe fcbb 53bd 6bdc 983e 5031 06be
00000160: 1a2d b6be 29ff 2b3e 6618 a7be e97c 003e
00000170: eef2 b5be 199d 3d3e 3318 fbbd 5b81 29be
00000180: 9162 d2be 7f59 82be 3ace d4bd 56e7 453d

net_action.weight f4 [100, 2]
0.04807178 0.08912924 0.05249661 -0.1912251 0.07689834 0.5538442 -0.55300075 0.066863045
0.58417976 -0.20770192 0.43151432 0.082967386 0.3228624 -0.7606291 -0.0472753 -0.003701132
-0.27640414 0.20538041 -0.14366691 0.15544972 -0.10037064 -0.028113002 0.6061038 0.04189259
-0.026514445 0.057396628 0.44782382 -0.2408166 -0.0028805728 0.004584288 0.00018684662 0.015306983
0.4518392 0.24991469 -0.029265545 0.012196409 -0.04634638 -0.55327845 -0.0071592033 0.0009416946
-0.060925532 0.08546696 0.4578389 -0.017773535 0.075640805 -0.30980748 -0.38416275 0.02751211
0.01138019 0.18052834 0.7638014 0.105974644 0.15755019 -0.07302614 -0.46664265 -0.06351449
0.24299341 0.075480714 0.82157594 0.1389479 0.02648598 0.18101579 0.006116919 -0.16867489
-0.056036185 -0.37560183 0.22900377 0.3663751 -0.3250455 -0.38054645 0.024929622 -0.43055776
-0.006232732 0.017429315 -0.0053513423 -0.0029185847 -0.017552368 -0.09606289 0.015102003 0.18781096
-0.25945377 0.08772334 -0.13095346 0.016977761 -0.015055963 0.030514728 -0.069794506 0.03538204
0.39296338 -0.039730534 -0.20955797 0.35595727 -0.14024687 -0.18734425 -0.1371082 -0.04215379
-0.1297839 0.009347417 -0.26737505 -0.113762245 -0.29917204 -0.04047143 -0.011109522 0.6677027
0.24199852 0.18806928 0.003520391 0.027729832 -0.59321105 0.0036707332 0.16620953 0.21674697
-0.010120865 -0.024560161 0.19006786 -0.41776344 0.23013586 0.2794525 0.23212431 0.08682116
-0.009182623 0.05503597 0.23648618 -0.2629865 -0.5895091 -0.2654633 -0.39807525 -0.11953066
0.25687104 -0.21943438 -0.14462036 -0.0056459475 0.04126584 0.07815256 0.5956837 -0.42351106
-0.09774262 -0.124808565 -0.0052819867 0.016072955 -0.02030215 0.020718958 -0.62912345 0.075180724
-0.010579698 0.025267038 0.010514859 0.0012916226 0.0879722 0.11167243 -0.001917718 -0.024015002
-0.19945139 -0.015487827 -0.09324173 0.2525438 0.13557664 0.11955193 0.080353744 0.47672388
-0.51198006 -0.11186615 -0.59691364 -0.11568855 0.52864355 -0.1145107 -0.27518946 0.0040954696
-0.16336432 -0.09007202 -0.40568882 -0.48028332 -0.05449019 -0.039321452 -0.11242236 0.5380417
-0.45092887 -0.27635443 0.20263568 -0.348562 0.48312107 -0.21388853 0.00196268 0.0003572742
0.035502538 -0.5442881 -0.025232483 -0.044317536 0.11176288 0.43690085 -0.0050583044 -0.0032806238
0.043119222 -0.004088059 -0.03817293 0.0056032687 -0.44236815 0.28834113 -0.3094385 0.43437222
00000000: eae6 443d 6489 b63d af06 573d 83d0 43be
00000010: e07c 9d3d bcc8 0d3f 7591 0dbf 7eef 883d
00000020: ce8c 153f d0af 54be 72ef dc3e ceea a93d
00000030: 384e a53e 97b8 42bf bfa3 41bd b18e 72bb
00000040: d884 8dbe 3e4f 523e 6b1d 13be 362e 1f3e
00000050: 1f8f cdbd 3d4d e6bc 9e29 1b3f 9097 2b3d
00000060: d234 d9bc ba18 6b3d 2a49 e53e a098 76be
00000070: fec7 3cbb cc37 963b 42ec 4339 24ca 7a3c
00000080: 7857 e73e a3e9 7f3e 4cbe efbc 72d3 473c
00000090: b4d5 3dbd a8a3 0dbf c097 eabb 0edc 763a
000000a0: 0d8d 79bd 4d09 af3d dc69 ea3e ce99 91bc
000000b0: 91e9 9a3d 169f 9ebe fbb0 c4be 1461 e13c
000000c0: fa73 3a3c 6cdc 383e 7d88 433f 3c09 d93d
000000d0: d654 213e bb8e 95bd c9eb eebe e313 82bd
000000e0: 44d3 783e a295 9a3d cd52 523f 5c48 0e3e
000000f0: 20f9 d83c 345c 393e 7070 c83b 1cb9 2cbe
00000100: 3386 65bd e24e c0be f77f 6a3e 8495 bb3e
00000110: 5d6c a6be fcd6 c2be 3539 cc3c 1172 dcbe
00000120: f23b ccbb ecc7 8e3c 505a afbb ba45 3fbb
00000130: fcc9 8fbc 9fbc c4bd 646e 773c 8451 403e
00000140: 20d7 84be 4ba8 b33d aa18 06be f214 8b3c
00000150: 49ad 76bc 06fa f93c 6cf0 8ebd c2ec 103d
00000160: 7f32 c93e 7cbc 22bd 5d96 56be 0840 b63e
00000170: e09c 0fbe 2cd7 3fbe 1866 0cbe 74a9 2cbd
00000180: 12e6 04be e925 193c 62e5 88be 2efc e8bd
00000190: 142d 99be 5fc5 25bd b604 36bc 90ee 2a3f
000001a0: 76ce 773e 3c95 403e 5cb6 663b ac29 e33c
000001b0: aedc 17bf af90 703b d532 2a3e ebf2 5d3e
000001c0: fcd1 25bc 6432 c9bc 26a1 423e 17e5 d5be
000001d0: bca8 6b3e 6614 8f3e ffb1 6d3e 4bcf b13d
000001e0: b672 16bc 666d 613d 6f29 723e 2ba6 86be
000001f0: 12ea 16bf ceea 87be 85d0 cbbe 7ecc f4bd
00000200: 9a84 833e 68b3 60be 5c17 14be a401 b9bb
00000210: 5f06 293d 730e a03d ba7e 183f 71d6 d8be
00000220: 482d c8bd a29b ffbd 8414 adbb 6eab 833c
00000230: b250 a6bc ceba a93c 3c0e 21bf 5af8 993d
00000240: 7856 2dbc d2fc ce3c 8446 2c3c aa4b a93a
00000250: c52a b43d 84b4 e43d f05b fbba 1cbb c4bc
00000260: fc3c 4cbe a8c0 7dbc 85f5 bebd 6c4d 813e
00000270: 9ad4 0a3e a4d7 f43d 8190 a43d 2715 f43e
00000280: 2011 03bf 141a e5bd 55cf 18bf 1eee ecbd
00000290: 2f55 073f 9684 eabd a2e5 8cbe 4a33 863b
000002a0: fa48 27be ae77 b8bd 72b6 cfbe b2e7 f5be
000002b0: 1b31 5fbd 880f 21bd b23d e6bd 1abd 093f
000002c0: 26e0 e6be 547e 8dbe ba7f 4f3e b876 b2be
000002d0: a55b f73e 9805 5bbe 4ea0 003b 8850 bb39
000002e0: 1c6b 113d 7756 0bbf 5ab4 cebc 4e86 35bd
000002f0: f0e3 e43d 78b1 df3e 22c0 a5bb bcff 56bb
00000300: c89d 303d 20f5 85bb 385b 1cbd a09b b73b
00000310: 147e e2be 73a1 933e b96e 9ebe 0966 de3e

net_action.bias f4 [100]
-0.14261365 0.3198358 -0.68987393 -0.4114049 -0.4667146 -0.51725507 -0.73664576 0.107984915
-0.49573594 0.22100592 0.46764275 -0.35226896 0.30237764 -0.6920303 -0.017744415 -0.063260674
-0.2882915 -0.09668532 -0.60432076 -0.021070939 0.36797467 -0.50123036 -0.24301907 -0.35588297
-0.19861528 -0.46902904 0.3070135 0.6107665 -0.3232559 -0.50878286 -0.20898613 -0.20008194
-0.10461886 -0.3152661 -0.5898609 -0.41083518 -0.025610633 -0.021363739 -0.11366247 0.017964505
-0.17901781 -0.5735203 0.21598238 0.2580396 0.5961778 -0.2667166 -0.33261007 0.39581028
0.2357189 0.4336813 0.46399564 -0.7119894 -0.17096321 -0.08364804 -0.2586965 0.420994
-0.043086722 -0.37013 0.5038142 0.24145232 -0.06520614 0.49750385 -0.8593545 0.26285872
-0.48839182 -0.15200773 0.1158407 -0.73147124 0.03944201 -0.052836135 -0.14504114 -0.72871864
-0.039106727 -0.0350907 0.19786559 -0.028868355 -0.22602043 -0.25788978 -0.26196855 -0.41765773
-0.62659585 -0.59280556 -0.47176847 0.35582614 -0.55819666 -0.89310646 0.10209604 -0.7032733
-0.7459369 -0.55568516 -0.401306 -0.00714943 -0.48718843 -0.076604575 -0.41992268 -0.013350232
-0.13685995 -0.0505045 -0.4555928 -0.5524837
00000000: 5009 12be 85c1 a33e 949b 30bf aaa3 d2be
00000010: 37f5 eebe d46a 04bf d194 3cbf 3227 dd3d
00000020: 1ad1 fdbe 604f 623e df6e ef3e 995c b4be
00000030: 3ed1 9a3e e628 31bf bc5c 91bc d08e 81bd
00000040: f29a 93be f402 c6bd c4b4 1abf f69c acbc
00000050: 2d67 bc3e a250 00bf fed9 78be 4b36 b6be
00000060: ce61 4bbe 9324 f0be e030 9d3e 315b 1c3f
00000070: cc81 a5be 983f 02bf 7600 56be 48e2 4cbe
00000080: 6a42 d6bd 8f6a a1be 2001 17bf fd58 d2be
00000090: 64cd d1bc 0203 afbc dec7 e8bd 4c2a 933c
000000a0: 7250 37be 3ad2 12bf 7c2a 5d3e c41d 843e
000000b0: 1c9f 183f 148f 88be de4b aabe a5a7 ca3e
000000c0: 4c60 713e 7a0b de3e d690 ed3e f044 36bf
000000d0: fb10 2fbe aa4f abbd de73 84be 878c d73e
000000e0: b47b 30bd ae81 bdbe f8f9 003f 473f 773e
000000f0: cc8a 85bd d3b8 fe3e a8fe 5bbf 6b95 863e
00000100: 7e0e fabe eaa7 1bbe e43d ed3d b341 3bbf
00000110: f28d 213d b46a 58bd aa85 14be 4e8d 3abf
00000120: 602e 20bd 44bb 0fbd 479d 4a3e 547d ecbc
00000130: e671 67be 210a 84be be20 86be 3cd7 d5be
00000140: 9668 20bf 1bc2 17bf a38b f1be d82e b63e
00000150: fae5 0ebf a0a2 64bf bb17 d13d b809 34bf
00000160: b8f5 3ebf 6241 0ebf fb77 cdbe c445 eabb
00000170: c370 f9be dce2 9cbd 1b00 d7be eeba 5abc
00000180: 0425 0cbe cedd 4ebd 7643 e9be 926f 0dbf

net_layer.weight f4 [100, 200]
-0.04937184 0.1509009 -0.048055515 0.04011932 -0.060106263 0.029438227 -0.06235814 -0.026634678
-0.13558382 0.03168025 0.07232988 -0.067411706 -0.18897521 -0.11099774 -0.04399462 0.08358513
-0.00011717352 -0.11381407 -0.12955144 0.014734654 0.04142361 -0.034100994 0.04058654 -0.018225707
0.02442085 -0.021346726 0.07116918 0.049864262 0.016348213 -0.05709908 -0.030462813 0.0067327004
-0.0007612761 -0.050742306 0.05375895 0.030314408 -0.0031015347 0.06444277 0.036902726 -0.056800418
0.008766657 0.015710972 -0.052096263 -0.10537958 -0.07645406 0.04663849 -0.17098373 0.028223809
-0.014669096 -0.04663214 -0.1326918 0.021363836 -0.011230545 -0.030726116 0.053687036 -0.035383463
0.02667617 0.13059011 0.020748124 -0.08055033 -0.00255071 -0.08973305 -0.083117425 -0.07865326
-0.055739395 -0.036891155 0.014524892 0.0007715208 0.027021505 -0.03398343 -0.021968007 0.00090694916
-0.008041017 -0.024927635 -0.053189732 -0.028956674 0.014538258 0.05714806 0.03198167 0.02423077
-0.09227742 -0.019017335 0.023489762 -0.026303146 -0.03968671 -0.044954717 -0.07547198 -0.033882327
-0.05172438 -0.031160705 -0.06357843 -0.049549006 -0.12384604 -0.08085656 -0.023122393 -0.037845843
-0.12790167 -0.0023821583 -0.04639581 0.021730874 -0.08622643 0.018678188 0.051930703 -0.07083987
-0.007632206 -0.018936493 0.025468815 -0.015348012 0.0049542477 -0.022390772 -0.029256001 0.06004373
-0.05196169 -0.14031833 0.020401686 -0.09762505 0.0015620748 -0.058527753 0.13767204 0.01810053
-0.053389378 0.09034227 -0.07178712 0.0016261297 0.00067716325 -0.018566638 0.029765453 0.0059429677
-0.021789279 -0.029473979 0.028516125 -0.021389075 -0.121525586 -0.0022446956 0.0022722078 -0.07690942
0.012453776 -0.061156027 -0.08539353 -0.07303357 -0.096289575 0.060437202 -0.005693176 -0.038941972
0.046933725 0.036206156 0.03105779 -0.080601335 -0.11804928 -0.065040246 -0.12636012 0.10752715
0.020057067 -0.021724563 -0.11305158 -0.04896658 -0.027513675 0.014228884 -0.044710837 -0.06941515
-0.09993224 0.02024974 0.060501754 -0.081952244 -0.07813361 -0.05235248 -0.010029413 -0.002009823
-0.06936595 -0.08392234 0.023915637 0.2373654 -0.075791925 -0.04904908 -0.08969079 -0.11194199
-0.06572053 0.02522023 -0.048930645 -0.006135585 0.052708745 -0.03752646 -0.06144914 0.019073214
0.01512883 -0.02129266 0.00270091 -0.008965321 0.039401576 0.07176304 0.022460822 0.037791856
-0.020793028 -0.113242924 -0.015211195 0.007857829 -0.04866483 -0.101480246 0.011111569 -0.049177796
-0.06428935 -0.021380339 0.038492218 -0.04561753 -0.080158845 0.042707868 -0.0643373 -0.030647308
-0.039377034 -0.072635844 -0.007881416 -0.07111938 0.027797647 0.04165569 -0.04697933 -0.06432633
0.0056595234 0.053911522 -0.051631205 0.040436894 0.04517039 -0.05795209 0.059954926 -0.08106984
-0.038093053 -0.069495946 0.05995643 -0.0626331 -0.05587566 -0.052779198 -0.005584728 0.030430682
0.039954998 -0.005635198 -0.07356638 0.0035640267 -0.066045895 0.016705524 -0.043164007 -0.006983323
-0.05369079 -0.05549372 0.034336008 -0.10501987 -0.021021001 1.088998e-05 -0.017877635 -0.048871316
0.03327173 0.026634876 -0.0007538096 -0.055943675 -0.090803474 -0.0840898 -0.040175207 -0.07404533
00000000: 203a 4abd c485 1a3e dcd5 44bd 2854 243d
00000010: fc31 76bd 7028 f13c 406b 7fbd f830 dabc
00000020: 7cd6 0abe 26c3 013d b021 943d 260f 8abd
00000030: b882 41be c852 e3bd b433 34bd ae2e ab3d
00000040: 0ebb f5b8 5a17 e9bd 22a9 04be 9e69 713c
00000050: ceab 293d 7cad 0bbd 123e 263d 144e 95bc
00000060: 3c0e c83c 54df aebc 26c1 913d 783e 4c3d
00000070: b0ec 853c bae0 69bd 268d f9bc fc9d dc3b
00000080: 6090 47ba 2ad7 4fbd 5832 5c3d ec55 f83c
00000090: 1e43 4bbb 92fa 833d 5027 173d 8ea7 68bd
000000a0: 06a2 0f3c 4cb4 803c e462 55bd 40d1 d7bd
000000b0: f293 9cbd 0008 3f3d 5c16 2fbe 9e35 e73c
000000c0: a656 70bc 5801 3fbd 5ce0 07be 3603 af3c
000000d0: 5200 38bc 56b5 fbbc f0e6 5b3d 40ee 10bd
000000e0: fc87 da3c 6ab9 053e f8f7 a93c 92f7 a4bd
000000f0: d029 27bb f6c5 b7bd 7839 aabd f614 a1bd
00000100: fe4e 64bd 2e1b 17bd d0f9 6d3c e23f 4a3a
00000110: 345c dd3c 3632 0bbd 40f6 b3bc 54c0 6d3a
00000120: 78be 03bc 0a35 ccbc 7add 59bd 8c36 edbc
00000130: e031 6e3c 1614 6a3d 36ff 023d 9c7f c63c
00000140: f2fb bcbd 3eca 9bbc 9a6d c03c b279 d7bc
00000150: 888e 22bd 7022 38bd 0e91 9abd 32c8 0abd
00000160: f2dc 53bd bc44 ffbc 6835 82bd e6f3 4abd
00000170: fea2 fdbd 2098 a5bd 2c6b bdbc 3e04 1bbd
00000180: a8f8 02be fc1d 1cbb 8809 3ebd f204 b23c
00000190: 7c97 b0bd 0003 993c 4ab5 543d 7e14 91bd
000001a0: 9617 fabb b420 9bbc faa3 d03c 3a76 7bbc
000001b0: 3e57 a23b da6c b7bc 48aa efbc 6af0 753d
000001c0: c8d5 54bd 9caf 0fbe 7021 a73c a4ef c7bd
000001d0: 88be cc3a ccba 6fbd e6f9 0c3e 9047 943c
000001e0: d2ae 5abd 5e05 b93d 2005 93bd dc23 d53a
000001f0: a883 313a 1019 98bc aed6 f33c 3abd c23b
00000200: 6e7f b2bc 6a73 f1bc a69a e93c 2438 afbc
00000210: 68e2 f8bd be1b 13bb 52e9 143b b082 9dbd
00000220: ec0a 4c3c be7e 7abd cee2 aebd a092 95bd
00000230: 7833 c5bd 008d 773d d28d babb 9e81 1fbd
00000240: 943d 403d e84c 143d e86c fe3c 5012 a5bd
00000250: d2c3 f1bd d233 85bd 8c64 01be 3237 dc3d
00000260: b84e a43c b6f7 b1bc 9687 e7bd 2e91 48bd
00000270: 5c64 e1bc 4420 693c b622 37bd 8829 8ebd
00000280: 46a9 ccbd c8e2 a53c b0d0 773d 94d6 a7bd
00000290: 8404 a0bd 8e6f 56bd 6852 24bc 3cb7 03bb
000002a0: bc0f 8ebd 7adf abbd baea c33c ea0f 733e
000002b0: cc38 9bbd b0e7 48bd ceaf b7bd d841 e5bd
000002c0: 7c98 86bd a89a ce3c 806b 48bd 040d c9bb
000002d0: 20e5 573d 58b5 19bd 18b2 7bbd 6e3f 9c3c
000002e0: eade 773c f26d aebc c001 313b 48e3 12bc
000002f0: 8c63 213d 80f8 923d c2ff b73c a2cb 1a3d
00000300: 2456 aabc e8eb e7bd 6038 79bc 20be 003c
00000310: c654 47bd e0d4 cfbd 4c0d 363c a86e 49bd
00000320: 22aa 83bd d225 afbc 04aa 1d3d 72d9 3abd
00000330: 522a a4bd 72ee 2e3d 46c3 83bd 1010 fbbc
00000340: d049 21bd 1ac2 94bd 0e21 01bc 0aa7 91bd
00000350: e4b7 e33c 289f 2a3d 666d 40bd 86bd 83bd
00000360: 8673 b93b 54d2 5c3d 3e7b 53bd 28a1 253d
00000370: 9604 393d 2c5f 6dbd 4c93 753d f207 a6bd
00000380: 7607 1cbd e453 8ebd e094 753d c845 80bd
00000390: e0dd 64bd 002f 58bd 1800 b7bb c449 f93c
000003a0: daa7 233d 78a7 b8bb f8a9 96bd 7292 693b
000003b0: 1243 87bd 06da 883c becc 30bd 5cd4 e4bb
000003c0: e0ea 5bbd 624d 63bd eaa3 0c3d a814 d7bd
000003d0: 3c34 acbc 1cb4 3637 1e74 92bc 4a2d 48bd
000003e0: f047 083d 6231 da3c 4e9b 45ba 3225 65bd
000003f0: 2cf7 b9bd 4637 acbd c28e 24bd 14a5 97bd

net_layer.bias f4 [100]
-0.032818526 -0.047671504 -0.09882992 -0.042208113 0.029835682 -0.0586138 -0.027934384 0.12870374
-0.19922313 -0.12440145 -0.11743787 0.021408748 -0.2511319 0.028086692 0.061101347 -0.03338287
-0.05086773 -0.07408338 0.0081669 -0.12389661 0.036754075 -0.12459229 -0.094898924 -0.121807516
-0.083487034 -0.14571095 0.11441678 0.20484865 -0.09427486 -0.1076899 -0.11674449 -0.04616475
0.0094307475 -0.38624692 0.25301722 -0.21446902 -0.069183245 0.021412093 -0.07915334 0.16272935
0.07352725 -0.19856277 0.094153605 -0.09602551 0.05358858 0.11182404 -0.07883458 -0.01478141
0.10936817 0.0051149623 0.10885517 -0.088858575 0.019612622 -0.022092748 -0.51523155 -0.07801558
-0.14086851 -0.12167622 -0.11381869 -0.05605285 -0.08757876 -0.079603985 0.010719473 -0.0358513
0.07347745 -0.2655815 -0.03709311 -0.07182914 -0.058877707 -0.0010451442 -0.03531518 -0.0077717174
-0.006719781 -0.09811544 0.028099226 0.000102404665 0.116729535 -0.03430032 -0.056226663 0.025129523
-0.016593672 -0.014099348 0.06704791 -0.040718827 -0.058473617 0.062724836 -0.18876576 -0.23462261
-0.05034538 -0.15671164 -0.18974692 0.017762557 -0.123793796 -0.09158468 -0.07495138 -0.19302785
-0.08829637 0.06665926 -0.14515403 -0.00407122
00000000: b86c 06bd 3243 43bd 5767 cabd 6ae2 2cbd
00000010: f669 f43c 0615 70bd a6d6 e4bc eaca 033e
00000020: 2601 4cbe 30c6 febd 4483 f0bd 6661 af3c
00000030: 5c94 80be 1016 e63c 6845 7a3d 7abc 08bd
00000040: ae5a 50bd 07b9 97bd 76ce 053c 82bd fdbd
00000050: 718b 163d 3e2a ffbd 5e5a c2bd 3876 f9bd
00000060: 40fb aabd 4035 15be 5853 ea3d d8c3 513e
00000070: 2e13 c1bd 868c dcbd bc17 efbd 4017 3dbd
00000080: 6c83 1a3c 28c2 c5be 798b 813e c49d 5bbe
00000090: f2af 8dbd 6a68 af3c 251b a2bd 86a2 263e
000000a0: 7495 963d 0a54 4bbe 9bd3 c03d 06a9 c4bd
000000b0: b37f 5b3d 0104 e53d 0674 a1bd ba2d 72bc
000000c0: 6bfc df3d 6a9b a73b 76ef de3d 7cfb b5bd
000000d0: a6aa a03c dafb b4bc 37e6 03bf a2c6 9fbd
000000e0: d63f 10be 6231 f9bd c619 e9bd ac97 65bd
000000f0: 7e5c b3bd 6a07 a3bd baa0 2f3c d0d8 12bd
00000100: 587b 963d 4cfa 87be f2ee 17bd 281b 93bd
00000110: c029 71bd 38fd 88ba a6a6 10bd e4a9 febb
00000120: 9c31 dcbb bff0 c8bd 5930 e63c 16c2 d638
00000130: e50f ef3d 7e7e 0cbd ee4d 66bd 6edc cd3c
00000140: 74ef 87bc f400 67bc 6a50 893d c9c8 26bd
00000150: 0882 6fbd e175 803d d04b 41be e940 70be
00000160: f536 4ebd 0479 20be 044d 42be c882 913c
00000170: 9a87 fdbd c090 bbbd 1c80 99bd 18a9 45be
00000180: bad4 b4bd a684 883d 42a3 14be de67 85bb

q_value.weight f4 [1, 100]
0.018138908 0.008891756 0.037842937 0.020315126 -0.0006551115 0.003365755 -0.008728161 0.025444202
-0.01743754 -0.010006111 -0.0016790719 -0.00097627554 0.01504498 -0.009890733 -0.019587697 -0.009128386
0.04268215 -0.007649011 -0.022123013 0.0092958305 0.021879213 -0.0054221107 0.013141915 0.005820174
-0.0074376697 -0.0077945543 0.011151916 0.016437849 0.0014487167 -0.0074641528 -0.025295224 0.060108222
-0.02086552 0.007930331 0.007121682 -0.008020977 -0.041554153 0.0013642304 0.013923185 -0.013543644
0.009659086 0.0115615055 0.035210352 -0.026215358 -0.025249861 -0.016306074 -0.001779584 0.0014768199
0.025100738 -0.03549646 0.010190879 0.008448228 -0.018202825 0.006622102 -0.019672528 0.038827337
-0.013865855 -0.010775588 -0.0051144212 0.016807545 -0.027815226 -0.021282911 0.038659934 -0.006068375
0.010437134 -0.01201984 -0.01393159 -0.005490615 -0.008149179 0.024609728 -0.0030132276 -0.012536949
-0.006021944 -0.043687385 -0.026245689 0.006380017 0.0067879874 -0.015926482 -0.061876334 -0.04014121
-0.018891424 -0.031863242 0.0037478772 -0.015867228 0.033973653 -0.043298297 0.008448925 -0.0041394522
-0.030084882 0.0010595536 -0.010248524 0.034223378 -0.008036505 -0.01661275 0.004305535 -0.011444554
-0.0018217191 -0.04192621 0.003679026 0.04406271
00000000: 0c98 943c baae 113c 3201 1b3d e86b a63c
00000010: cabb 2bba 0094 5c3b 9000 0fbc 5c70 d03c
00000020: 2cd9 8ebc acf0 23bc 4e14 dcba beec 7fba
00000030: 387f 763c be0c 22bc 6176 a0bc 3a8f 15bc
00000040: 7ad3 2e3d 8ea4 fabb 523b b5bc 8a4d 183c
00000050: 093c b33c f6ab b1bb 3051 573c 28b7 be3b
00000060: b2b7 f3bb 7669 ffbb 87b6 363c aba8 863c
00000070: dee2 bd3a da95 f4bb ee37 cfbc 0a34 763d
00000080: 2bee aabc 38ee 013c 005d e93b 6a6a 03bc
00000090: b034 2abd facf b23a 121e 643c 29e6 5dbc
000000a0: 2541 1e3c 786c 3d3c bb38 103d 97c1 d6bc
000000b0: ccd8 cebc 5194 85bc ee40 e9ba da91 c13a
000000c0: 10a0 cd3c bc64 11bd a5f7 263c 706a 0a3c
000000d0: 171e 95bc 38fe d83b 4828 a1bc 6a09 1f3d
000000e0: 9c2d 63bc 188c 30bc e096 a7bb faaf 893c
000000f0: c2dc e3bc 8059 aebc e159 1e3d 38d9 c6bb
00000100: 8300 2b3c ddee 44bc 5341 64bc 9eea b3bb
00000110: 2284 05bc 579a c93c 9279 45bb c667 4dbc
00000120: ba53 c5bb 8bf1 32bd 3301 d7bc 760f d13b
00000130: c46d de3b 4178 82bc 0a72 7dbd 1c6b 24bd
00000140: 30c2 9abc 0883 02bd f29e 753b fdfb 81bc
00000150: f527 0b3d 8e59 31bd 5c6d 0a3c 3ea4 87bb
00000160: 9274 f6bc b8e0 8a3a 6de9 27bc d02d 0c3d
00000170: 8cab 03bc 7617 88bc 7215 8d3b f081 3bbc
00000180: c0c6 eeba d1ba 2bbd d01b 713b 1a7b 343d
